classify_pytorch/cnn2c/params_simple.pth (torch, 128735 bytes, 4 tensors)

conv.weight f4 [16, 3, 3, 3]
0	0x3e70bcdc	0.23509544
1	0x3e8afc02	0.27145392
2	0xbeb2a3e8	-0.34890676
3	0x3ca1d775	0.019756058
4	0x3e6a2b40	0.22868061
5	0x3d910834	0.07081643
6	0xbeb838d4	-0.35980856
7	0x3e14d864	0.14535671
8	0x3e8c62e0	0.27419186
9	0x3e4153c7	0.18879615
10	0x3dfc7470	0.12326896
11	0xbe3c1753	-0.18368272
12	0x3d9216f9	0.07133288
13	0x3e131efd	0.1436729
14	0xbd965ed9	-0.073423095
15	0xbec8df39	-0.39232805
16	0x3d3a3199	0.045457456
17	0x3e4c6465	0.19960172
18	0x3ddef3e3	0.108863614
19	0x3dd2e07d	0.10296724
20	0xbeb282da	-0.34865457
21	0xbcdd337c	-0.027002089
22	0x3ea68f55	0.3253123
23	0x3dc205b1	0.09473742
24	0xbec2136c	-0.37905443
25	0x3d490158	0.049073547
26	0x3d398cbe	0.045300238
27	0x3e34bda5	0.17650469
28	0x3dec9ce6	0.115533635
29	0x3e1cd363	0.15315013
30	0xbc6d1d64	-0.014472339
31	0xbdeeffaf	-0.116698615
32	0xbdc611b8	-0.09671348
33	0xbe0b0775	-0.13577063
34	0x3dc5e122	0.09662081
35	0x3e129f55	0.14318593
36	0x3ddf5a79	0.10905928
37	0x3d853220	0.06503701
38	0x3c65b061	0.014019103
39	0x3de6633f	0.112493984
40	0x3cfb47f5	0.03067396
41	0x3dfac733	0.122450255
42	0x3e008027	0.12548886
43	0x3d3ac1b6	0.045594893
44	0x3d290349	0.0412629
45	0x3dc8c733	0.09803619
46	0x3d4efb9e	0.05053293
47	0xbdec88fc	-0.11549565
48	0xbd7fa7ae	-0.06241577
49	0x3daca3ff	0.08429717
50	0x3d9598fc	0.0730457
51	0x3d91e49d	0.07123683
52	0x3e0133b4	0.1261738
53	0x3ac5d2a1	0.001509268
54	0xbd81717d	-0.06320474
55	0xbe496b69	-0.1966988
56	0xbe423533	-0.18965606
57	0xbd57db94	-0.05269964
58	0x3e5f08c1	0.21780683
59	0xbdf32573	-0.11872377
60	0x3d3464b6	0.044041358
61	0x3e1e775a	0.15475217
62	0x3cd47cf8	0.025938496
63	0x3db4daf4	0.088308245
64	0xbe64af98	-0.22332609
65	0xbe065c36	-0.13121113
66	0x3e81ee36	0.25377053
67	0x3d698fe2	0.057021983
68	0xbe51bfbc	-0.20483297
69	0xbe407c66	-0.18797454
70	0x3cddc324	0.02707059
71	0x3de39132	0.11111678
72	0x3e0a7e75	0.13524802
73	0xbd45bb95	-0.048274595
74	0xbe2772b7	-0.16352354
75	0x3e800b80	0.25008774
76	0x3e6ca857	0.23111092
77	0x3dda0ff2	0.106475726
78	0xbe35c44f	-0.17750667
79	0x3d527d82	0.051389225
80	0x3d09fd0f	0.0336886
81	0x3ead8ca5	0.33896366
82	0x3eb8882d	0.36041394
83	0x3f1b4631	0.6065398
84	0xbd80a5d3	-0.062816285
85	0x3e3621b1	0.1778629
86	0x3cb86c06	0.022512447
87	0xbf3c0cbf	-0.7345695
88	0xbee618f5	-0.44940916
89	0xbf28b84d	-0.6590622
90	0x3dac57ef	0.084152095
91	0x3eb7b4e7	0.35880205
92	0x3e9f8004	0.31152356
93	0xbd600ca1	-0.054699544
94	0x3ccadb15	0.02476267
95	0x3de1e98f	0.11030876
96	0xbf297d6a	-0.6620699
97	0xbf086863	-0.5328428
98	0xbf26e3ca	-0.6519133
99	0x3e64c5a1	0.22341014
100	0x3edcef2c	0.43151224
101	0x3e9e11d9	0.30872992
102	0xbe769d9c	-0.2408356
103	0x3e19c746	0.15017423
104	0xbcab0f93	-0.02088145
105	0xbf209903	-0.6273348
106	0xbeb6f386	-0.3573267
107	0xbf146941	-0.57973105
108	0xbd2e1c1f	-0.042507287
109	0xbb038c5e	-0.002007268
110	0x3e15fd75	0.14647467
111	0xbe559f2e	-0.20861503
112	0x3d52173c	0.05129169
113	0x3d7219f4	0.059106782
114	0xbe652a74	-0.22379476
115	0xbdae1a47	-0.08501106
116	0x3d4420a0	0.047882676
117	0xbe4d19b4	-0.20029336
118	0xbccf1ba4	-0.025281735
119	0xbdbc9093	-0.09207263
120	0xbe7e003a	-0.24804774
121	0x3dbffbe9	0.0937422
122	0x3e5eab5d	0.21745057
123	0xbdf78b13	-0.12087073
124	0x3e0fec82	0.14055064
125	0x3e106cb4	0.14103967
126	0xbdfff12c	-0.12497172
127	0xbe10a63a	-0.1412591
128	0x3e09ef61	0.13470222
129	0xbe2e8c5e	-0.17045733
130	0x3df85ec1	0.12127448
131	0x3c6e17f3	0.014532077
132	0xbdd4293f	-0.103594296
133	0x3d37efd6	0.04490646
134	0x3e26b207	0.1627885
135	0x3e22d54f	0.15901683
136	0x3e23c23a	0.1599206
137	0xbf00eb4e	-0.50359046
138	0x3ee78f70	0.45226622
139	0x3e02f648	0.12789261
140	0xbef72926	-0.4827358
141	0x3d3fd88b	0.04683737
142	0xbf1409e4	-0.5782759
143	0xbe979d69	-0.29612282
144	0x3eca20f9	0.3947828
145	0x3e955945	0.2916967
146	0xbf060d83	-0.5236437
147	0x3eb365fc	0.35038745
148	0x39c28317	0.00037100233
149	0xbebf439c	-0.3735627
150	0xbda0116c	-0.07815823
151	0xbf178c1d	-0.5919817
152	0xbe504965	-0.20340498
153	0x3ec20972	0.3789783
154	0x3eae94d5	0.34097925
155	0xbf124c73	-0.571479
156	0x3ecf1bc2	0.40450865
157	0xbde6811f	-0.11255097
158	0xbf01a7c6	-0.50646627
159	0x3c945892	0.01810864
160	0xbee304d2	-0.44339615
161	0xbe8ad5aa	-0.27116138
162	0xbd87f180	-0.06637859
163	0xbe44de72	-0.19225481
164	0xbe9b518b	-0.3033565
165	0x3e231502	0.15925983
166	0x3e255f30	0.16149592
167	0xbcc91f6d	-0.024551118
168	0x3e03407c	0.12817568
169	0x3e2c9344	0.16853052
170	0x3e063a03	0.13108067
171	0xbd29df6a	-0.04147283
172	0xbe08c185	-0.13355072
173	0xbe62fca0	-0.22166681
174	0x3de321e2	0.11090447
175	0x3e2251e0	0.15851545
176	0xbe9db160	-0.3079939
177	0xbbe007a2	-0.0068368474
178	0x3e5553c5	0.20832737
179	0xbdcac10a	-0.099001005
180	0xbdeaea05	-0.11470417
181	0xbe7d7c83	-0.24754529
182	0xbe993c9b	-0.2992905
183	0x3e71ff11	0.23632456
184	0xbca27414	-0.019830741
185	0xbe34011f	-0.17578553
186	0xbcb892b4	-0.022530891
187	0x3db21e82	0.08697225
188	0xbd984c1a	-0.0743639
189	0xbd995d12	-0.07488455
190	0xbce163ac	-0.027513348
191	0xbd79ad0d	-0.06095605
192	0xbd59b37b	-0.05314968
193	0xbd237c44	-0.03991343
194	0xbd2f07f1	-0.042732183
195	0xbd3adae5	-0.04561891
196	0x3dae539d	0.08512042
197	0xbd960d7f	-0.07326793
198	0xbd7792ae	-0.06044262
199	0xbce16482	-0.027513746
200	0xbd76c362	-0.060244925
201	0xbd4c3ab8	-0.049860686
202	0xbd3d0054	-0.04614289
203	0xbd42d4b0	-0.047566116
204	0xbad80973	-0.0016482308
205	0x3d894329	0.06702263
206	0xbd9666ec	-0.073438495
207	0xbd8a4e40	-0.06753206
208	0xbce168f4	-0.027515866
209	0xbd763642	-0.060110338
210	0xbd575c2b	-0.052578133
211	0xbd2bed31	-0.04197425
212	0xbd33072e	-0.04370802
213	0xbd8b6880	-0.06807041
214	0x3dd15835	0.10221902
215	0xbd958b6a	-0.07301982
216	0xbdec7224	-0.11545208
217	0x3d357c1d	0.044307817
218	0xba217354	-0.0006158848
219	0x3cad974d	0.02119031
220	0xbd6a73d8	-0.057239383
221	0x34271510	1.556075e-07
222	0x3ccf7e3f	0.025328754
223	0x3cecbf81	0.02889991
224	0xbcd2db43	-0.025739318
225	0x3d134191	0.0359512
226	0xbd6c7ee7	-0.05773821
227	0xbabe736a	-0.0014530246
228	0xbe08d035	-0.13360675
229	0xbaa539fc	-0.0012605782
230	0x3498f4b6	2.8490257e-07
231	0xbdbf7eab	-0.09350332
232	0xbdc16cdc	-0.094445914
233	0x3c27e824	0.010248218
234	0xbbf3b07e	-0.007436811
235	0xbd7e8300	-0.06213665
236	0xb9f610af	-0.00046933207
237	0x3d818eec	0.06326088
238	0x3bf71188	0.0075399317
239	0x344bbd42	1.89747e-07
240	0xbd968b57	-0.07350796
241	0xbaaa44ea	-0.0012990509
242	0xbd42a045	-0.047516126
243	0xbdbf1508	-0.09330183
244	0xbe118a13	-0.14212827
245	0x3e041726	0.12899455
246	0x3c7b44b1	0.0153362015
247	0xbba865b4	-0.005139077
248	0x3d37ff6f	0.044921335
249	0x3e0bdb8f	0.13657974
250	0x3d71f129	0.05906788
251	0xbe27d17a	-0.16388503
252	0xbd203875	-0.03911634
253	0x3d974a19	0.0738718
254	0x3e038585	0.12843902
255	0x3da811fa	0.08206554

conv.bias f4 [16]
0	0xbf097a48	-0.5370221
1	0xbe74e31b	-0.23914759
2	0xbe4e9830	-0.20175242
3	0xbd4ba280	-0.04971552
4	0x3d206c51	0.0391658
5	0xbd90bd56	-0.07067363
6	0xbda58843	-0.080826305
7	0x3db94e22	0.09048106
8	0xbd2afec1	-0.04174686
9	0xbdf72cdd	-0.12069104
10	0xbc06c728	-0.0082261935
11	0xbe3e16bf	-0.18563364
12	0xbd172b26	-0.036906384
13	0xbe152cf7	-0.14567934
14	0xbebd0aeb	-0.36922392
15	0x3d572279	0.05252311

linear.weight f4 [10, 3136]
0	0x2db75ae0	2.0845048e-11
1	0xac6c7ff0	-3.3608637e-12
2	0xb1ce9cc8	-6.013213e-09
3	0xb45fa0f0	-2.0827042e-07
4	0x3848e2f0	4.7895068e-05
5	0x3cd717ff	0.02625656
6	0x3c193a83	0.009352329
7	0x3c5b8e2d	0.013400597
8	0x3d1d4cce	0.038403325
9	0xb85e5d91	-5.3016065e-05
10	0xbbef177a	-0.0072965
11	0xb5245dc1	-6.123119e-07
12	0xae9e71ca	-7.205221e-11
13	0xadf520dc	-2.7867868e-11
14	0xad8438d3	-1.5031898e-11
15	0xae61a986	-5.1309644e-11
16	0x3c44241a	0.011971498
17	0xbcb28a1c	-0.021794371
18	0x3cde3e4b	0.027129313
19	0x3b9a2385	0.0047039413
20	0xbd049ab2	-0.03237409
21	0xbb729fc4	-0.0037021497
22	0x3c1059f6	0.008810511
23	0xbba81077	-0.005128916
24	0xbb563ba7	-0.0032689364
25	0xba269048	-0.0006353897
26	0xb9128354	-0.00013972569
27	0xaddae4f0	-2.48854e-11
28	0x2d2ba094	9.75588e-12
29	0xb86bc6c1	-5.621347e-05
30	0x3b89eaf3	0.0042089163
31	0xbaca3b26	-0.0015429005
32	0xbd06aab5	-0.032877643
33	0x3c0417e8	0.00806234
34	0x3bc3036e	0.0059513366
35	0xbca3c82b	-0.019992908
36	0x3d0b5c4f	0.03402358
37	0x3d6bf912	0.05761058
38	0xbb91e9d1	-0.004452922
39	0xbbfd749f	-0.0077348496
40	0x3c8183b3	0.01580987
41	0x36d10d5c	6.2302406e-06
42	0x31c8387c	5.8271876e-09
43	0x384b5ba5	4.8484322e-05
44	0xbce6af1c	-0.02815967
45	0xbc23b7a8	-0.0099925175
46	0xbc840774	-0.016116835
47	0xbd016576	-0.0315909
48	0x3ae3db36	0.0017384056
49	0x3c4d9ad1	0.012549118
50	0x3d674522	0.056462415
51	0x3ddcb541	0.10776759
52	0x3d9d3336	0.07675783
53	0x3dc4b257	0.09604328
54	0x3c8f78cf	0.01751366
55	0x39342b65	0.00017182303
56	0xb4170658	-1.4065279e-07
57	0xba09457d	-0.000523649
58	0xbcc08de3	-0.023505157
59	0x3af0f550	0.0018383656
60	0xbd3ba447	-0.045810964
61	0xbd749bb5	-0.059718806
62	0xbd5e6a06	-0.05430033
63	0x3cb8ec1e	0.022573527
64	0x3de00415	0.109382786
65	0x3e45bd8d	0.19310589
66	0x3ddb684d	0.10713253
67	0x3de1f48d	0.110329725
68	0x3d7c84d5	0.061650116
69	0xbc10d002	-0.008838655
70	0x37589563	1.2909385e-05
71	0xb80d337b	-3.3664965e-05
72	0xbc0b5d0b	-0.00850607
73	0xbd0d0be4	-0.034435168
74	0xbdcb5c83	-0.099297546
75	0x3a93967a	0.0011260055
76	0xbd5a262c	-0.05325906
77	0x3d16112c	0.03663747
78	0x3e20c78a	0.15701118
79	0x3db608c6	0.08888392
80	0x3da232ab	0.079198204
81	0x3dfbb25f	0.12289881
82	0x3d4458a9	0.047936115
83	0xbaafac8a	-0.0013402861
84	0xb7bb51cb	-2.2330225e-05
85	0xba6457c8	-0.000871059
86	0xbcb4f2a4	-0.022088356
87	0xbccca9c0	-0.024983287
88	0xbd8762ac	-0.06610617
89	0xbd660410	-0.056156218
90	0xbd0be95b	-0.034158092
91	0x3bc1debe	0.0059164455
92	0xbc322310	-0.010872617
93	0x3b01884e	0.0019765082
94	0x3bf338c0	0.0074225366
95	0x3d76a739	0.06021807
96	0x3ce70ef7	0.028205378
97	0x37cf1960	2.468814e-05
98	0xb64c6682	-3.0458036e-06
99	0xbb16cbf5	-0.0023009751
100	0xbc664338	-0.014054112
101	0x3bd15e13	0.0063893883
102	0xbcc341ed	-0.023835147
103	0xbc284cc8	-0.010272212
104	0x3bd28e44	0.006425651
105	0xbd4aa752	-0.049475975
106	0xbddd4632	-0.10804404
107	0xbda86fe9	-0.0822447
108	0xbcd348e6	-0.025791597
109	0x3d1ad2b6	0.037798606
110	0xbaa0921a	-0.0012250573
111	0xb6dc46b6	-6.5647428e-06
112	0xb42be8c0	-1.601029e-07
113	0xbb10d8e6	-0.0022101938
114	0x3cc68cae	0.024237003
115	0x3d3b882a	0.045784153
116	0x3d197992	0.037469454
117	0xbcdf43c2	-0.02725399
118	0xbd9b2f18	-0.07577342
119	0xbdd27648	-0.102764666
120	0xbe22b364	-0.15888745
121	0xbdcbaf6b	-0.09945568
122	0xbd51d827	-0.05123153
123	0x3c567770	0.01309
124	0x3d0a20d4	0.033722714
125	0xbb5b2b49	-0.0033442548
126	0x36372d11	2.7295357e-06
127	0xbcf666e8	-0.030078366
128	0x3cded261	0.027199926
129	0x3cdb4c4d	0.026769781
130	0x3d5b10ec	0.053482935
131	0x3c4b0a90	0.012392655
132	0xbd66eaf2	-0.056376405
133	0xbe163374	-0.14668065
134	0xbe0a4afc	-0.13505167
135	0xbdc92762	-0.09821965
136	0xbd0a0dd9	-0.033704612
137	0xbc9fd1e7	-0.019509269
138	0xbc13c3fa	-0.009018892
139	0x3b1fac6c	0.0024364246
140	0xb0ead9e6	-1.7087671e-09
141	0x3a7b6794	0.00095903245
142	0x3c730940	0.014833748
143	0x3cd66e50	0.026175648
144	0x3d31921c	0.04335223
145	0x3dc4127a	0.095738366
146	0x3d6f5e7b	0.058439713
147	0xbd31d8c8	-0.04341963
148	0xbe04fee8	-0.12987864
149	0xbd8f81a1	-0.070071466
150	0xbd411e7f	-0.047148224
151	0xbbd4cb82	-0.0064939866
152	0x3c38b347	0.011273212
153	0x3991326a	0.00027694117
154	0x2e9512df	6.779088e-11
155	0xb6a1862f	-4.813795e-06
156	0xbc894b9f	-0.016759692
157	0x3d564c1c	0.052318677
158	0x3da55ecd	0.080747224
159	0x3dc90a80	0.09816456
160	0x3e08c3ef	0.13355993
161	0x3d8dd15f	0.069247
162	0x3ce7548a	0.028238554
163	0xbd014b9e	-0.031566255
164	0xbd41110d	-0.0471354
165	0x3cba8cb5	0.022772172
166	0xba11e6a2	-0.0005565678
167	0xb7270744	-9.955667e-06
168	0xade673aa	-2.6199338e-11
169	0xb6e7f765	-6.913137e-06
170	0xb9ac53f2	-0.0003286894
171	0xbbd7805f	-0.0065765823
172	0xbd570413	-0.05249412
173	0xbc84e71e	-0.016223487
174	0xbbec9b7c	-0.0072206836
175	0xbcdc7e8a	-0.026915807
176	0xbd57cc4b	-0.052685063
177	0xbc7025d0	-0.014657453
178	0xbd273e0b	-0.040830653
179	0xbbb9f5a9	-0.005675037
180	0xba64b341	-0.00087242207
181	0x35bcc8ec	1.4065567e-06
182	0xae22c11d	-3.7006054e-11
183	0xad3d8e5c	-1.0775016e-11
184	0xb81dbc1e	-3.7606915e-05
185	0xb92f9f2f	-0.00016748601
186	0xbaa255d0	-0.0012385193
187	0xbcad7e8e	-0.02117851
188	0xbc42ff87	-0.011901743
189	0xbc469c29	-0.012122192
190	0xbd03660a	-0.032079734
191	0xbcd9a64a	-0.02656855
192	0xb9c770e8	-0.0003804036
193	0xb9f581d8	-0.00046826783
194	0xbac6fb3b	-0.0015181074
195	0x2cfcb2a0	7.182102e-12
196	0x2dace878	1.9657373e-11
197	0x2e3c01da	4.2747896e-11
198	0x3aa2a24b	0.0012407986
199	0x3b47d2aa	0.0030490556
200	0xb90b9560	-0.0001331172
201	0x3c03bbf9	0.008040422
202	0x3c0a1c20	0.008429557
203	0x3be22dee	0.006902448
204	0x3c5ead50	0.013591126
205	0xba9bdf40	-0.0011892095
206	0xbad511ab	-0.0016255876
207	0xb81173a1	-3.467838e-05
208	0xb8904cbf	-6.88075e-05
209	0x2ea1f018	7.3640816e-11
210	0x2cecfb88	6.735449e-12
211	0x324e6659	1.2014049e-08
212	0x3b26e62a	0.0025466778
213	0xbc0be2aa	-0.008537928
214	0x3c4d57bd	0.0125331255
215	0x3b81055f	0.003937408
216	0xbbf0e090	-0.0073509887
217	0xbd17a640	-0.037023783
218	0xbc57d482	-0.013173224
219	0xbb6add8f	-0.0035837626
220	0xbb07850e	-0.0020678672
221	0x3bda64fe	0.0066648712
222	0x3b2b7e8b	0.0026167955
223	0xb61ddaac	-2.3522107e-06
224	0x2ddbb5f6	2.4978224e-11
225	0xbaa518ce	-0.0012595893
226	0x3ae1feb8	0.001724205
227	0xbd05003f	-0.032470938
228	0xbd1c1ce6	-0.038113497
229	0xbcc25b62	-0.023725215
230	0x3b892596	0.004185389
231	0xbc234011	-0.009964005
232	0xbb4347e1	-0.0029797482
233	0x3d0c4b20	0.034251332
234	0xba64ed5e	-0.000873288
235	0x3c32ac89	0.010905393
236	0xbb9683f8	-0.0045933686
237	0x394ca9b6	0.00019518178
238	0x3083cc94	9.589649e-10
239	0xbb38e08b	-0.002821001
240	0xbcb0682a	-0.021534044
241	0xbcd76091	-0.026291164
242	0xbc8583c7	-0.016298188
243	0xbb8a31de	-0.0042173704
244	0xbbd2272f	-0.0064133625
245	0x3cbaca71	0.02280161
246	0x3d2bccbe	0.041943304
247	0x3d7a617b	0.06112812
248	0x3d83061e	0.06397651
249	0x3d1673a5	0.03673138
250	0xbb74a54a	-0.0037329965
251	0xbac6c391	-0.0015164485
252	0x359defcc	1.1767202e-06
253	0x39436753	0.0001863514
254	0xbc15eb7e	-0.009150384
255	0xbc7601be	-0.015015064

linear.bias f4 [10]
0	0xba755c88	-0.00093597965
1	0x3e116a0a	0.14200607
2	0x3c9f2fe8	0.019432023
3	0xbd022cba	-0.031780936
4	0xbc063f9c	-0.008193877
5	0x3dae3f76	0.08508198
6	0xbc8749e2	-0.016514722
7	0x3da17943	0.07884457
8	0xbdbc5669	-0.09196169
9	0xbceb4625	-0.028719971
