classify_pytorch/face/params_16.pth (torch, 524679 bytes, 10 tensors)

conv1.0.weight f4 [32, 3, 3, 3]
000000 be eb c9 3d 0f ff 33 bd ba cc 39 be c8 0e a4 3d
       0.098594174 -0.043944415 -0.18144503 0.08010632
000010 89 ee 05 3e b4 e3 c4 bd 1e e4 27 be 64 29 ed 3d
       0.13079275 -0.096137434 -0.16395614 0.1158016
000020 0f 5b 1d be a5 ce 64 be ef 9e 84 be c9 01 6a be
       -0.15366767 -0.22344454 -0.25902507 -0.22852243
000030 c4 a0 3a be 45 f5 85 be ab 2d ad be bb 82 92 be
       -0.1822539 -0.26163688 -0.33823904 -0.28615364
000040 36 ea 5a be d4 f3 82 be ec 06 be 3d 2e 6c 3a 3e
       -0.21378407 -0.2557665 0.09278664 0.1820533
000050 a0 ba 36 bd 5f 67 1e 3e 8f b1 37 3e 9c 3a 60 bb
       -0.044611573 0.1546912 0.17938827 -0.0034214621
000060 d4 33 29 bd 6c 59 27 3e a3 00 ee 3c 12 7d 0f be
       -0.041309193 0.16342705 0.029053038 -0.14012554
000070 6d ee 1b be b6 61 09 3e 76 01 0d 3e 41 4d 76 be
       -0.15227671 0.1341618 0.13770089 -0.24052908
000080 3e 94 93 3d dc ca 44 be c2 39 7f bd a2 79 e0 3d
       0.07206009 -0.1921801 -0.06231094 0.109606996
000090 d7 f7 3d be 7d 78 90 bd d0 b0 20 bd 5c 08 d8 bd
       -0.18551575 -0.07054231 -0.03923112 -0.105484694
0000a0 9d 9b 0c 3d f7 94 21 bb cf 68 d6 bd 56 95 fa 3c
       0.034328092 -0.002465544 -0.104692094 0.030588787
0000b0 61 d3 e5 3d 0f 61 27 be 39 ed 88 bd f7 ef 0f 3e
       0.11221958 -0.16345619 -0.06685872 0.14056383
0000c0 20 df de bd 10 37 c8 3d b9 44 6b be d2 15 32 be
       -0.108824015 0.09776127 -0.22975434 -0.17391136
0000d0 4f 20 37 3d 00 a1 5f be f9 c5 8a 3d 6a 8d 12 be
       0.044708546 -0.2183876 0.067760415 -0.14311758
0000e0 b7 dc da bd 12 e4 5f be c3 0b 47 be 8c b0 05 bd
       -0.10686629 -0.21864346 -0.1943808 -0.03263907
0000f0 6e 21 14 be 36 ca f2 bd e0 8a d2 3c ce 22 1c bd
       -0.14465877 -0.11854975 0.025700986 -0.03811913
000100 40 be b9 3d 00 af 72 bc 2b 91 5a bd 99 5a 95 bd
       0.090694904 -0.014812231 -0.0533611 -0.07292671
000110 1a d5 f8 3d da 34 6b be 6d e0 dd 3c ce ee 1e be
       0.12150021 -0.2296938 0.027084554 -0.15520784
000120 b7 db cc bc 68 69 d3 bd 88 41 ac bd 8c 6d d4 bc
       -0.025007112 -0.10322839 -0.084109366 -0.025931142
000130 f3 0e f3 39 90 9d 47 3c 59 71 06 3d be 1f d4 3d
       0.0004635971 0.012183562 0.03282294 0.10357617
000140 f2 cc 16 be b8 1b d7 bd 41 e2 bc bd fc 0d 2f be
       -0.14726618 -0.10503334 -0.09222842 -0.17095178
000150 d3 b1 38 3e 17 7c 17 be 10 52 cd 3c 78 f4 18 be
       0.18036585 -0.1479343 0.025063545 -0.14937007
000160 69 5a 32 be 83 d0 40 be 90 9f df bc 88 96 11 bd
       -0.17417301 -0.18829541 -0.027297765 -0.03554395
000170 9e a8 c4 bd 48 49 3b bd c4 aa 44 be dd 66 05 3e
       -0.09602474 -0.045724183 -0.19205767 0.1302752
000180 7d 32 30 be d5 0c 9b bd 0d e4 27 3e 96 78 a1 3d
       -0.1720676 -0.07570807 0.16395588 0.07884328
000190 c0 72 55 3b 42 3a f9 bd ec 7e 21 bd e8 82 4b bd
       0.0032569617 -0.12169315 -0.039427683 -0.04968539
0001a0 60 3f ac bb 00 98 ce b8 80 99 d3 3b 4d 52 fe bd
       -0.0052565783 -9.851158e-05 0.0064575076 -0.124180414
0001b0 ad 57 27 bd ab 1a dd 3d 33 78 f9 3d 88 b7 d9 bd
       -0.0408551 0.10796102 0.12181129 -0.10630709
0001c0 51 61 ba bd 65 4b b6 bb 0a c8 1e bc 52 19 b2 bc
       -0.09100593 -0.005563187 -0.009691248 -0.02174059
0001d0 30 89 3c be 78 c9 13 bd 0f 28 23 be db e2 8a 3d
       -0.18411708 -0.036080807 -0.1593325 0.067815505
0001e0 6f b3 9f bb 3e 16 48 be 7b 8a fa bc 2a d3 3c ba
       -0.004873685 -0.19539735 -0.03058361 -0.0007203097
0001f0 88 61 a5 bc 44 0b 1b 3d 06 d3 83 be 49 83 57 be
       -0.020188108 0.03785254 -0.25746936 -0.21046175
000200 a4 79 7a be 03 6d 65 be d2 c8 87 bd 7a ec f4 bc
       -0.24460465 -0.22404866 -0.066301 -0.029897917
000210 35 b6 62 3a 07 74 dc bd 31 79 33 bc ab 85 ed 3d
       0.0008648367 -0.10764318 -0.010954187 0.11597761
000220 52 d0 32 be 5c 44 37 3b a7 75 a8 3d 8e af df 3d
       -0.1746228 0.002796433 0.082255654 0.10922156
000230 29 55 59 be e3 1f 05 bd e5 ba 60 be 84 91 73 be
       -0.21223892 -0.032501113 -0.21946295 -0.23785979
000240 e2 51 73 be 5e 4d 8a bd 60 ae 85 3d 7f 5e 39 be
       -0.23761705 -0.06753038 0.065274 -0.18102454
000250 0d 46 4a bc b2 7c 4c be 3a bd b8 3b 3a 0f 04 be
       -0.012345803 -0.19969442 0.005637792 -0.12896433
000260 fa 4b 36 be 93 e6 1d be 5f fb b0 3d ce 05 ee 3d
       -0.1780242 -0.15419988 0.08641695 0.11622201
000270 21 9e 6d be 91 be 4d 3d 1b 88 d7 3d ab f7 15 be
       -0.23204853 0.050230566 0.10524007 -0.14645259
000280 55 e5 fa 3d a2 50 f1 3d 22 0f 3f 3e b2 8a 5f 3d
       0.12250773 0.117829576 0.18658116 0.05457563
000290 49 67 61 be 1c 37 a9 3c 73 cb b3 bd e9 0c 39 be
       -0.22012056 0.020656161 -0.08779039 -0.18071331
0002a0 e8 78 54 3d 77 ea 9b be 41 71 da 3c c0 db 29 3e
       0.051873118 -0.3045232 0.026665332 0.16587734
0002b0 19 8f e7 3d c2 83 89 bd 5a 2c 8d bc 90 e0 00 be
       0.113065906 -0.06714584 -0.017233063 -0.12585664
0002c0 ec 1a 16 be 9a a4 51 3e a3 3a db bd 8e 67 bd 3c
       -0.14658707 0.20472947 -0.107045434 0.023120668
0002d0 fc df 88 bd dd 55 81 bd ed c1 c8 be 73 5f 23 be
       -0.06683347 -0.06315205 -0.39210454 -0.1595438
0002e0 76 9d 03 be 66 29 a8 be 10 23 0c 3e 93 e7 53 be
       -0.12853035 -0.32844085 0.1368525 -0.20693807
0002f0 fb 8b 93 be ef 14 f9 3d 36 29 6f 3d 39 60 ad 3d
       -0.28817734 0.12162196 0.05838891 0.08465619
000300 2d 1c 1e 3c 22 6c 13 bc 59 49 18 be e2 ac 32 bd
       0.009650272 -0.008997949 -0.1487173 -0.043621905
000310 8c 56 69 be ed eb ad bd 20 ed c0 bd 74 dc 57 be
       -0.22786921 -0.08492265 -0.09420228 -0.2108019
000320 f0 48 35 3d 19 11 8a 3d bb 7d fe 3c 1b b2 24 be
       0.04425901 0.06741542 0.031065812 -0.16083567
000330 63 38 e2 3d 88 1e 69 be 2d 8c 48 be 4e 48 18 bd
       0.11045911 -0.22765553 -0.19584723 -0.03717833
000340 45 9d 5c be cc b5 11 be 01 39 37 3d f5 12 74 bd
       -0.21544369 -0.14229506 0.044732098 -0.05958839
000350 29 88 33 be 82 dc 08 3e 68 d7 5e bd d3 59 e8 3b
       -0.1753241 0.13365367 -0.054404646 0.007090786
000360 71 e7 8c bc 09 c9 28 3e e3 d8 89 3d 64 5f 86 3e
       -0.017200204 0.16482939 0.06730821 0.26244652
000370 39 7f 68 3e 75 50 f4 3d df c8 be 3d 1a 6c 53 3e
       0.22704782 0.119294085 0.09315657 0.20646706
000380 ba 48 bc 3d f2 5b 62 3d f9 92 d6 3c ef 17 c4 3d
       0.09193559 0.055263467 0.026193129 0.095748775
000390 68 4d 2a 3e 15 2b 88 3d c1 b4 b6 3b 00 06 80 bd
       0.1663109 0.06648842 0.0055757468 -0.062511444
0003a0 34 64 34 3e 95 a3 b6 3d 1d af 51 be ed 8d 88 be
       0.1761635 0.089179195 -0.20476957 -0.2667078
0003b0 89 1e 37 3d de 07 bf bd 25 29 5b 3d 58 76 f6 bd
       0.044706855 -0.093276724 0.053506035 -0.12034291
0003c0 70 8f f4 bd f4 e9 81 be 1d 06 3b be dc de 4f be
       -0.11941421 -0.25373805 -0.18264051 -0.20299858
0003d0 30 c3 d0 bb ee c1 f2 bc a6 65 a0 be 61 8d 5c be
       -0.0063709244 -0.029633489 -0.31327552 -0.21538307
0003e0 2b 3e 74 be ad b7 37 be 8d c0 89 be 70 58 e2 bc
       -0.2385184 -0.1794116 -0.26904717 -0.02763006
0003f0 a9 b5 0f be 8e 39 86 3d 77 83 1b be d2 60 a5 be
       -0.14034142 0.065539464 -0.15186869 -0.3230043

conv1.0.bias f4 [32]
000000 06 e2 0e bc fa 22 97 bd e4 bf 80 be 8b c5 a5 bd
       -0.00872088 -0.07379718 -0.251464 -0.08094319
000010 cb bf 1c bc 3b bd 1c be a2 96 67 3e 8e 9e 14 be
       -0.009567211 -0.1530656 0.22616056 -0.14513609
000020 05 f4 b9 bc c7 c9 7a 3d 91 ca 0b be 39 4a 30 3d
       -0.022699365 0.061227586 -0.13651492 0.043039534
000030 14 36 30 3c 21 c3 01 bb b7 82 40 be 05 0b 31 3d
       0.010755081 -0.0019800144 -0.18799864 0.0432234
000040 44 2a 10 be c0 13 02 be e2 e0 23 bc d1 81 bd 3d
       -0.14078623 -0.12702847 -0.010002347 0.09253276
000050 60 52 2b be 18 ff 84 be fd 96 b0 bd 93 b7 9b bd
       -0.16730642 -0.2597587 -0.08622549 -0.076033734
000060 29 42 ec bd 70 bc 16 3e f4 b4 72 be 08 e5 c0 3d
       -0.115360565 0.1472032 -0.2370184 0.09418684
000070 8d c7 5a be 68 16 88 bc 55 a1 59 be 4a c6 e4 bb
       -0.21365185 -0.016612247 -0.2125295 -0.0069816457

conv2.0.weight f4 [64, 32, 3, 3]
000000 13 e0 b7 bd 08 c8 4f bb b0 ba 26 bd bb b5 f0 bd
       -0.08978286 -0.0031704921 -0.040705383 -0.11753412
000010 1a 15 84 bd 1e 28 c5 bb 4b 86 cc bd 7a 6f 50 bd
       -0.06449337 -0.006016745 -0.09986552 -0.050887562
000020 61 df a7 bc 09 6e 8e bd 3c da 8f bd 08 c8 8f 3d
       -0.020492258 -0.06954581 -0.07024047 0.07020575
000030 66 f6 8c bd 01 ad b4 bd 0a 2b d2 3d a4 e5 63 bd
       -0.06882934 -0.088220604 0.10262115 -0.055638924
000040 a1 85 c6 bd 3a 29 2d 3c 00 be fb b8 32 bd a0 3c
       -0.096934564 0.010568911 -0.00012004003 0.019621465
000050 8e 32 8d 3c a0 cd 6b bd b8 99 1b bc bc 0a 29 3c
       0.01723602 -0.057569146 -0.009497099 0.010317501
000060 dc 6c fe bc e3 31 33 3d 2d f3 5f 3d 9c 7a 54 bc
       -0.031057768 0.043748748 0.05467527 -0.0129686855
000070 17 c2 18 3d b5 a9 e6 bc f6 54 f7 3c 6d 0b 6d 3d
       0.037294473 -0.028157094 0.03019188 0.057872225
000080 d4 67 60 bd e0 93 42 bc f7 12 35 3d 9c b9 31 3c
       -0.05478652 -0.011876076 0.04420754 0.010847475
000090 b4 18 c4 bd 09 21 e7 bd 56 e2 a6 bd 60 76 d8 bd
       -0.09575024 -0.11285598 -0.08148639 -0.10569453
0000a0 6b f6 a8 bd 53 bd 93 3c 63 2f 09 bd f9 ac e7 bd
       -0.082501255 0.018034613 -0.033492457 -0.11312289
0000b0 e8 55 16 3d e1 9a 87 bd 65 c1 1c bb 3f c8 52 bc
       0.03670302 -0.06621338 -0.0023918983 -0.012865125
0000c0 8a f2 f6 bc 53 23 8e bd 69 e3 0d bd 52 49 64 bc
       -0.030144949 -0.06940331 -0.034640703 -0.013933497
0000d0 41 66 ea bc 72 ae cd bc f8 f8 b4 bd 7b 4b b1 3d
       -0.028613212 -0.025107596 -0.088365495 0.08656975
0000e0 13 a7 51 bd 2f b2 e1 bd 4e 10 f9 3c ab 5d f1 bc
       -0.051184725 -0.11020314 0.030403282 -0.02946361
0000f0 68 ee 83 bd f3 98 ae bd 19 d9 c0 bd 88 2b 48 bc
       -0.06441957 -0.085252665 -0.09416408 -0.01221741
000100 e2 85 2e bc 54 74 cc bd 15 ec 4b bd 84 f9 ba bc
       -0.010652037 -0.09983125 -0.049785692 -0.022824056
000110 b8 e9 c8 bd f2 7e e3 bd e8 6b 46 bd d6 49 6b bd
       -0.09810203 -0.11108197 -0.04844275 -0.057443462
000120 5f e0 d1 bd f7 eb 91 bd 98 bc fd bb 10 5e ca bc
       -0.102478735 -0.07125085 -0.0077434294 -0.024703056
000130 41 56 e3 bd c8 27 ec bd db d3 f0 bc dc ad ae bc
       -0.11100436 -0.11531025 -0.029397896 -0.021323137
000140 7c 06 fe bb ef 1a fc bc 49 2f 08 bc d3 17 0c 3d
       -0.007752238 -0.030774562 -0.008312055 0.034202408
000150 2f 52 a0 bd ae d8 9f bc e6 87 eb bd 21 42 cd bd
       -0.07828175 -0.0195125 -0.1150053 -0.10022379
000160 f3 d5 b6 bd 1b 29 64 bd d0 fd 58 3b a7 d2 32 3d
       -0.08927526 -0.055703264 0.0033110268 0.043657925
000170 df 89 f3 bc e4 96 01 3c 94 bb f3 3c e8 8f 9b 3b
       -0.029728828 0.00790951 0.02975253 0.0047473796
000180 04 b8 2a 3c 74 3f 4c 3c b0 41 e5 bb 9f f9 ba bd
       0.010419849 0.0124663 -0.006996356 -0.09129643
000190 b8 ae 24 bd b3 6a c0 bc ef 28 b0 bd 93 70 ef bd
       -0.040205687 -0.023488378 -0.086015575 -0.11691394
0001a0 6d fc ce bd fd 6b 08 bc 55 ef 8c bd 1b 88 e6 bc
       -0.1010674 -0.008326528 -0.068815865 -0.028141072
0001b0 cc 7b 7a bd c5 ed 63 bc b3 03 15 bd bf e7 c0 bd
       -0.06115322 -0.013911669 -0.03638048 -0.09419202
0001c0 ea c8 8d bd a1 46 ae bd 6d 25 a6 bd 28 0e d4 bd
       -0.06923087 -0.08509565 -0.08112607 -0.103542626
0001d0 7b 49 61 bd 53 05 c3 bd 00 b7 14 3c 03 46 cf bd
       -0.055001717 -0.095225 0.009076834 -0.101207756
0001e0 bd 37 b2 bd 8a 5d bd 3c e8 b1 99 3c 3e b9 cc bb
       -0.087020375 0.023115892 0.01876159 -0.0062476685
0001f0 dd 34 cc bd ae a1 3e 3d b3 07 00 3c 51 21 d5 bd
       -0.0997102 0.04654091 0.007814336 -0.10406745
000200 f0 62 cc bd f8 30 91 3d 76 27 e4 bb 0e 87 b4 bb
       -0.09979808 0.07089418 -0.006962712 -0.005509264
000210 d0 6e 1e bc b9 52 62 bd 02 6b e2 bc 74 94 b7 bd
       -0.009669974 -0.05525467 -0.027638916 -0.08963862
000220 7a ab ec bb a0 17 b7 3d b0 61 b9 bd 19 8f 15 bd
       -0.00722259 0.08940053 -0.090518355 -0.03651342
000230 c4 ce de bd a0 9e 88 bd 22 54 b5 bb e5 33 bd bd
       -0.10879281 -0.0667088 -0.005533711 -0.09238414
000240 c0 2c 14 bc 1b c9 5c bc 16 95 b6 3c 0b 9d 4a 3d
       -0.009043872 -0.013475682 0.022287887 0.049466174
000250 24 28 6e 3c f6 f6 99 bc 10 a5 37 bc 7a 7b a3 3d
       0.014535937 -0.018794518 -0.011208788 0.07982536
000260 5c 18 6b bc af ec 68 3d 49 c6 16 3d 88 41 27 bc
       -0.014349069 0.056866344 0.036810193 -0.010208495
000270 a6 15 0f bd 83 2e 07 3d d8 1c f0 3b 4f 4e 62 3d
       -0.034932755 0.03300334 0.007327657 0.055250462
000280 31 00 57 bd 14 0d 57 bd a6 4a 7e bc ee 2c f1 bd
       -0.052490417 -0.052502707 -0.015520727 -0.11776148
000290 6a cc 85 bd 1b 07 df bd c3 c6 bd bd d5 08 cf bc
       -0.065331295 -0.10890027 -0.092664264 -0.025272766
0002a0 84 c1 1b bd b9 41 8d bd 60 af da bc 54 39 bb bd
       -0.038026348 -0.06897301 -0.026694953 -0.09141794
0002b0 3a 48 3b 3d a4 78 33 3d 27 dc d8 bd d8 04 92 3d
       0.045723177 0.043816224 -0.10588866 0.0712983
0002c0 a3 2f db 3a c8 16 38 bd df 75 bf 3d e0 70 99 3d
       0.0016722571 -0.0449436 0.09348654 0.07492232
0002d0 21 5d 36 bd 4e 54 45 bd 3a 22 e8 bd d9 08 10 bc
       -0.04452241 -0.048176102 -0.11334653 -0.008791172
0002e0 69 d2 41 bd 80 75 f1 bd 22 5b ae bd 53 05 2a bd
       -0.047319803 -0.117899895 -0.08513476 -0.041508984
0002f0 4c 72 da bd 7c 8d ed bd d6 4e f4 bb 2a d7 73 bd
       -0.10666332 -0.11599252 -0.007455687 -0.05953137
000300 f2 54 8a bd 90 4a a4 bd fe 76 35 bd 45 12 3e bd
       -0.06754483 -0.08022034 -0.044302933 -0.046404142
000310 8f 2e 1f bd 96 8f a7 bd b1 1d df 3d 42 c8 28 bd
       -0.03886276 -0.08181684 0.10894335 -0.041206606
000320 9e c6 5a bd c9 d2 83 3d b0 0f a5 bd ea ff 8b 3d
       -0.053412072 0.064366885 -0.08059633 0.06835921
000330 e2 cc b4 3d a1 c0 2b bd 5c 1b 9c ba 79 23 e6 bc
       0.08828141 -0.041931752 -0.0011910009 -0.028093087
000340 fc 80 28 bd 01 a5 b3 bd dd 18 98 bd 3e 02 a5 bd
       -0.041138634 -0.08771706 -0.07426617 -0.08057068
000350 b8 94 da bb 04 df e2 bd 98 05 a8 bd 72 f8 d7 bd
       -0.0066705607 -0.11077693 -0.08204192 -0.10545434
000360 e8 58 01 bd 57 1a 75 3d f4 86 6c bd 0e 4c c8 bc
       -0.03157893 0.059839573 -0.05774589 -0.024450328
000370 a2 51 dc bd b4 d0 6b bd c0 97 ca bb b7 6d c0 bc
       -0.10757758 -0.05757208 -0.006182641 -0.023489816
000380 79 d3 1f 3d db fe f6 bc 43 2d c4 bd ca be 0f 3c
       0.039020035 -0.030150821 -0.095789455 0.008773515
000390 ca f3 3e bd 40 60 40 bd b8 0b 45 3c d4 13 e7 bd
       -0.046619214 -0.04696679 0.01202672 -0.11283079
0003a0 70 a9 b7 bd c2 8f 99 bd c0 e8 0a bd 84 18 7c bd
       -0.089678645 -0.07498123 -0.033913374 -0.061546817
0003b0 0b ad b1 3d 43 14 9d bd 22 76 99 bd 02 fc ba 3d
       0.086755835 -0.0766988 -0.07493235 0.09130098
0003c0 ec 9a ab 3c 44 d1 c9 bd 8c 00 4f 3d 41 6b de bd
       0.020947896 -0.098543674 0.05053763 -0.10860301
0003d0 0e 1d 69 3d a5 1b 9b bd ba 42 ee bd 52 30 2e 3d
       0.056912474 -0.07573632 -0.11633821 0.04252655
0003e0 cc 23 9f bc d2 9b 5e bd 6c 29 8f bd 34 51 79 bd
       -0.019426249 -0.05434782 -0.069903225 -0.060868457
0003f0 c8 94 95 3b ac 1b 16 3c 28 9b c4 3b f7 ce f5 bc
       0.0045648552 0.009161871 0.0059999414 -0.030005915

conv2.0.bias f4 [64]
000000 17 e3 5c bd 92 7d 7d bd a3 b5 54 bd 3a a2 2d bd
       -0.053927507 -0.06188733 -0.051931035 -0.04239104
000010 03 3b f6 bc 1a 63 bf bd 54 04 74 bd 9e 3a ba bc
       -0.030057436 -0.09345074 -0.05957444 -0.022733029
000020 4e 3b 18 3e 0d d2 d9 bd 04 0f ae bd 6a 60 b6 bd
       0.14866373 -0.10635767 -0.08498958 -0.08905108
000030 1d 10 3c bd 4f ae be bd ee 1f 6e bd 59 7e 7e bd
       -0.045913804 -0.093105905 -0.05813592 -0.062132213
000040 ce 01 73 bd 75 1f 87 bd 9b 62 09 be c3 07 0e bd
       -0.059327893 -0.06597797 -0.13416521 -0.03467537
000050 6b a9 ee bd b8 36 83 3d e0 8c 5a bd c7 e1 20 bd
       -0.11653408 0.06406921 -0.053357005 -0.039277818
000060 fe 8d c5 3d ce ac b6 bd 6b 13 72 bd 74 b9 24 3d
       0.096462235 -0.08919679 -0.05910055 0.040215924
000070 72 91 3c bd cb 4f 89 bd ae 3a 34 bd 0d 8e 4a bd
       -0.046037145 -0.067046724 -0.044001274 -0.049451876
000080 c8 63 bb 3d 7e d8 ca bd a0 96 7b bd 74 55 be bd
       0.09149891 -0.09904574 -0.061422944 -0.09293643
000090 7f 96 3a bd b6 b7 b1 bd af aa 8a bd b0 d2 05 bd
       -0.04555368 -0.08677618 -0.067708366 -0.03267163
0000a0 28 c1 3d bd 4c 98 30 bd 81 e5 cf 3d c6 8f 73 bc
       -0.046326786 -0.04311399 0.10151196 -0.014865821
0000b0 84 27 3a bd 1d 6d 6e 3d bb 8c 6e bd 2f cf a1 bd
       -0.04544784 0.058209527 -0.05823968 -0.07900845
0000c0 48 9c ca bd 99 c5 ac bd a6 1c d7 bd 20 d1 34 3e
       -0.098930895 -0.08436126 -0.10503511 0.176579
0000d0 2f 3c 86 3d 46 5f 9a bd be f4 9b bd 11 2c 9f bd
       0.06554448 -0.07537703 -0.0761504 -0.07772077
0000e0 ce 11 01 bd 83 e3 3a 3e b6 66 5c bc fa fb cb bd
       -0.03151112 0.18250851 -0.013452223 -0.0996017
0000f0 8b fc 73 bd a1 ee de bd 64 c6 f3 bc 99 79 95 bd
       -0.059567016 -0.108853586 -0.029757686 -0.072985835

conv3.0.weight f4 [64, 64, 3, 3]
000000 88 b1 1b bd 00 d6 ce bc c5 1d 0d 3d 30 74 c3 bc
       -0.038011104 -0.025248528 0.03445222 -0.023859113
000010 d6 1b ba bc 88 ad 0c bd d0 99 4e bb 73 5c bd bc
       -0.022718351 -0.03434518 -0.0031524785 -0.023115372
000020 4b 9e fe bc f8 8c 8b 3c f8 f8 c0 bb d1 5e 28 3d
       -0.03108134 0.017034993 -0.0058890544 0.04110605
000030 36 7e 63 bc 35 1e 45 bd 18 60 99 bd c6 3e 0d bd
       -0.0138850715 -0.04812451 -0.074890316 -0.034483694
000040 43 c2 b7 bd f3 b3 af bc fd 83 05 3d 40 37 6c bc
       -0.08972599 -0.021448111 0.032596577 -0.0144174695
000050 60 b8 2f 3c 06 68 f6 3c fc dd 62 3c 63 57 13 3d
       0.010725111 0.0300789 0.0138468705 0.03597201
000060 a7 78 2a bd 8b 0b 20 bd ec 4b 16 3c 58 81 bb 3b
       -0.04161897 -0.03907351 0.009173375 0.005722206
000070 2a 57 01 bd 38 c7 d4 3b 0c d6 56 bc 4a c7 fb 3c
       -0.031577267 0.0064934753 -0.013112556 0.030734677
000080 13 f0 06 3d 1a f1 d2 3c 34 45 04 bc c0 51 9a bc
       0.032943796 0.025749732 -0.00807314 -0.01883781
000090 26 2e fa bc d3 0d be bc 88 30 21 bd fc a2 1c bd
       -0.030539583 -0.023199951 -0.039352924 -0.03824137
0000a0 b0 7c 06 bd 7b 0d 2a bd c8 44 20 bd da 6a ec 3c
       -0.032833755 -0.041516762 -0.039128095 0.028859545
0000b0 81 eb 15 3d 30 67 61 bc 73 4d 07 bd 2c fc 55 3c
       0.036601547 -0.013757512 -0.033032846 0.013060611
0000c0 cc 4e 3c 3c 1b d9 cc bc a8 60 f2 3b 58 68 01 bd
       0.011493396 -0.025005868 0.007396776 -0.03159365
0000d0 48 55 aa bb 10 45 4e bb e9 49 26 3d f3 bc 08 3d
       -0.0051981546 -0.003147427 0.04059783 0.03338332
0000e0 37 cb 1a 3d 2c ed 3f bc 03 6c b0 3d b0 32 04 3b
       0.037791457 -0.011714261 0.086143516 0.0020171814
0000f0 fe 08 e8 3c 34 bc 10 bc 85 b9 21 3d e3 73 1b 3d
       0.0283246 -0.008833934 0.039483566 0.037952315
000100 42 c3 ee 3c b3 e2 0c 3d 00 1c 01 3a 08 4b 38 bd
       0.02914584 0.034395885 0.0004925132 -0.04499343
000110 31 fb aa bd 40 d2 14 ba 14 5b 91 bc cc 93 bb bd
       -0.08348692 -0.00056770816 -0.017743625 -0.091590494
000120 52 ff e9 3c 8b e7 1f 3d 53 6c af bc 50 89 72 bc
       0.028564129 0.039039176 -0.021413958 -0.014803246
000130 ae f6 40 bd 42 25 87 bd 3c 38 09 bd 67 a4 b6 bd
       -0.047110252 -0.06598903 -0.033500895 -0.08918076
000140 48 7c c6 bc aa 1f 20 bd 96 1c dd 3c 66 d9 64 bc
       -0.024229184 -0.039092697 0.02699117 -0.013967847
000150 35 b6 17 3d be 9f e4 bc 38 ac e8 bb 96 f9 a0 3c
       0.037039 -0.027908202 -0.007100608 0.019650262
000160 0b c6 db bc a3 af cd bc c6 62 bc 3c 7f b4 07 3d
       -0.026827833 -0.025108164 0.022996318 0.03313112
000170 be 73 ac 3c c0 d4 a1 3c 30 07 2f 3b a3 68 da bc
       0.021051284 0.019754767 0.0026707165 -0.026661223
000180 40 33 1d bd 12 d4 f9 3c 16 df 85 bc 25 10 25 3d
       -0.038378954 0.03049663 -0.016341727 0.0402986
000190 cc 27 1e 3c 36 2a 63 bc 9e c8 85 bc 41 c5 34 bd
       0.009653043 -0.013865044 -0.016331013 -0.04413343
0001a0 ee ac 8b bd a0 ff de bb 48 08 af bd c9 ef bf bd
       -0.06820093 -0.006805375 -0.085465014 -0.09371907
0001b0 b0 a2 2d 3c f8 ad 9d 3c c0 6c 09 3c 80 a2 bf 3a
       0.01059787 0.019247994 0.008387744 0.0014620572
0001c0 13 cd 23 bd 63 33 07 3d 70 c8 78 3c d3 bc 26 bd
       -0.039990496 0.03300799 0.015184507 -0.04070742
0001d0 d8 34 84 3b 20 16 50 bc f0 44 11 bc 5e fc f7 3c
       0.00403462 -0.0127005875 -0.008866534 0.030271705
0001e0 8a d3 13 bd 73 5a aa bc e1 2e 9c bc 46 59 08 bd
       -0.03609041 -0.020795083 -0.019065322 -0.033288263
0001f0 2c 8d b5 bd aa ec 4e bd 5c 19 42 3c 32 20 03 bd
       -0.08864817 -0.05051867 0.011846866 -0.032013126
000200 40 a9 a8 bc d2 55 eb 3c c0 6d 91 bd 5b 0b 7e bd
       -0.020588517 0.028727446 -0.07101011 -0.06202255
000210 31 ff 1d 3d 20 e3 74 bd 94 c3 0c bd 1b 07 16 bd
       0.038573448 -0.059786916 -0.034366205 -0.03662787
000220 b9 ac 17 3d 82 75 ff 3c 32 0a d4 3c 72 f0 e2 bc
       0.037029956 0.031183962 0.025883768 -0.027702544
000230 60 a0 93 bd f6 74 40 bc 0a 18 ac bc 56 eb 97 bd
       -0.072083235 -0.011746636 -0.021007556 -0.07417934
000240 33 d6 1c bd 00 e6 5b 3a b4 82 08 3c 6a 1d bf 3c
       -0.038290214 0.00083884597 0.008331943 0.023329455
000250 5f 88 93 bd df 5f 1c bd 70 77 71 3c ca d1 b5 bd
       -0.07203745 -0.038177367 0.014737949 -0.08877905
000260 d8 14 4a bd 4a 00 ef 3c d9 db 00 3d c3 ec c0 bc
       -0.049336284 0.029174943 0.031459663 -0.023550397
000270 e0 fc d5 3a 70 aa e9 bc c0 1d 18 ba d8 bd 9a 3c
       0.0016325973 -0.028523654 -0.0005802773 0.018889353
000280 2b f7 22 bd 44 1e 06 bc 00 ad a4 ba 4b 56 ca bc
       -0.0397865 -0.008185927 -0.0012563765 -0.02469935
000290 23 92 ec bc 9b 1f e7 bc 59 5b 24 3d e6 c2 11 bd
       -0.028878277 -0.028213313 0.04012618 -0.03558626
0002a0 2e 33 89 bc 4f 8b 09 bd e6 d3 bb 3c 53 74 21 3d
       -0.016748037 -0.03358012 0.02292819 0.039417576
0002b0 d0 8e 3a bc 54 4f 1e bc a7 88 25 3d c8 ee 83 bd
       -0.011386588 -0.009662468 0.040413525 -0.06442028
0002c0 1d d9 7f 3d 60 65 f3 bc 06 6d cc bc 1a f3 84 3c
       0.062462915 -0.029711425 -0.02495433 0.016229201
0002d0 60 87 1c 3c 70 39 35 3c 54 36 22 3c f8 72 f3 bc
       0.00955376 0.011061057 0.009900648 -0.029717907
0002e0 5b ee ed bc 3e 17 fb 3c f3 59 07 bd 80 cd 0a 3b
       -0.02904432 0.030650731 -0.033044767 0.0021179616
0002f0 30 e3 08 bd 48 9a d3 bc 5e 0a b3 3c 1b f9 b9 bc
       -0.033419788 -0.025830403 0.02185553 -0.02270179
000300 6e d9 c1 bc 10 26 4a bd d6 99 bd bd f0 b3 75 3b
       -0.023663249 -0.049352705 -0.092578575 0.0037491284
000310 ee 5d 8b bc e2 40 a4 bd e0 6c a2 3b 90 b0 3c 3b
       -0.017012563 -0.08020188 0.0049568266 0.0028791763
000320 db 82 1e bd 40 33 03 ba ac 70 84 bc 5c 83 43 3d
       -0.038699012 -0.000500489 -0.016167007 0.047732696
000330 83 62 25 bd bd 23 a8 bc de 56 87 3d eb 77 21 3d
       -0.04037715 -0.020524854 0.066083655 0.039421003
000340 86 81 26 bd 1a b2 ef 3c 8d c8 20 3d c3 97 c6 3c
       -0.040650867 0.02925973 0.03925376 0.024242288
000350 28 53 b6 3d b7 1c 2a 3d 90 68 96 3c e4 03 b1 bd
       0.089025795 0.04153129 0.018360406 -0.0864332
000360 c0 c0 34 3b fa 30 dc 3c b8 21 df bb 50 2f 6c 3b
       0.0027580708 0.026878823 -0.0068094395 0.0036038943
000370 d6 0e 01 bd 66 f1 d7 bc 1e 63 0d bd 7a ec 06 bd
       -0.03150829 -0.026360225 -0.034518354 -0.032940365
000380 ed 26 26 3d 68 96 f6 bb 00 2b bb 3b 88 ca b8 bb
       0.040564466 -0.007525254 0.005711913 -0.005639378
000390 70 76 78 3c d8 db e9 bb 4a 93 ef 3c 56 3e 98 bc
       0.015164956 -0.007136803 0.029245038 -0.018584412
0003a0 fd f0 10 3d c0 64 0c bb e0 ff db 3a b4 73 17 bd
       0.035386074 -0.0021422356 0.0016784631 -0.036975577
0003b0 8a cf bc 3c 3a 93 b8 3c 00 b6 70 3d 90 1a 48 3c
       0.023048181 0.02253114 0.05876732 0.012213364
0003c0 27 3a 13 bd b2 ba bc 3c 8a de c3 3c be 77 81 3c
       -0.03594413 0.023038242 0.023909826 0.015804168
0003d0 6c db 05 bc 18 66 c7 bc 1b a5 09 bd 92 01 c9 bc
       -0.00816999 -0.024340674 -0.033604722 -0.024536882
0003e0 e5 6a af bd 0e 3e 14 bd 73 e1 99 bd 3b 12 67 bd
       -0.085653104 -0.036191992 -0.07513704 -0.05641387
0003f0 f2 18 f0 3c be d7 ed bc dc 33 5f bc 54 78 04 3c
       0.02930877 -0.029033538 -0.013623204 0.008085329

conv3.0.bias f4 [64]
000000 f5 f3 9d bd 6f 7a b5 bd 0d 94 fe bc 74 56 8c bd
       -0.07712547 -0.08861243 -0.031076455 -0.06852427
000010 96 ff 81 bd 43 b5 d4 bd e6 d1 bc bd f0 2e 83 bd
       -0.06347577 -0.103861354 -0.092197224 -0.06405437
000020 c3 0d a4 bd 82 b2 96 bd 43 c8 44 be fe 70 d7 bd
       -0.08010437 -0.073582664 -0.19217019 -0.105195984
000030 07 a0 d4 bd 3f 29 1d bd 3e fa c2 bd c5 11 c3 bd
       -0.10382085 -0.038369413 -0.09520386 -0.09524874
000040 3b 21 be bd 3d f3 bd bd 5e f5 b0 bd 6a a9 8a bd
       -0.09283682 -0.0927491 -0.0864055 -0.067705944
000050 5e 53 24 bd 4e a5 c3 bd 0b 46 b5 bc 46 69 a7 bd
       -0.040118568 -0.09553014 -0.022128126 -0.08174376
000060 90 69 3d bd 56 53 12 bd f6 cb db bc d2 90 ba bd
       -0.04624325 -0.035724007 -0.026830655 -0.091096535
000070 dd ba cd bd 59 e4 77 bd 31 27 b8 bd e0 2b 95 bd
       -0.10045407 -0.060520504 -0.0899185 -0.07283759
000080 91 f4 3b bd f3 94 78 bd a3 5c 1b bd be 35 50 bd
       -0.045887534 -0.060688924 -0.037930142 -0.050832503
000090 92 d5 b4 bd 13 1d 5b bd 09 fb 5f bd 1e cf fe bd
       -0.08829798 -0.053494524 -0.054682765 -0.12441848
0000a0 78 c6 19 bd dc 67 d3 bd 28 0c 6d bd 9b 35 8e bd
       -0.03754279 -0.10322544 -0.05787292 -0.06943818
0000b0 f3 bd bc bd 9c 4a d0 bd 8d a3 16 bd 54 e7 d9 bc
       -0.092159174 -0.101704806 -0.036777068 -0.026599564
0000c0 df bd 86 bd 65 61 b1 bd cf 44 95 bd 10 0b a0 bd
       -0.06579184 -0.08661155 -0.07288515 -0.0781461
0000d0 e5 71 cc bd 2e 3c 91 bd b7 7a a4 bd 82 cd 51 bd
       -0.09982661 -0.070915565 -0.080312185 -0.05122138
0000e0 0a 35 90 bd 17 25 51 bd e9 80 b3 bd 01 06 c2 bd
       -0.070413664 -0.051060762 -0.08764822 -0.094738014
0000f0 3a c9 aa bd ea d0 86 bd c6 e1 3a bd a5 b5 8b bd
       -0.08339162 -0.06582816 -0.04562547 -0.06821755

dense.0.weight f4 [128, 576]
000000 8e cf bc bd e6 df 99 bc 7b 12 e5 bc e0 f7 57 3c
       -0.092192754 -0.01878352 -0.027962914 0.013181657
000010 00 78 ee ba 7f b0 1c 3d 24 eb 18 3c 0d 11 09 3d
       -0.0018193722 0.038254257 0.009333406 0.033463527
000020 f0 03 1a bb 91 62 15 bd 5c 71 be bc 13 53 92 bd
       -0.0023500882 -0.036470953 -0.023247413 -0.071447514
000030 70 c9 52 bd df 1f 22 bd 29 46 a9 bd ea ee 91 bd
       -0.051461637 -0.039581176 -0.08265335 -0.07125647
000040 61 76 69 bd 48 ba 68 bd aa c8 50 bd 99 ed 97 bd
       -0.05699766 -0.056818277 -0.05097262 -0.07418365
000050 d5 8e 91 bd 69 9b 08 bd ea 34 8f bb 0c 50 8c bc
       -0.07107321 -0.033351336 -0.0043703215 -0.017128013
000060 d5 fe 18 bd 46 40 66 bd 4a 57 0a bd e6 3f a4 bd
       -0.0373524 -0.05621364 -0.03377465 -0.0802
000070 98 a9 c3 bd 68 37 dc bc 07 11 a2 bd a0 be 8e bc
       -0.09553832 -0.026881889 -0.07913404 -0.017424881
000080 92 81 28 bd ac 48 af bd 59 fb 6d bd 1d c2 8f bc
       -0.041139193 -0.08558783 -0.058101032 -0.017548615
000090 46 6a 6b 3d a5 90 b3 3d aa 99 b2 3d dc c8 9e 3c
       0.057474397 0.08767823 0.08720715 0.019382887
0000a0 fe ad c5 3d a5 48 c4 3d ec b2 9a 3c 9d 26 4b 3d
       0.09652327 0.09584168 0.018884145 0.04959737
0000b0 e9 1b 31 3d f0 bd 10 bd 22 e5 3e bc a1 e0 4e bd
       0.043239508 -0.03533739 -0.011651309 -0.05050719
0000c0 23 e5 b0 bc 37 dd 7e bd 85 c9 80 bd c2 09 06 bd
       -0.021593636 -0.062222686 -0.06288437 -0.03272415
0000d0 44 fb 95 bd 27 a8 95 bc 39 7c 51 bd b9 39 c1 bc
       -0.07323316 -0.018268658 -0.05114386 -0.023587095
0000e0 7b b8 3b bd 6b c9 ff bc dc 21 69 bb 02 62 78 bd
       -0.04583023 -0.031223973 -0.003557316 -0.060640343
0000f0 cb 52 0d bd 26 8f 52 bd 88 c3 97 bd b3 70 90 bd
       -0.034502786 -0.05140605 -0.074103415 -0.07052746
000100 c9 8f 85 bd b5 34 fe bc a9 1f 53 bc 10 d0 bf bc
       -0.065215655 -0.031030992 -0.012885966 -0.023414642
000110 4f 74 6a bd e1 7e 0d bc 83 30 3f bd 91 88 80 bd
       -0.057239827 -0.008636207 -0.046677124 -0.06276048
000120 61 71 88 3d 8e 69 9a 3d 40 c2 b6 3c e5 6b b9 3d
       0.0666225 0.07539664 0.022309422 0.090537824
000130 1f c9 18 3d 5a 90 16 3d 77 e2 ca 3d dd 4e 49 3d
       0.03730118 0.036758758 0.09906476 0.049147476
000140 55 e4 0a 3d 1b c8 5b bd 25 32 22 bd df a6 c2 bd
       0.03390916 -0.053657632 -0.039598603 -0.095044844
000150 50 dc 33 bd 60 51 8f bd c2 5f 2b bd 94 9c 97 bd
       -0.04391128 -0.06997943 -0.04183937 -0.07402912
000160 f0 69 ba bc 1e 1e 81 bd 40 d0 6e bb a0 50 a2 3b
       -0.022755593 -0.063045725 -0.0036440045 0.004953459
000170 50 a5 77 3b 60 82 04 bc 26 b7 fb bc 46 08 b0 3c
       0.0037787743 -0.008087724 -0.03072698 0.02148832
000180 74 2d 69 3c 0e ab cb 3c 7c 92 4d 3c 4a b1 dc bc
       0.014232028 0.024861839 0.012547132 -0.026940007
000190 7c fd 17 bd 9a 18 b0 bb 7c 8a a0 bd ee 1b 83 bd
       -0.037106976 -0.0053740265 -0.07838914 -0.064018115
0001a0 ed 46 23 bd 83 04 59 bc 99 68 84 bd 4c 48 55 bc
       -0.039862562 -0.013245705 -0.06465263 -0.013017725
0001b0 d7 38 d6 bc 05 07 39 bd 57 2c 98 bd 20 68 5b bd
       -0.02615015 -0.04517271 -0.07430332 -0.0535661
0001c0 ef 93 ba bc 18 5f 79 bd 6e 74 88 bd af e1 9d bd
       -0.022775618 -0.060881704 -0.06662832 -0.07709061
0001d0 f3 ba 8a bd a2 71 0a bd ac 31 a4 bd 8c f8 38 bd
       -0.06773939 -0.033799775 -0.08017287 -0.045158908
0001e0 9d 3b 85 bc 0e c5 92 bd 44 b2 b3 bd b0 ff 62 bd
       -0.016263777 -0.071664914 -0.08774236 -0.055419624
0001f0 24 04 1d bd c0 c9 9c bd c5 7a 54 bd 40 23 7a bd
       -0.038334027 -0.07655668 -0.051874895 -0.061068773
000200 d7 2b a0 bd 00 ea 6d 3c 00 48 ce 38 4e 0d ea bc
       -0.07820862 0.014521122 9.8362565e-05 -0.028570797
000210 0a 78 ef 3c 22 3b ca 3c 18 1a 9f bc 68 57 b1 bc
       0.029232044 0.0246864 -0.019421622 -0.021648124
000220 50 02 00 3b e1 73 20 3d 48 e5 a6 3c c1 a3 06 3d
       0.0019532628 0.03917301 0.020373002 0.03287101
000230 68 9b 96 bc 33 54 87 bc b8 18 df bc d9 86 df 3c
       -0.01838465 -0.016519642 -0.027233467 0.02728598
000240 58 79 51 bb 80 27 46 bd 91 ce b1 bc 16 9d 17 bd
       -0.0031963196 -0.048377514 -0.021704944 -0.037015043
000250 42 f8 d6 bc 7e 9b 39 bd dd 21 3a bc 78 15 c3 bb
       -0.026241425 -0.045314305 -0.011360613 -0.005953487
000260 6f b9 59 bd 00 a5 0a bd 8d e7 4b bc 6e 6e 84 bd
       -0.05315536 -0.033848763 -0.012445343 -0.06466375
000270 83 39 3f bd 3c f0 79 bc d2 da 19 bd 53 0e 26 bc
       -0.046685707 -0.01525503 -0.0375622 -0.010135251
000280 91 3a 44 bd ee a2 6a bd 04 13 5f 3d db 11 f6 3c
       -0.047907416 -0.057284288 0.054461494 0.030037811
000290 e6 bc ca 3d a5 dd 8b 3d 71 49 6b 3d 47 ba 66 3d
       0.09899311 0.06829385 0.057443086 0.05632999
0002a0 f9 d6 b4 3d 76 84 11 3d 56 8a e5 3c a2 a3 80 3d
       0.08830065 0.035526715 0.028020065 0.062812105
0002b0 e0 31 c8 ba 80 0f b8 b9 c4 10 94 bd a1 85 08 3d
       -0.0015273653 -0.00035106763 -0.0722976 0.033330563
0002c0 84 69 1f bc 82 23 aa 3d d8 d8 89 3c a0 a5 9d ba
       -0.009729747 0.08307554 0.016827032 -0.001202751
0002d0 76 f1 5c 3d 5b ac 1d 3d 52 b1 b5 3d 68 ca 1c 3d
       0.053941213 0.03849445 0.08871712 0.038278967
0002e0 a5 d3 e3 3c a8 36 cc 3d f0 a0 74 3d 37 7e a2 3d
       0.02781088 0.09971362 0.059723794 0.0793423
0002f0 d2 4b 5f 3d a1 53 aa bd 81 71 c3 bd c7 6a 3d bd
       0.054515667 -0.08316732 -0.095431335 -0.04624441
000300 92 b4 15 bd 2c ca c1 bd 3d 9d 7d bd 17 d6 4d bd
       -0.03654916 -0.09462389 -0.061917532 -0.050253
000310 66 1b 54 bd 06 ba 7c bd 37 99 c1 3d 2a fd 2a 3d
       -0.05178394 -0.061700843 0.094530515 0.041745342
000320 96 27 0c 3d d3 64 cc 3d 98 4a 97 bb aa 48 b3 3c
       0.03421744 0.09980168 -0.0046170466 0.021885235
000330 66 0a cc 3c 3b e1 38 3d 78 8c 87 3d 1d 86 1e 3d
       0.024907302 0.04513667 0.06618589 0.03870212
000340 90 85 85 bc 8e 24 a8 bc 66 4b 8d bc 40 af 4c 3b
       -0.01629904 -0.020525243 -0.017247867 0.0031232387
000350 68 62 fb bc 3a 89 d8 3c f0 bc 2d 3c f9 fd 1f 3d
       -0.030686572 0.026432622 0.010604128 0.039060567
000360 2f 72 7e 3b 0f e6 25 3b 29 e3 48 bd c2 04 8b bb
       0.0038825383 0.0025314128 -0.04904476 -0.0042425105
000370 4d 21 77 bd 9f 41 51 bd e9 25 23 bd c4 0a 71 bd
       -0.060334492 -0.05108797 -0.039831076 -0.058848158
000380 06 f8 b1 bc 3a 7d 09 bc d1 ea b5 bb bc 66 a6 bd
       -0.021724712 -0.008391673 -0.005551674 -0.08125064
000390 18 45 44 3b 79 da 7b bd 11 b1 c7 bb 2b ad 5f bd
       0.002994841 -0.06148765 -0.006094106 -0.054608505
0003a0 a7 a5 21 3c 16 c1 51 bd 8c 33 3c 3d 24 02 c3 3d
       0.009866155 -0.05120953 0.045947596 0.09521893
0003b0 f9 34 4b 3d 87 3b be 3d e3 da 62 3d 9e 25 24 3d
       0.049611066 0.09288698 0.055384528 0.040074937
0003c0 ed 48 49 3d 80 73 b5 3d b7 87 63 3d dc 38 9d bd
       0.049141813 0.088599205 0.05554935 -0.07676861
0003d0 b7 28 20 bd f8 bf bd bd 3f 5b 42 bd 1a 9a 64 bd
       -0.03910133 -0.09265131 -0.0474503 -0.055811025
0003e0 eb 53 65 bd 49 21 af bd 8a c4 5d bd 8e f8 f5 bc
       -0.055988234 -0.085512705 -0.054142512 -0.030025747
0003f0 2e 84 24 bd 33 87 b6 bb 1c c5 8f bd 96 7d e4 bc
       -0.04016512 -0.005570316 -0.070200175 -0.027891915

dense.0.bias f4 [128]
000000 49 45 0d bd 41 fa b8 bc 8f ae 40 bd 9b a6 f0 bc
       -0.034489904 -0.022580268 -0.047041472 -0.029376319
000010 34 a1 76 bd 03 4c 83 bd 90 a1 8a bd 91 bf 9f bd
       -0.06021233 -0.064109825 -0.06769097 -0.0780021
000020 f8 30 87 3d a2 7e ae bd ff d8 30 bc 4e 37 39 be
       0.06601137 -0.08520247 -0.010793923 -0.18087503
000030 26 6d 5a bd a3 29 1d bd 8a cc d3 bd db 59 2a bd
       -0.05332675 -0.038369786 -0.10341747 -0.0415896
000040 22 ab 29 bc d2 5d f1 bd c9 63 89 bd 19 36 25 bd
       -0.010355743 -0.11785473 -0.06708486 -0.040334795
000050 da c5 35 bc 5d 32 b0 bd c7 17 43 be 75 45 64 3d
       -0.011094535 -0.08603356 -0.19052039 0.055730302
000060 d0 43 ac bd 72 ee 96 bd 48 1c e4 bc e8 88 bf bd
       -0.08411372 -0.073696986 -0.027845517 -0.09352285
000070 56 51 b7 bd 11 c4 4f 3d fb 42 ef bd 8a d7 fb bc
       -0.089510605 0.050724093 -0.116826974 -0.030742425
000080 42 d9 8e bc 31 69 bf bd f7 ac 0e bc 46 5c 88 3d
       -0.017437581 -0.093462355 -0.00870823 0.06658225
000090 7b 85 6f bd 91 43 86 bd f0 ac 71 bd be 34 c9 bd
       -0.058476906 -0.06555856 -0.059002817 -0.09824513
0000a0 e4 ac b9 bd 8b ef a1 bd 30 1e 0b bc 99 d8 80 bd
       -0.090661794 -0.07907017 -0.008491084 -0.06291313
0000b0 5b 81 08 bd 25 42 d5 3c 12 5c fc bd d8 df c5 bd
       -0.033326488 0.026032517 -0.123222485 -0.096618354
0000c0 02 0f 29 bd f6 18 d8 3d 1d c1 0e be a0 27 80 bd
       -0.04127408 0.10551636 -0.13940854 -0.06257558
0000d0 f5 08 8b bd 59 3b 81 3d bb a8 d0 bd 05 cc 11 bd
       -0.06788818 0.06310148 -0.10188433 -0.03559496
0000e0 1f 71 32 bd b0 28 70 3c 86 f4 39 3d e5 74 10 be
       -0.043564912 0.014658138 0.04539921 -0.14107092
0000f0 98 94 7f bd 2e 68 0f 3b 95 83 02 3d 8c 0d e8 3c
       -0.06239757 0.0021882164 0.031863768 0.028326772
000100 3b d3 26 be c2 52 b4 bd 0a 1f d8 3c a0 d4 ba bd
       -0.16291516 -0.08804847 0.026381988 -0.09122586
000110 12 3b 8e bc 1d e9 96 bd df c7 a9 bc 1c c5 8c bd
       -0.017362151 -0.073686816 -0.020725189 -0.06873533
000120 e7 3f 85 bd 8c 98 a8 bd 19 bc 38 bd 33 bd 8e bd
       -0.06506329 -0.08232221 -0.04510126 -0.06969681
000130 a5 3f 41 bd 84 2d f1 ba 65 1e 75 3d 00 97 d1 bd
       -0.047179837 -0.0018400406 0.05984344 -0.10233879
000140 d3 03 2d bd 62 12 03 bd 00 4f 6e bd 2a c4 d0 bb
       -0.042239975 -0.031999953 -0.05818081 -0.006371041
000150 5a 93 a4 bd a8 da 42 bd e8 0f 20 bd 9c 84 9b bd
       -0.080359176 -0.047571808 -0.03907767 -0.075936526
000160 64 02 c8 bd 59 40 cd 3c 15 6e 49 bd 32 46 b5 bd
       -0.09766081 0.025055097 -0.049177248 -0.08851279
000170 d7 65 e2 bd 95 82 2d bd 42 9b 54 bd c3 c4 71 bd
       -0.11054581 -0.04236086 -0.051905878 -0.059025537
000180 ae 87 c0 bd e0 c1 4d bd 66 56 0e 3d 5a 1f c7 bd
       -0.09400879 -0.05023372 0.034750365 -0.09722777
000190 f7 d9 9d bd 5b 11 57 3d 5c 37 74 3d e5 70 bd bd
       -0.07707589 0.052506786 0.059623107 -0.092500485
0001a0 24 e5 3c 3d 38 f8 8f bd e9 98 2f 3d 8b 8b 04 bd
       0.046116963 -0.07029766 0.042870436 -0.03235964
0001b0 08 fe 45 bd 7e 8a ac bd 6b 9b 23 bd 17 fe 78 bd
       -0.048337966 -0.08424853 -0.03994314 -0.060789194
0001c0 5b 87 e0 3c be 17 30 be 91 6a e2 bd 03 7d 43 bc
       0.027408293 -0.17196557 -0.11055482 -0.011931661
0001d0 d8 32 9c bc c7 c1 cf bd fb ba 53 bd 0a 45 93 bd
       -0.019067213 -0.10144382 -0.05169199 -0.071909025
0001e0 bc 06 b7 bd 75 2c 95 bd f9 51 8a bd 32 a7 1f bd
       -0.08936831 -0.0728387 -0.06753916 -0.03897781
0001f0 ed b4 2a bd be 84 a0 3c 64 08 57 3c 41 49 87 bd
       -0.04167645 0.019594546 0.013124559 -0.06605769

dense.2.weight f4 [2, 128]
000000 d2 bd 99 bd b2 ac 91 3b 53 f5 58 bc 83 65 85 bc
       -0.075069085 0.0044456357 -0.013242084 -0.016283756
000010 e5 07 a5 bc bd 8b a2 3c 46 bc 63 bc ee c4 da bc
       -0.020145366 0.019842023 -0.013899868 -0.026705232
000020 26 c0 de bd d6 75 93 ba e2 58 c1 3c 55 6c 69 bd
       -0.10876493 -0.0011250328 0.023601953 -0.05698808
000030 54 f4 13 3d c6 c8 bc 3c 6d c1 f0 bd 76 b8 59 3d
       0.03612168 0.023044955 -0.11755643 0.05315443
000040 dd 14 95 3c b3 5f fd bc fb 0c e1 39 45 54 c0 3c
       0.018198425 -0.030929422 0.00042925015 0.023477683
000050 fe 57 fd 3d af d0 b9 ba b2 ff 07 bd ef a8 76 bd
       0.12370299 -0.0014176572 -0.033202834 -0.0602197
000060 41 e0 12 3d 89 53 cc bd d0 59 bc bb 38 3d 3d bd
       0.035858396 -0.099768706 -0.005748011 -0.04620096
000070 b3 d2 56 bb 8d 49 eb 3b 00 a6 0d 3e a7 05 cb bd
       -0.0032779395 0.007180399 0.13832855 -0.099131875
000080 e0 92 e3 3d 64 80 8b 3c bf c0 2a bd cc 72 4e 3d
       0.111119986 0.017028995 -0.041687723 0.050402448
000090 9a b2 d4 3b 68 41 dc 3d 81 f8 56 3d 92 ea 31 bd
       0.0064910175 0.10754663 0.052483086 -0.043436594
0000a0 db 3e 55 3c 23 5e bf bd 10 11 c9 bd 38 85 ac bd
       0.013015474 -0.09344127 -0.098177075 -0.08423847
0000b0 ac 2d c5 bc 01 47 a4 bc 28 16 00 3c 25 06 ea bd
       -0.02406963 -0.020053389 0.007817782 -0.11426953
0000c0 c3 79 80 bd 2e 1d 43 bd b0 06 ef bd f3 ea 62 bb
       -0.06273224 -0.04763525 -0.116711974 -0.0034624904
0000d0 df 3f e8 bd 92 71 a7 bc 95 ee 28 3b e7 33 f0 3c
       -0.113403074 -0.020439897 0.0025776972 0.029321624
0000e0 c6 7f 07 3d 1a fd 65 bd 1b 46 1b 3e ea 71 8a bd
       0.03308084 -0.05614958 0.15163462 -0.06760009
0000f0 aa b8 9e 3b 27 d5 73 bd c6 fa 03 bd c4 a2 86 3d
       0.004843791 -0.05952945 -0.032221578 0.06574014
000100 83 c1 15 bd 5c d6 59 bc e8 c9 0a bd 0a b0 af bc
       -0.0365615 -0.013295736 -0.03388396 -0.021446247
000110 9c 64 78 bd 49 9d a2 bc 2d de 07 3e 68 4b 87 bc
       -0.060642824 -0.01985039 0.13268347 -0.016515449
000120 00 b3 58 bc 74 25 db bd b7 bd bd bc c5 1d e2 3d
       -0.013226271 -0.10700503 -0.023161752 0.11040834
000130 a7 01 a3 3c b8 b7 24 bd 82 1f 75 3c 81 f7 ad 3c
       0.019898249 -0.04021427 0.014961125 0.021236183
000140 f6 96 64 3d fe 53 8a 3c d2 ee 84 3b 0c 15 bd 3d
       0.05580803 0.016885754 0.00405679 0.0923253
000150 48 56 25 bd bd 3c b8 bd ba 35 0b 3c e5 ab 82 bd
       -0.040365487 -0.0899596 0.008496696 -0.063804425
000160 97 58 be 3c 4c fa 28 3e 85 93 2f 3d 67 91 00 be
       0.023235602 0.1650173 0.042865295 -0.12555467
000170 88 63 12 bd 29 f5 97 bc bd ed 32 3d 31 d8 e3 3d
       -0.03573945 -0.018549519 0.043683756 0.111252196
000180 45 ae b5 bc 4d d5 a0 3c a2 37 9e 3c 25 fb 51 bc
       -0.022177825 0.01963296 0.019313637 -0.012816225
000190 ee 48 4e bc 1b 78 d9 bb fc 51 24 bb 0f a6 91 3c
       -0.01259063 -0.006636632 -0.002507328 0.017779378
0001a0 7f c8 61 3d 74 37 8a 3d f2 53 2e 3e d3 ae 9b bc
       0.05512285 0.06748858 0.1702421 -0.019004261
0001b0 d2 60 dd bc a3 5e 8c 3c e8 ea 45 3c 5a 73 aa 3c
       -0.027023707 0.01713497 0.012079932 0.020806957
0001c0 91 71 b4 bb ea 09 61 be dc 50 3b bd b8 bf 6c bd
       -0.0055067022 -0.21976438 -0.04573141 -0.057800025
0001d0 0f 41 81 3b dc 30 01 bb b6 0e b4 3d c5 a4 8c bd
       0.003944523 -0.001971296 0.087918684 -0.06867365
0001e0 9d 67 37 3d 53 dd 99 bd b0 a7 3b bd a8 bb 9e bd
       0.044776548 -0.07512917 -0.045814216 -0.07750636
0001f0 6a 82 02 39 4f 94 5e 3d a7 4f 2a bd 49 80 29 3d
       0.00012446349 0.054340657 -0.04157987 0.041382108
000200 a4 cd 42 3c fa f3 7e 3d 73 db 8d bc 94 13 4a 3d
       0.011889849 0.062244393 -0.017316556 0.049335077
000210 d0 fa 5d bd a0 bf 09 bd b3 6a d9 3c 57 7a 7a 3c
       -0.05419427 -0.033630013 0.026540136 0.015287957
000220 e7 84 71 3e 24 cd a2 3d 9e a9 87 3d 84 a9 c5 bc
       0.23585854 0.07949284 0.06624149 -0.024128683
000230 76 aa 11 bd 72 bd cb bc 16 ed bf 3b 76 85 7a 39
       -0.035562955 -0.024870608 0.0058571203 0.00023891576
000240 fd 88 84 3d e0 95 a5 3d 9d 1b c3 3d 29 51 6c bd
       0.06471441 0.08085227 0.09526751 -0.057694588
000250 24 d2 a9 bd c8 4e a1 3d eb ed a9 bd bd 9e f0 3c
       -0.08292034 0.078763545 -0.082973324 0.029372567
000260 4e 92 d5 bc 83 f3 de bc 90 6c b4 bb 50 37 63 3d
       -0.02607074 -0.027215725 -0.0055061057 0.055472672
000270 26 00 1a bc 32 b3 b8 3b 62 83 11 bd 0a c6 e0 bc
       -0.009399449 0.005636596 -0.035525687 -0.027438182
000280 f7 5a a5 bd fb 4b 8f 3d 75 09 10 3d 88 20 96 bd
       -0.08073991 0.06996914 0.03516527 -0.073304236
000290 60 31 bc bd 44 9c 49 3c 2c b7 bd 3b 75 dd c0 3c
       -0.09189105 0.012305323 0.005789658 0.023543099
0002a0 af ed fe 3d cd 13 3b bc ce 40 35 bc e3 ae 06 3b
       0.12447678 -0.011418295 -0.011062814 0.0020551018
0002b0 44 5f 09 be 2a 89 bb 3c 88 fd d9 3d e7 df b5 3b
       -0.13415247 0.022892553 0.106440604 0.005550373
0002c0 c0 07 11 bb 27 10 b7 3d 59 d0 51 3d 2d da 45 3d
       -0.0022129864 0.08938628 0.051224086 0.04830377
0002d0 3b 57 11 3d 8c 0c f1 3b 88 71 b7 bc 65 2d ef bc
       0.03548358 0.007356232 -0.022393003 -0.02919645
0002e0 1e 2f b7 bc 8a 88 66 bd 90 1f c2 bd 7a 49 72 bd
       -0.022361334 -0.056282558 -0.09478676 -0.059152104
0002f0 bd 75 23 3c 24 5f bf ba 06 d8 7a bc b0 bb 7c 3d
       0.009976801 -0.0014600498 -0.015310293 0.06170243
000300 d5 74 b8 3c 3c aa 2e 3d 59 c3 b0 3b fe c8 a0 3d
       0.022516647 0.042642817 0.005394381 0.07850836
000310 87 1b 93 bc 69 2b dd bd 1d 57 8e bd ce 21 da bd
       -0.017957462 -0.107992955 -0.06950209 -0.10650979
000320 70 af 1d bd 4c 1e c5 3d a3 ce 8d 3c 7c ee 4d 3c
       -0.03849739 0.09624919 0.017310446 0.012569066
000330 2a 2f b3 3d 3d 1f 7d 3c 97 51 26 bd 40 d7 d9 3d
       0.0874923 0.015449342 -0.040605154 0.10636759
000340 aa 1e 5b bd 02 df a6 bd c3 34 8f bc 8a 61 09 be
       -0.05349604 -0.08148004 -0.017481213 -0.13416114
000350 c8 c2 d1 bb 3d 1e 26 3b 00 4b a1 bd 7b be de bc
       -0.0064013936 0.0025347613 -0.07875633 -0.027190438
000360 e1 5b e4 3d 5b 46 70 bd ef fb 0f bd 72 46 29 3c
       0.11150337 -0.058660846 -0.035152372 0.010331737
000370 dd 0d f1 bb f7 19 33 bd 1f 82 f3 3d c4 44 e5 ba
       -0.007356389 -0.043725934 0.11890053 -0.0017491807
000380 63 9c f8 bd 22 44 8a bd bc be 80 3c a5 0d fe bd
       -0.121392034 -0.067512766 0.01571595 -0.12404946
000390 e4 9b ba bd be 07 b6 3a 74 bb 2d 3b 10 79 3b bd
       -0.09111765 0.0013887805 0.0026509436 -0.04576975
0003a0 41 64 4c 3d 84 33 07 bd 96 80 88 bd a9 7c a7 3b
       0.049900297 -0.033008114 -0.06665151 0.005111296
0003b0 f5 44 2a bd 35 53 9b 3d 96 00 a1 bd fc c8 0f 3c
       -0.04156967 0.0758423 -0.0786144 0.008775946
0003c0 7a 15 3e bd 38 da 67 3e 53 0e e9 bc d1 fe bf 3c
       -0.0464072 0.22641838 -0.028449213 0.023436936
0003d0 e0 ce 8e 3d 2c d7 b9 3d 75 72 c8 3c 72 b4 99 3c
       0.06973052 0.09074244 0.02446864 0.0187628
0003e0 4c 26 85 bc ad b4 67 3d 42 e2 1d 3d 20 11 ad bc
       -0.016253613 0.05656879 0.038545854 -0.02112633
0003f0 3e 6f d5 3c 00 98 46 3d 3e 2b 28 bd cd 6c e1 3d
       0.026054021 0.048484802 -0.041056864 0.1100708

dense.2.bias f4 [2]
000000 14 10 31 bd 78 64 b2 bc
       -0.043228224 -0.021776423
