classify_pytorch/fcn/output/params_1.pth (torch, 251503 bytes, 8 tensors)

conv1.0.weight f4 [32, 3, 3, 3]
1.1527211e-06 2.5561417e-06 2.8108314e-05 1.9270424e-06 1.2406814e-05 -0.00013625294 -2.2092074e-06 6.3367806e-06
-0.00018819331 1.1527164e-06 2.5561417e-06 2.8107523e-05 1.9270424e-06 1.2406858e-05 -0.00013625294 -2.2092074e-06
6.3367806e-06 -0.00018819563 1.1527168e-06 2.5561417e-06 2.8107284e-05 1.9270424e-06 1.2406961e-05 -0.00013625294
-2.2092197e-06 6.3372136e-06 -0.00018819563 -0.00955235 -0.010028075 -0.0095394775 -0.009117643 -0.00943598
-0.008117383 -0.0072611133 -0.008916956 -0.0092346445 -0.00955235 -0.010028075 -0.0095394775 -0.0091176415
-0.009435981 -0.008117383 -0.0072611133 -0.008916954 -0.009234643 -0.00955235 -0.010028075 -0.0095394775
-0.009117643 -0.009435983 -0.008117384 -0.0072611133 -0.008916952 -0.009234643 0.23752543 0.33888882
0.25434616 0.2637883 0.0839948 -0.21810031 -0.25853148 -0.3908796 -0.29716468 0.23405942
0.33446747 0.248903 0.26701054 0.07994724 -0.21988417 -0.25872898 -0.3908125 -0.29760528
0.24075605 0.32469845 0.2659955 0.26464468 0.083423354 -0.21678975 -0.25892365 -0.39106146
-0.29713824 0.13819474 0.32636246 0.31304324 -0.27622467 -0.006709779 0.23686889 -0.32644472
-0.3193588 -0.12608247 0.13250984 0.32213193 0.29762596 -0.28295752 -0.00095683546 0.22874583
-0.32673156 -0.3198196 -0.11816147 0.104135506 0.3095816 0.27887455 -0.2798021 -0.0015762285
0.23321562 -0.32608822 -0.3167785 -0.13552737 0.02668752 -0.47897804 -0.330339 0.40242985
-0.08840157 -0.22396179 0.3254324 0.31176034 0.16226877 0.027616158 -0.47885227 -0.33043262
0.40293232 -0.08858141 -0.22405083 0.32377276 0.3157634 0.16390711 0.027452901 -0.47913235
-0.33038825 0.40304896 -0.088388495 -0.22395189 0.3232547 0.31171504 0.16261241 -0.00715891
-0.010226827 -0.011551607 -0.0073625646 -0.009719358 -0.010743156 -0.0074634836 -0.009249535 -0.009813296
-0.00715891 -0.010226827 -0.011551607 -0.0073625646 -0.009719358 -0.010743156 -0.0074634836 -0.009249535
-0.009813296 -0.00715891 -0.010226827 -0.011551607 -0.0073625646 -0.009719358 -0.010743156 -0.0074634836
-0.009249535 -0.009813296 -0.06142394 0.16966538 0.13223363 -0.24063887 0.06943695 0.14497374
-0.123628914 0.14075075 0.19923617 -0.060573585 0.16622029 0.1465585 -0.24073301 0.07157022
0.15459222 -0.119015306 0.14757243 0.19542609 -0.05910871 0.1644928 0.14962462 -0.24097924
0.061854962 0.16043212 -0.11902076 0.15126395 0.20801893 -3.548642e-05 -5.8736183e-05 -2.512746e-05
-8.275004e-05 -0.0001477861 -0.00015199884 -0.00012398663 -0.00011315371 -7.652584e-05 -3.548642e-05 -5.8736183e-05
-2.512746e-05 -8.275004e-05 -0.0001477861 -0.00015199884 -0.00012398663 -0.00011315371 -7.652584e-05 -3.548642e-05
-5.8736183e-05 -2.512746e-05 -8.275004e-05 -0.0001477861 -0.00015199884 -0.00012398663 -0.00011315371 -7.652584e-05
-0.0014364084 -0.002180854 -0.0017493115 -0.0021589545 -0.0021254339 -0.0023397123 -0.001462764 -0.0012126202
-0.0014268715 -0.0014364084 -0.002180854 -0.0017493115 -0.0021589545 -0.0021254339 -0.0023397123 -0.001462764
-0.0012126202 -0.0014268715 -0.0014364084 -0.002180854 -0.0017493115 -0.0021589545 -0.0021254339 -0.0023397123
-0.001462764 -0.0012126202 -0.0014268715 0.0083745355 0.0008457399 -0.0061806496 -0.003143756 -0.0045406935
-0.0028692356 -0.01126857 -0.00776068 -0.0022886023 0.008368606 0.00084575906 -0.0061806506 -0.0031437743
00000000: 32b7 9a35 2e8a 2b36 25ca eb37 5652 0136
00000010: dc26 5037 1fdf 0eb9 e541 14b6 88a0 d436
00000020: c255 45b9 09b7 9a35 2e8a 2b36 72c8 eb37
00000030: 5652 0136 0d27 5037 1fdf 0eb9 e541 14b6
00000040: 88a0 d436 6156 45b9 0cb7 9a35 2e8a 2b36
00000050: efc7 eb37 5652 0136 7e27 5037 1fdf 0eb9
00000060: 1b42 14b6 40a4 d436 6156 45b9 7681 1cbc
00000070: cc4c 24bc 784b 1cbc 2b62 15bc 5e99 1abc
00000080: c6fe 04bc a2ee edbb 6d18 12bc e84c 17bc
00000090: 7681 1cbc cc4c 24bc 784b 1cbc 2962 15bc
000000a0: 5f99 1abc c6fe 04bc a2ee edbb 6a18 12bc
000000b0: e64c 17bc 7681 1cbc cc4c 24bc 784b 1cbc
000000c0: 2b62 15bc 6299 1abc c7fe 04bc a2ee edbb
000000d0: 6818 12bc e64c 17bc de39 733e d682 ad3e
000000e0: a939 823e 430f 873e 7705 ac3d b055 5fbe
000000f0: 3d5e 84be 5f21 c8be f825 98be 46ad 6f3e
00000100: 523f ab3e 6ee0 7e3e 9bb5 883e 61bb a33d
00000110: 5129 61be 2078 84be 9318 c8be b85f 98be
00000120: c188 763e e03e a63e 9030 883e 827f 873e
00000130: ddd9 aa3d 22fe 5dbe a491 84be 3539 c8be
00000140: 8122 98be ec82 0d3e fb18 a73e 3447 a03e
00000150: 526d 8dbe b5dd dbbb c28d 723e c323 a7be
00000160: ff82 a3be c31b 01be a9b0 073e 7aee a43e
00000170: 6e62 983e cfdf 90be 24d4 7aba 593c 6a3e
00000180: 5c49 a7be 65bf a3be a4fe f1bd ff44 d53d
00000190: 7b81 9e3e a5c8 8e3e 3942 8fbe 7499 ceba
000001a0: 13d0 6e3e 09f5 a6be cb30 a2be b0c7 0abe
000001b0: c99f da3c 9c3c f5be 3222 a9be 490b ce3e
000001c0: e20b b5bd 3d56 65be 139f a63e 0d9f 9f3e
000001d0: c929 263e 483b e23c 202c f5be 772e a9be
000001e0: 254d ce3e 2c6a b5bd 956d 65be 8bc5 a53e
000001f0: beab a13e 44d7 273e e8e4 e03c d650 f5be
00000200: a628 a9be 6f5c ce3e 0705 b5bd a553 65be
00000210: a481 a53e 1d99 9f3e de83 263e 4a95 eabb
00000220: 6c8e 27bc f442 3dbc ab41 f1bb f13d 1fbc
00000230: 1004 30bc 3d90 f4bb 5d8b 17bc f2c7 20bc
00000240: 4a95 eabb 6c8e 27bc f442 3dbc ab41 f1bb
00000250: f13d 1fbc 1004 30bc 3d90 f4bb 5d8b 17bc
00000260: f2c7 20bc 4a95 eabb 6c8e 27bc f442 3dbc
00000270: ab41 f1bb f13d 1fbc 1004 30bc 3d90 f4bb
00000280: 5d8b 17bc f2c7 20bc ab97 7bbd c3bc 2d3e
00000290: 4168 073e 096a 76be f634 8e3d ff73 143e
000002a0: 2831 fdbd f720 103e 9104 4c3e 021c 78bd
000002b0: a735 2a3e 6e13 163e b782 76be 6893 923d
000002c0: 6c4d 1e3e 4cbe f3bd 3a1d 173e c71d 483e
000002d0: fa1b 72bd cd70 283e 3237 193e 43c3 76be
000002e0: a15b 7d3d 5148 243e 28c1 f3bd f0e4 1a3e
000002f0: ea02 553e 41d7 14b8 7f5b 76b8 cfc8 d2b7
00000300: 178a adb8 07f7 1ab9 e161 1fb9 6802 02b9
00000310: ef4c edb8 7f7c a0b8 41d7 14b8 7f5b 76b8
00000320: cfc8 d2b7 178a adb8 07f7 1ab9 e161 1fb9
00000330: 6802 02b9 ef4c edb8 7f7c a0b8 41d7 14b8
00000340: 7f5b 76b8 cfc8 d2b7 178a adb8 07f7 1ab9
00000350: e161 1fb9 6802 02b9 ef4c edb8 7f7c a0b8
00000360: de45 bcba a9ec 0ebb 2749 e5ba 3f7d 0dbb
00000370: dd4a 0bbb dc55 19bb 37ba bfba c8f0 9eba
00000380: dd05 bbba de45 bcba a9ec 0ebb 2749 e5ba
00000390: 3f7d 0dbb dd4a 0bbb dc55 19bb 37ba bfba
000003a0: c8f0 9eba dd05 bbba de45 bcba a9ec 0ebb
000003b0: 2749 e5ba 3f7d 0dbb dd4a 0bbb dc55 19bb
000003c0: 37ba bfba c8f0 9eba dd05 bbba 5935 093c
000003d0: a5b4 5d3a 0c87 cabb 7907 4ebb 19ca 94bb
000003e0: c909 3cbb cf9f 38bc 4d4d febb 60fc 15bb
000003f0: 7a1c 093c eeb5 5d3a 0e87 cabb c807 4ebb

conv1.0.bias f4 [32]
-0.017005404 -0.014207556 -0.014521026 -0.014587569 -0.1298455 -0.008314857 -0.20847209 -0.0013372852
-0.005466976 -0.0013569192 -0.016908515 -0.0047791437 -0.0020297838 -0.00875284 -0.005056067 -0.00416973
-0.093765184 -0.015000382 -0.01587377 0.0036115388 -0.0047997492 -5.217344e-05 -0.00029082783 -0.063809775
-0.1547635 -0.0013119781 0.023120036 -0.011846209 -0.0012678438 -0.0012572308 0.09267333 -0.0026866943
00000000: eb4e 8bbc cfc6 68bc 99e9 6dbc b300 6fbc
00000010: 38f6 04be 0a3b 08bc b579 55be d847 afba
00000020: 5224 b3bb a7da b1ba ba83 8abc 5d9a 9cbb
00000030: 1f06 05bb 1268 0fbc 5dad a5bb 3ba2 88bb
00000040: f607 c0bd 2ac4 75bc b509 82bc 91af 6c3b
00000050: 3747 9dbb ced4 5ab8 407a 98b9 b3ae 82bd
00000060: 537a 1ebe aef6 abba 3b66 bd3c 9a16 42bc
00000070: c72d a6ba aac9 a4ba 84cb bd3d 4013 30bb

conv2.0.weight f4 [64, 32, 3, 3]
-2.6642567e-08 7.878764e-09 5.0265186e-08 -3.4779394e-08 4.3200433e-08 -3.6284877e-08 -2.4022217e-08 1.9970836e-08
4.2701576e-08 -2.1766944e-08 9.966019e-09 2.0103528e-08 -2.6731756e-08 5.727566e-09 -7.307822e-09 1.6474658e-08
6.831076e-09 1.7078934e-08 -0.056358278 -0.06289081 -0.071789145 -0.060357004 -0.059178423 -0.029455552
-0.083987154 -0.0732532 -0.043624986 -1.2605257e-05 -0.02004831 -0.0017003168 -0.012090536 -0.008109755
-5.8441665e-06 -0.003367521 -0.02387291 -0.0067273187 -0.03335598 -0.021470305 -0.009508711 -0.03923059
-0.048547987 -0.0528922 -0.006671748 -0.0036683294 -0.076172836 -2.5684693e-08 -2.2881697e-09 2.1907827e-08
2.2601997e-08 2.384054e-08 5.939169e-09 -2.0750822e-08 2.5233334e-08 2.0867663e-09 -0.040285785 -0.054386705
-0.022548439 -0.05035086 -0.045777597 -0.0273991 -0.05484673 -0.055887662 -0.066429734 1.8632239e-08
1.8147729e-08 -1.0742998e-09 -2.9383523e-08 -7.3021713e-09 1.950949e-08 1.4089418e-08 1.1167156e-09 -2.6353078e-08
4.7790927e-09 -3.5789647e-08 -4.0576957e-08 -4.4871847e-08 -3.892145e-08 2.510027e-08 3.1185703e-08 -1.9220149e-08
2.9209913e-08 1.5150217e-08 -2.136187e-08 1.4546151e-07 3.5062744e-08 2.0981341e-07 -4.5771017e-07 -9.984986e-08
3.4145168e-07 -1.4356566e-07 3.129324e-08 6.292849e-09 -5.314363e-08 2.9318487e-08 3.0269177e-08 3.21083e-08
-4.0180595e-08 2.21022e-08 3.4202035e-08 -4.487769e-08 4.577055e-08 3.9845204e-08 4.903351e-08 5.056452e-08
-5.125964e-08 2.0976534e-08 -2.466463e-08 2.2294767e-08 3.2406075e-07 1.5381057e-07 4.2529376e-07 -4.0219896e-07
-3.351396e-07 -5.3290546e-07 -6.33826e-07 -1.2445635e-07 -8.11923e-07 -1.28522615e-08 -9.587513e-09 1.1675251e-08
-2.5286127e-08 3.1415965e-08 -4.5394e-08 2.9145458e-08 -4.242229e-08 -4.348404e-08 -1.4082394e-08 -1.590055e-08
1.1882534e-08 -1.1116441e-09 1.8204185e-08 -1.9950924e-08 -1.01589945e-08 1.940468e-08 -1.2431755e-08 1.9928425e-08
2.6437599e-08 1.0043774e-08 -1.7291876e-08 -9.421553e-09 -1.2193203e-08 6.8281754e-09 -2.0768468e-08 -1.2498187e-08
-0.006092529 -0.016063131 -3.688939e-08 -0.010882446 -0.00021091424 -2.7004412e-06 -0.0002988018 -7.279667e-06
-4.753933e-06 -0.014422111 -0.030873587 -0.07482194 -0.012582263 -0.049804624 -0.05219847 -0.051731892
-0.047249343 -0.06806876 7.348685e-08 -4.121693e-08 -2.1261044e-08 4.1116344e-08 4.0888224e-08 -1.8410088e-08
3.3775045e-08 2.0790543e-08 1.9331912e-08 -2.8426768e-08 -4.9477002e-08 -4.3953747e-08 -4.3458837e-08 -4.2405876e-08
4.311374e-08 4.7359208e-08 -4.0452264e-10 2.3376924e-08 -2.7425727e-08 -5.556828e-09 3.805651e-09 2.6264503e-08
-1.5460788e-08 -5.3014784e-09 3.5757193e-09 2.3095176e-08 1.9062783e-08 1.2310629e-08 -4.4143306e-08 -4.4573294e-08
-4.5256343e-08 -5.0509623e-08 3.6220257e-08 3.110424e-08 2.3208493e-08 2.3828402e-08 4.347191e-08 2.805367e-08
-1.5298955e-08 1.4738287e-08 2.8400901e-08 -2.7322901e-08 4.4602846e-08 4.899657e-08 4.3154486e-08 -0.0013703358
-0.056929857 -5.1209e-06 -0.015643796 -0.01434095 2.7176651e-05 -0.0007332129 -0.019837586 -0.023946626
-0.022136873 -0.047650915 -0.054177362 -0.04123712 -0.05356038 -0.038976718 -0.06195171 -0.033639617
-0.024342477 1.9213159e-08 3.853299e-08 3.9352347e-08 -3.698398e-08 -3.4182392e-08 -4.023581e-08 -1.3289673e-08
-1.885538e-08 -2.5660656e-08 -0.091231905 -0.081121184 -0.011573675 -0.10740016 -0.092574395 -0.047411088
-0.08721933 -0.061916932 -0.07167258 2.0929583e-08 1.2394418e-08 1.0310226e-08 2.0726382e-08 1.11304725e-08
2.1825134e-08 1.913909e-09 -9.853906e-09 3.3672727e-09 2.0424753e-08 2.0804148e-08 -7.9420435e-09 2.0518407e-08
00000000: a0db e4b2 2c5b 0732 28e3 5733 5960 15b3
00000010: 618b 3933 a5d7 1bb3 6a59 ceb2 558c ab32
00000020: e166 3733 04fa bab2 0437 2b32 20b0 ac32
00000030: c19f e5b2 34cc c431 4818 fbb1 2884 8d32
00000040: c8b6 ea31 f9b4 9232 f0d7 66bd e6cc 80bd
00000050: 3006 93bd e838 77bd 1365 72bd c54c f1bc
00000060: 7501 acbd c605 96bd 1db0 32bd 2b7b 53b7
00000070: 5a3c a4bc 2add deba 6217 46bc c7de 04bc
00000080: 0219 c4b6 a1b1 5cbb 1f91 c3bc d770 dcbb
00000090: 48a0 08bd 7ee2 afbc 6dca 1bbc 41b0 20bd
000000a0: 41da 46bd 7ea5 58bd ae9e dabb 5b68 70bb
000000b0: 8100 9cbd 3da1 dcb2 e83d 1db1 d22f bc32
000000c0: 5126 c232 e7c9 cc32 7c11 cc31 8a3f b2b2
000000d0: b0c0 d832 c866 0f31 b502 25bd 98c4 5ebd
000000e0: 81b7 b8bc b43c 4ebd 4a81 3bbd 1474 e0bc
000000f0: f7a6 60bd 76ea 64bd 500c 88bd ba0c a032
00000100: 47e3 9b32 90a6 93b0 0d67 fcb2 94e6 fab1
00000110: d295 a732 ea0d 7232 f07a 9930 085f e2b2
00000120: 5835 a431 22b7 19b3 d646 2eb3 1eb9 40b3
00000130: 962a 27b3 149c d732 0bf1 0533 8e19 a5b2
00000140: 47e9 fa32 ae23 8232 407f b7b2 2830 1c34
00000150: e597 1633 1249 6134 35bb f5b4 0b6d d6b3
00000160: c350 b734 0727 1ab4 4867 0633 7c38 d831
00000170: 0a40 64b3 09d8 fb32 5001 0233 73e7 0933
00000180: 0893 2cb3 40db bd32 89e5 1233 8bbf 40b3
00000190: 4095 4433 4422 2b33 ea98 5233 472c 5933
000001a0: 9228 5cb3 e32f b432 18de d3b2 b682 bf32
000001b0: 92fa ad34 2127 2534 ee53 e434 ceed d7b4
000001c0: 3ced b3b4 fc0c 0fb5 3124 2ab5 4da2 05b4
000001d0: ecf2 59b5 d8cc 5cb2 54b6 24b2 4c94 4832
000001e0: c834 d9b2 38ee 0633 3bf7 42b3 8a5b fa32
000001f0: cd33 36b3 35c3 3ab3 06ef 71b2 ae95 88b2
00000200: f023 4c32 80c8 98b0 6d5f 9c32 8c60 abb2
00000210: bb87 2eb2 58af a632 7093 55b2 122f ab32
00000220: e518 e332 fc8c 2c32 3d89 94b2 6edc 21b2
00000230: 467a 51b2 449d ea31 5866 b2b2 9cb7 56b2
00000240: d6a3 c7bb d496 83bc 5070 1eb3 494c 32bc
00000250: dc28 5db9 3a39 35b6 80a8 9cb9 dd43 f4b6
00000260: f983 9fb6 b84a 6cbc 9bea fcbc 3f3c 99bd
00000270: d625 4ebc efff 4bbd 10ce 55bd d2e4 53bd
00000280: 8788 41bd a267 8bbd d3cf 9d33 7e06 31b3
00000290: 88a1 b6b2 e697 3033 149d 2f33 3624 9eb2
000002a0: 0e10 1133 e396 b232 530f a632 202f f4b2
000002b0: 8a80 54b3 a8c7 3cb3 7fa7 3ab3 c121 36b3
000002c0: 0f2c 3933 0068 4b33 8063 deaf 66ce c832
000002d0: d095 ebb2 60ee beb1 dcc2 8231 419c e132
000002e0: a2ce 84b2 4c28 b6b1 b8b8 7531 d462 c632
000002f0: 81bf a332 b87e 5332 1498 3db3 db70 3fb3
00000300: e05f 42b3 ebef 58b3 9890 1b33 7997 0533
00000310: 045c c732 36af cc32 dfb5 3a33 acfa f032
00000320: c26a 83b2 ac33 7d32 3ef6 f332 b2b3 eab2
00000330: 5991 3f33 4c70 5233 dc58 3933 d79c b3ba
00000340: 482f 69bd 32d4 abb6 6b27 80bc 4ef6 6abc
00000350: 6af9 e337 1635 40ba 6f82 a2bc b72b c4bc
00000360: 6358 b5bc 9b2d 43bd 15e9 5dbd 41e8 28bd
00000370: 2162 5bbd 0da6 1fbd 14c1 7dbd b2c9 09bd
00000380: e069 c7bc 2f0a a532 787f 2533 5d04 2933
00000390: 51d8 1eb3 f0cf 12b3 becf 2cb3 9a50 64b2
000003a0: 6bf7 a1b2 616c dcb2 cbd7 babd dd22 a6bd
000003b0: 839f 3dbc 9df4 dbbd a597 bdbd 2132 42bd
000003c0: 0ca0 b2bd 9c9c 7dbd 13c9 92bd a4c8 b332
000003d0: 3aef 5432 da20 3132 cc09 b232 5638 3f32
000003e0: fa79 bb32 d885 0331 f049 29b2 b065 6731
000003f0: 8272 af32 ceb4 b232 7a71 08b2 7440 b032

conv2.0.bias f4 [64]
-0.07037703 -0.101869516 -0.00050680095 -0.0036428082 -0.002291498 -0.001215472 0.04917776 -0.018902877
-0.008147755 -0.00034997007 -0.002305144 -0.00032946627 -5.620634e-06 -0.00011656289 -0.0033745312 -0.23978494
-0.0008908423 -0.0008527259 8.4054234e-05 -0.0012789735 -0.0046336036 -0.0023911074 -0.00019748643 -0.006929142
-0.004469644 -0.0036625103 -0.006732943 -0.0020875395 -0.13732584 0.0421889 -0.0017592653 -0.004297491
-0.13381536 -0.0012194883 -0.0029121088 -0.001608879 -0.004286341 0.016819615 -0.08617899 -0.0012073078
-3.6699737e-05 -0.0036913392 -0.0034089687 -0.0011655285 0.07096327 -0.006206578 -0.0022619835 -0.0058198087
0.08113182 -0.0055046757 -5.7546036e-05 -0.0060606934 -0.0007459943 -0.0029600777 -0.0032993897 -0.004166219
-0.0003257384 -0.0022772108 -0.09067959 -0.0034602967 -0.0011419842 -0.006569064 -0.00076131074 -0.00045240234
00000000: d521 90bd f7a0 d0bd d6da 04ba 2ebc 6ebb
00000010: f52c 16bb 7950 9fba 9e6e 493d 35da 9abc
00000020: 297e 05bc 307c b7b9 e611 17bb 37bc acb9
00000030: e198 bcb6 3a73 f4b8 3d27 5dbb 2f8a 75be
00000040: 6a87 69ba 7789 5fba 4646 b038 3ba3 a7ba
00000050: 7cd5 97bb 20b4 1cbb 5c14 4fb9 db0d e3bb
00000060: 1776 92bb ba06 70bb 05a0 dcbb 1acf 08bb
00000070: 259f 0cbe 45ce 2c3d 2697 e6ba f8d1 8cbb
00000080: e506 09be 3dd7 9fba 14d9 3ebb 05e1 d2ba
00000090: 6f74 8cbb 4ac9 893c 9c7e b0bd 873e 9eba
000000a0: 0bee 19b8 65ea 71bb 0169 5fbb a6c4 98ba
000000b0: 3155 913d 8d60 cbbb c93d 14bb 18b4 bebb
000000c0: 7128 a63d 9160 b4bb 965d 71b8 c898 c6bb
000000d0: d48e 43ba ddfd 41bb 933a 58bb c784 88bb
000000e0: dec7 aab9 423d 15bb 39b6 b9bd 25c6 62bb
000000f0: a2ae 95ba 4e41 d7bb b392 47ba 6a30 edb9

conv3.0.weight f4 [64, 64, 3, 3]
-3.934684e-08 2.5290952e-08 3.2882117e-08 2.4829966e-08 4.226594e-08 -2.8112659e-08 -2.1978769e-08 -1.8081325e-08
1.8635047e-08 -9.736344e-07 4.1000444e-06 8.5166386e-07 6.5855793e-06 -6.288865e-07 -1.4421295e-07 6.4087462e-06
5.982191e-06 -3.2446303e-06 2.6453158e-08 2.4636716e-08 2.705909e-08 -9.463326e-09 1.7260572e-08 3.2193022e-09
8.442596e-09 -2.3131992e-08 -2.3443732e-08 1.1618642e-07 -1.158122e-07 1.6451298e-07 -7.2063095e-08 1.5582195e-08
-3.537131e-08 3.0873615e-08 -5.4807362e-08 -2.8576691e-08 2.4139837e-08 2.4602345e-08 1.6707544e-08 -3.1262545e-08
-1.1921621e-08 2.8324514e-08 -3.2035317e-08 -2.7946562e-08 -1.7755038e-08 1.590134e-07 1.0062139e-07 -1.5762478e-08
7.246342e-09 4.14173e-08 1.2956498e-09 -1.15467685e-07 -1.2167425e-08 3.8983444e-08 -1.0415319e-05 -1.1530652e-05
4.4637964e-06 -0.00025220745 -0.00029220298 -0.0006400188 -0.0005380915 -0.00037907442 -6.023788e-05 -0.00015721438
-0.00034033984 4.1022495e-06 -9.310605e-05 -2.891538e-07 3.3925894e-06 -1.3124658e-05 -3.9884735e-06 -7.1059924e-07
2.999748e-08 -2.2113866e-10 -1.7800163e-08 2.5357853e-08 -3.0386715e-09 3.556181e-08 1.0782671e-08 -5.8801017e-09
-3.4345625e-08 -3.4064314e-08 -8.3224485e-09 -3.0037093e-09 1.6883837e-08 -9.085269e-09 1.6407414e-08 2.760539e-08
1.4037841e-08 -1.0898166e-08 -9.2676737e-07 1.331482e-06 -1.8426592e-06 4.5108504e-06 3.1873171e-06 -1.5421898e-06
4.245843e-06 -9.2956293e-07 -1.7517516e-06 1.0232518e-06 -9.953324e-07 -8.319347e-09 -1.979241e-06 -2.1478793e-06
-1.253409e-06 1.5207795e-06 -1.1074735e-06 -5.736054e-07 3.254369e-08 -1.62139e-07 9.072364e-08 2.432143e-07
-2.1088744e-07 7.12808e-08 3.0738445e-07 -1.1411247e-07 -2.1521781e-07 3.2686532e-07 2.4818243e-07 -5.0920113e-07
-3.493081e-07 -4.2654906e-07 6.044754e-07 6.481438e-07 -5.8671404e-08 -7.098032e-07 -1.9065983e-06 -1.7731955e-06
-2.7381338e-06 1.4382204e-06 -2.7868123e-07 2.9707137e-06 -3.0652868e-06 -2.121144e-06 -2.3073226e-06 -0.00039609018
-0.0015947532 -0.0009836392 -0.00021804562 -0.0020781488 -0.0006589117 -0.0006338884 -0.0016019144 -0.00076469406
5.502282e-07 -5.21228e-07 1.116121e-06 -2.6096375e-06 -1.3185918e-06 8.7390214e-07 1.903027e-07 -7.99552e-07
7.2256415e-07 -3.30945e-08 2.8730296e-08 4.0916998e-08 -3.7855965e-08 1.4752306e-08 6.397208e-09 2.497087e-07
2.0484654e-08 -2.4992442e-08 -3.1224943e-09 -2.4622027e-08 -1.3857875e-08 -2.0334962e-08 1.3626118e-08 -1.9285048e-08
3.3601054e-08 -6.1396523e-09 -1.7696831e-09 -1.8867449e-06 -8.593929e-07 -5.9796656e-07 -1.2469675e-06 1.5047987e-06
-1.1382126e-06 -1.248253e-06 -3.945446e-07 9.4912855e-07 -1.9201555e-06 -2.716129e-06 -2.174106e-06 1.0906039e-06
-3.6674487e-06 -1.0547913e-06 -3.723311e-07 8.866945e-08 -2.1284577e-06 2.4678085e-08 3.116553e-08 -5.4134475e-10
-1.1277173e-08 2.665024e-08 3.5998198e-08 -3.1479445e-08 4.2690864e-09 3.989991e-08 -2.9425507e-08 -6.046895e-08
-8.476546e-08 2.930356e-08 -1.05113536e-07 -2.1923013e-07 -1.4604993e-07 -3.90672e-07 9.499338e-09 -1.5621438e-08
3.1708087e-08 1.783524e-08 2.3033849e-08 -1.966077e-08 -2.4214504e-08 8.304545e-09 -2.9846696e-08 -2.4311134e-08
4.1738097e-08 3.4064705e-08 3.1688003e-08 -1.8143117e-08 9.271041e-09 1.9569539e-08 7.088701e-09 4.651689e-09
6.612389e-09 3.8686974e-07 2.2865018e-07 -8.380624e-08 6.1620185e-08 -3.7463607e-08 -2.0427129e-07 -1.2122644e-07
-1.6594824e-07 -1.2946494e-07 1.437254e-07 1.5936394e-08 -2.9328152e-08 -3.8611e-07 -3.362245e-08 -3.5735441e-09
-1.3433981e-07 4.0079606e-09 -4.8855135e-08 1.6344566e-07 -2.0290236e-06 1.4866498e-06 -2.1512474e-06 -2.8168222e-06
-3.66696e-07 4.1810864e-07 2.0446873e-06 1.9954655e-06 -0.001310212 -0.0014915398 -0.0018708988 -0.0022629825
00000000: 4ffe 28b3 643f d932 453a 0d33 ac49 d532
00000010: e487 3533 647c f1b2 d3cb bcb2 4151 9bb2
00000020: e712 a032 d3ad 82b5 1d93 8936 e59d 6435
00000030: b2f9 dc36 c0d0 28b5 f4d8 1ab4 b60a d736
00000040: a1ba c836 53be 59b6 1c3b e332 b6a0 d332
00000050: 916f e832 2694 22b2 6644 9432 903a 5d31
00000060: ee0a 1132 cab3 c6b2 5061 c9b2 2982 f933
00000070: 6eb4 f8b3 fca4 3034 1bc1 9ab3 9cd9 8532
00000080: 2beb 17b3 e699 0433 5565 6bb3 cf78 f5b2
00000090: 105c cf32 2155 d332 4784 8f32 8845 06b3
000000a0: d8cf 4cb2 444e f332 3497 09b3 240f f0b2
000000b0: be83 98b2 45bd 2a34 3215 d833 0e66 87b2
000000c0: 80fb f831 cee2 3133 a012 b230 08f7 f7b3
000000d0: e708 51b2 c06e 2733 74bd 2eb7 c673 41b7
000000e0: b8c7 9536 b63a 84b9 d232 99b9 efc6 27ba
000000f0: b60e 0dba 82be c6b9 eea7 7cb8 ead9 24b9
00000100: a46f b2b9 0ea6 8936 ee41 c3b8 ff3c 9bb4
00000110: 3eac 6336 fa31 5cb7 bad4 85b6 02c0 3eb5
00000120: 94d6 0033 0025 73af f9e6 98b2 82d2 d932
00000130: e0d0 50b1 a0bc 1833 b03e 3932 ec09 cab1
00000140: 6a83 13b3 1c4e 12b3 84fa 0eb2 d069 4eb1
00000150: f307 9132 7015 1cb2 49f0 8c32 e520 ed32
00000160: 142b 7132 a43a 3bb2 f8c6 78b5 60b5 b235
00000170: 4a51 f7b5 e95b 9736 b1e5 5536 3dfd ceb5
00000180: 8377 8e36 1487 79b5 ba1d ebb5 aa56 8935
00000190: 5c97 85b5 e0ec 0eb2 1ad3 04b6 4924 10b6
000001a0: ce3a a8b5 961d cc35 80a4 94b5 ddf9 19b5
000001b0: 2ac6 0b33 6e18 2eb4 d9d3 c233 1e93 8234
000001c0: 4c70 62b4 0913 9933 9906 a534 fe0d f5b3
000001d0: 9f16 67b4 077c af34 ef3d 8534 09b0 08b5
000001e0: 8a88 bbb4 7500 e5b4 3c43 2235 1afc 2d35
000001f0: e4fd 7bb3 4e89 3eb5 38e6 ffb5 89fe edb5
00000200: c8c0 37b6 e008 c135 a89d 95b4 795c 4736
00000210: 3ab5 4db6 fa58 0eb6 80d7 1ab6 53aa cfb9
00000220: 0a07 d1ba 74ed 80ba 2da3 64b9 8d31 08bb
00000230: d1ba 2cba 882b 26ba 54f7 d1ba c075 48ba
00000240: 65b3 1335 84ea 0bb5 a0cd 9535 3b21 2fb6
00000250: 78fa b0b5 1996 6a35 0256 4c34 cca0 56b5
00000260: 3bf6 4135 ca23 0eb3 97ca f632 b7bc 2f33
00000270: 1397 22b3 5471 7d32 70ce db31 b40f 8634
00000280: 3bf6 af32 f6ae d6b2 8093 56b1 6980 d3b2
00000290: 9413 6eb2 0ead aeb2 4d18 6a32 45a8 a5b2
000002a0: c050 1033 f4f4 d2b1 3039 f3b0 103c fdb5
000002b0: 08b1 66b5 f383 20b5 7a5d a7b5 7df8 c935
000002c0: b0c4 98b5 a689 a7b5 ccd1 d3b4 9ec7 7e35
000002d0: 05dc 00b6 be46 36b6 dbe6 11b6 dd60 9235
000002e0: 4a1e 76b6 5a92 8db5 cce4 c7b4 8c6a be33
000002f0: a0d6 0eb6 affb d332 ddda 0533 c0cd 14b0
00000300: 88bd 41b2 7fec e432 709c 1a33 0434 07b3
00000310: 48af 9231 6a5e 2b33 60c3 fcb2 28db 81b3
00000320: 4e08 b6b3 36b7 fb32 c7ba e1b3 8565 6bb4
00000330: e6d1 1cb4 8dbd d1b4 8832 2332 e82f 86b2
00000340: 692f 0833 1c34 9932 f8db c532 7ee2 a8b2
00000350: 4200 d0b2 c6ab 0e32 ca30 00b3 c0d4 d0b2
00000360: 8643 3333 8a4e 1233 5419 0833 23d9 9bb2
00000370: 7846 1f32 df19 a832 e090 f331 b0d4 9f31
00000380: 3033 e331 f9b2 cf34 e282 7534 f8f8 b3b3
00000390: 0e54 8433 ace7 20b3 aa55 5bb4 782a 02b4
000003a0: 812f 32b4 0d03 0bb4 f052 1a34 80e4 8832
000003b0: 4aed fbb2 8e4a cfb4 4668 10b3 7492 75b1
000003c0: 0c3f 10b4 65b6 8931 cad4 51b3 9a7f 2f34
000003d0: 5c2a 08b6 e688 c735 265e 10b6 a308 3db6
000003e0: 51de c4b4 6a78 e034 7637 0936 d6e9 0536
000003f0: 6bbb abba c57f c3ba f238 f5ba 8c4e 14bb

conv3.0.bias f4 [64]
-0.0014650952 -0.1156813 -0.09701515 -0.0009640139 -0.0078113438 -0.032646377 -0.0012860538 -0.017374799
-0.001508951 -0.0015932065 -0.067269765 -0.0014186391 -0.037944693 -0.0011196291 -0.11847454 -0.03639876
-0.030960435 -0.089966364 -0.07209966 -0.008808379 0.023515731 -0.056249496 -0.001503255 -0.14731452
-0.011560619 -0.002456374 -0.0012035748 -0.015216697 -0.0021773663 -0.05251368 -0.10370234 -0.0015197234
-0.0015412744 -0.0021415297 -0.001297934 -0.14655557 -0.00088743324 -0.00025468046 -0.0014550437 -0.0021210718
-0.0003020732 -0.035028968 -0.0017782463 -0.04610925 -0.06202058 -0.054030806 -0.0014432638 -0.020205315
0.024247311 -0.0018026914 -0.09637064 -0.09961633 -0.096639514 -0.047855694 -0.00211575 -0.0016138207
-0.107848905 -0.002704232 -0.0011688262 -0.000254853 -0.12240016 -0.0016261655 -0.0020009645 -0.038782336
00000000: 7008 c0ba 51ea ecbd e1af c6bd e1b5 7cba
00000010: 4df6 ffbb 35b8 05bd ce90 a8ba 9855 8ebc
00000020: fec7 c5ba 24d3 d0ba bbc4 89bd a1f1 b9ba
00000030: e56b 1bbd 85c0 92ba c8a2 f2bd de16 15bd
00000040: bda0 fdbc 4940 b8bd fda8 93bd 0551 10bc
00000050: 10a4 c03c df65 66bd de08 c5ba 9ed9 16be
00000060: c068 3dbc 1efb 20bb 45c1 9dba 744f 79bc
00000070: 25b2 0ebb 9618 57bd e461 d4bd 7531 c7ba
00000080: 9604 caba e858 0cbb 701f aaba aa12 16be
00000090: a3a2 68ba a286 85b9 2ab7 beba ae01 0bbb
000000a0: 945f 9eb9 897a 0fbd 0b14 e9ba 0edd 3cbd
000000b0: 4b09 7ebd 684f 5dbd e62b bdba 9e85 a5bc
000000c0: 4ca2 c63c 4948 ecba f85d c5bd a503 ccbd
000000d0: f0ea c5bd 5504 44bd 65a8 0abb d686 d3ba
000000e0: e3df dcbd 7c39 31bb 4d33 99ba ca9d 85b9
000000f0: efac fabd 0f25 d5ba 9d22 03bb 3ada 1ebd

conv4.0.weight f4 [10, 64, 3, 3]
-3.5016149e-07 -0.00012668023 0.0001527359 -2.5361985e-06 9.819889e-05 -0.001107508 -2.1593529e-05 -0.00050559785
0.00042370646 8.939179e-06 -0.018888237 -0.17406105 -0.000760107 -0.041039795 0.14131638 0.0063562025
-0.12508453 -0.1057793 -0.13678801 -0.13138022 0.027360061 0.10498709 -0.19219556 0.17740332
0.11528274 -0.20525153 0.036430243 0.00020649447 0.0006115986 0.00026548727 0.00036145345 -0.00052880787
-0.0002479047 0.00020743045 -0.00018238567 0.00015719283 -0.001261107 -0.0027535183 -0.0018370585 -0.002029279
-0.0014660873 -0.0001281941 -0.002462598 -0.0019830207 0.001095978 0.0011448194 0.0058674887 0.045942616
-0.028768241 -0.050223295 -0.058940854 0.022091413 0.22622216 0.27973583 0.0001266881 -0.00028274357
1.7130054e-05 -2.0258796e-05 6.2922045e-05 8.9645965e-08 -1.5856844e-05 1.0957172e-05 2.0632338e-05 0.00022560071
-0.0010198713 -0.0005569566 0.0021523763 -0.013948639 -0.0040509882 -0.00013237685 -0.011849994 0.015428438
0.0013059251 0.0017367037 0.00079461193 0.0018924549 0.0020889284 0.00095516344 0.0019563138 0.0023882322
0.00039162568 0.00018436258 0.0013741559 0.0008122448 0.0006438548 0.0004007418 -1.2748205e-05 0.00017888674
0.0005079312 0.0019134361 -0.010025606 -0.12741327 0.002376292 0.054896902 0.17596783 -0.075991794
0.0006149276 -0.022989817 0.0040898626 0.00031629542 0.0025461304 0.0009255628 0.0013267567 0.0018659515
0.0007028899 0.00036531442 0.0017941755 0.0010548801 -0.0021769372 0.0029393553 0.0070607145 0.019756973
0.24379279 -0.042589635 0.050567534 -0.07830563 -0.22243014 0.00018847523 0.0019137608 0.00043342847
0.0007754802 0.0015700989 0.00048427173 0.00037746184 0.0017228639 0.0006422446 -0.01879542 -0.07595193
0.0784556 -0.0024018902 -0.0077225254 -0.047404148 -1.0833044e-05 0.0040766303 -0.031338554 -0.014596631
0.044892333 0.10486637 -0.031945463 0.038658623 0.18366627 -0.0061709997 0.059660934 -0.02112985
-0.022492532 -0.07921667 -0.009209438 0.11879768 -0.037985817 0.14745933 0.033785287 -0.036891986
0.009337055 0.047145877 0.17077512 -0.031875547 -0.13711783 -0.054840628 -0.17395973 -0.10622714
0.012720171 0.3021817 -0.13387825 -0.07118053 -0.0013269084 0.080178306 -0.05349983 0.0041819676
-0.023666136 -0.013931688 0.001801122 -2.3271618e-06 -0.00038283897 -0.004679418 0.0004122984 -0.000675734
0.00066443696 0.00023986175 0.0036261717 0.0026731207 -0.001860334 0.00059928355 0.00069019065 -0.0014751552
-0.013254192 -0.037573855 -0.0005554438 -0.013739456 0.08447468 -0.0076424857 0.09844752 -0.010670625
0.04138725 -0.010679311 0.014051769 -0.06663527 -0.0068232454 0.01464461 1.1097519e-06 -3.994171e-05
2.413953e-06 0.00017222596 -2.5557454e-06 3.933802e-06 0.00016910375 -1.5662987e-05 -8.744762e-06 -0.022422811
-0.120732576 -0.07500299 0.121088415 -0.0324558 -0.14036845 -0.037219983 0.2327332 -0.048316855
-0.021443963 0.09935534 0.034150396 -0.2465693 -0.061846144 -0.0021017708 0.19535515 0.044157874
0.017284803 -0.0005610636 -0.0012403708 -0.0037041926 -0.002368521 -0.0059371013 -0.0054690866 -0.0036700713
-0.0060576485 -0.003964335 -0.00013156176 0.001529162 0.00022637748 -0.00042506377 0.0007171668 0.0011996632
-0.0010741447 0.0010227915 1.0141976e-05 -0.12527081 -0.11884498 -0.026482176 0.2263258 -0.03235497
-0.0465912 -0.0220701 -0.20218386 0.04752965 -0.00040720243 -0.002322159 -0.002442771 -0.003842226
00000000: d4fd bbb4 77d5 04b9 bb27 2039 8f33 2ab6
00000010: 21f0 cd38 cd29 91ba c023 b5b7 198a 04ba
00000020: eb24 de39 7bf9 1537 81bb 9abc 0f3d 32be
00000030: eb41 47ba 5819 28bd 3eb5 103e b147 d03b
00000040: 2916 00be d1a2 d8bd 2812 0cbe 8988 06be
00000050: 3522 e03c 7903 d73d eace 44be 37a9 353e
00000060: 5b19 ec3d 752d 52be e137 153d 7086 5839
00000070: b053 203a 1931 8b39 7681 bd39 b29f 0aba
00000080: 35f9 81b9 b081 5939 c83e 3fb9 21d4 2439
00000090: bb4b a5ba 5f74 34bb 74c9 f0ba a7fd 04bb
000000a0: ba29 c0ba d76b 06b9 8a63 21bb 91f5 01bb
000000b0: eba6 8f3a c40d 963a 1044 c03b 532e 3c3d
000000c0: 60ab ebbc f1b6 4dbd f76b 71bd 0df9 b43c
000000d0: c8a6 673e 8939 8f3e 94d7 0439 333d 94b9
000000e0: 83b2 8f37 6ff1 a9b7 04f5 8338 6483 c033
000000f0: 5004 85b7 b2d4 3737 9c13 ad37 3b8f 6c39
00000100: 34ad 85ba ba00 12ba e20e 0d3b d588 64bc
00000110: 27be 84bb a4ce 0ab9 7a26 42bc 8fc7 7c3c
00000120: 932b ab3a 1ba2 e33a 814d 503a 400c f83a
00000130: 67e6 083b ef63 7a3a 8035 003b e383 1c3b
00000140: 1c53 cd39 7451 4139 051d b43a d3ec 543a
00000150: 5dc8 283a a71a d239 20e1 55b7 8b93 3b39
00000160: b026 053a 43cc fa3a 7042 24bc a078 02be
00000170: 90bb 1b3b 93db 603d e930 343e 96a1 9bbd
00000180: 1833 213a 2455 bcbc 4104 863b 74d4 a539
00000190: fbdc 263b 78a1 723a 91e6 ad3a f192 f43a
000001a0: 2542 383a ac87 bf39 8a2a eb3a e743 8a3a
000001b0: f2aa 0ebb 33a2 403b 915d e73b 60d9 a13c
000001c0: d1a4 793e 7872 2ebd e71f 4f3d b45e a0bd
000001d0: bac4 63be 6fa1 4539 28d7 fa3a c93d e339
000001e0: 9849 4b3a c7cb cd3a dae5 fd39 12e6 c539
000001f0: b8d1 e13a 4e5c 283a daf8 99bc af8c 9bbd
00000200: 54ad a03d 0869 1dbb 3d0d fdbb da2a 42bd
00000210: 92bf 35b7 4195 853b db5c 00bd b526 6fbc
00000220: 06e1 373d 2ec4 d63d 3fd9 02bd 8158 1e3d
00000230: 0313 3c3e 1936 cabb 065f 743d 8218 adbc
00000240: 4242 b8bc 593c a2bd 2fe3 16bc 334c f33d
00000250: 0497 1bbd 94ff 163e 7162 0a3d 0d1c 17bd
00000260: 72fa 183c 091c 413d acdf 2e3e ef8f 02bd
00000270: 9e68 0cbe 91a0 60bd 8022 32be 9d8d d9bd
00000280: 4468 503c 8fb7 9a3e 6117 09be 19c7 91bd
00000290: a8eb adba 8634 a43d a322 5bbd e308 893b
000002a0: 7cdf c1bc bc41 64bc a013 ec3a 562c 1cb6
000002b0: c7b7 c8b9 ce55 99bb c129 d839 be23 31ba
000002c0: 9c2d 2e3a 6683 7b39 11a5 6d3b 862f 2f3b
000002d0: 73d6 f3ba 3d19 1d3a e9ed 343a ff59 c1ba
000002e0: 1c28 59bc 0be7 19bd 349b 11ba 751b 61bc
000002f0: 1001 ad3d d16d fabb da9e c93d d8d3 2ebc
00000300: ad85 293d 47f8 2ebc 6439 663c 1378 88bd
00000310: 8895 dfbb f2ef 6f3c c9f2 9435 1687 27b8
00000320: 66ff 2136 8e97 3439 5f83 2bb6 1aff 8336
00000330: 7151 3139 0264 83b7 78b6 12b7 0bb0 b7bc
00000340: a442 f7bd 2b9b 99bd 34fd f73d 5ff0 04bd
00000350: bfbc 0fbe fb73 18bd 9d51 6e3e e5e7 45bd
00000360: 40ab afbc d07a cb3d 49e1 0b3d aa7c 7cbe
00000370: 6252 7dbd ddbd 09bb 2e0b 483e e3de 343d
00000380: dc98 8d3c 5714 13ba f093 a2ba 0ac2 72bb
00000390: 3039 1bbb 048c c2bb 0636 b3bb 9485 70bb
000003a0: 3d7f c6bb 41e7 81bb d7f3 09b9 2a6e c83a
000003b0: be5f 6d39 18db deb9 4000 3c3a 043e 9d3a
000003c0: 51ca 8cba 300f 863a 7527 2a37 fe46 00be
000003d0: ff64 f3bd 26f1 d8bc f3c1 673e a586 04bd
000003e0: 6ad6 3ebd 5bcc b4bc 4909 4fbe 73ae 423d
000003f0: c97d d5b9 5d2f 18bb e616 20bb dbcd 7bbb

conv4.0.bias f4 [10]
-0.029853199 0.095528446 -0.035047285 -0.012090789 -0.016402291 0.0060810666 -0.03536567 0.061937165
0.006539255 -0.04864143
00000000: b28e f4bc 6ba4 c33d be8d 0fbd 7218 46bc
00000010: 195e 86bc af43 c73b 98db 10bd d3b1 7d3d
00000020: 3f47 d63b 3c3c 47bd
