classify_pytorch/fcn/output/params_17.pth (torch, 251503 bytes, 8 tensors)

conv1.0.weight f4 [32, 3, 3, 3]
00000000: 3989 97b6 d0ef 54b7 a6fd 6bb7 3e2b 5ab7
00000010: 1beb c5b7 0e02 78b7 4a31 98b7 8840 dfb7
00000020: f7e0 f6b6 3989 97b6 d0ef 54b7 96fd 6bb7
00000030: 3e2b 5ab7 1beb c5b7 0e02 78b7 4a31 98b7
00000040: 8840 dfb7 f7e0 f6b6 3989 97b6 d0ef 54b7
00000050: 96fd 6bb7 3e2b 5ab7 1beb c5b7 0e02 78b7
00000060: 4a31 98b7 8840 dfb7 f7e0 f6b6 8673 30ac
00000070: 20f8 5cac 2eb0 79aa 0d10 baab 69f6 97ab
00000080: 7a54 07a9 eb0d 2ea9 1116 7daa 6d4a 0ba9
00000090: 8673 30ac 20f8 5cac 2eb0 79aa 0d10 baab
000000a0: aaf6 97ab 7a54 07a9 eb0d 2ea9 fc15 7daa
000000b0: 6d4a 0ba9 8673 30ac 20f8 5cac 2eb0 79aa
000000c0: 0d10 baab aaf6 97ab 7e54 07a9 eb0d 2ea9
000000d0: d415 7daa 6d4a 0ba9 718d 953e 15fc b93e
000000e0: a5c9 913e 8c77 893e 28a5 aa3d 965d 3ebe
000000f0: 4e65 91be 3501 e4be 91ec 93be a349 943e
00000100: 3b4d b83e dcbb 8f3e ba93 8a3e 9f08 a53d
00000110: f493 3fbe 9774 91be 44fc e3be 920d 94be
00000120: 21bb 963e 5795 b43e e92e 963e ffc2 893e
00000130: 56da a93d a279 3dbe b883 91be 580e e4be
00000140: 86ea 93be 73ad 363e 55b9 bf3e f415 ae3e
00000150: 25bd 7abe 751c cb3c 206a 903e ed41 bebe
00000160: 9f06 a9be 2cb4 a4bd 1ac8 323e 8b35 be3e
00000170: 6b7a a83e 36c5 7ebe 025f e83c 1da3 8d3e
00000180: d852 bebe 8d27 a9be c6cb 9abd c456 1f3e
00000190: b1b7 b93e 5ea8 a13e 81e1 7cbe 8638 e53c
000001a0: 562a 8f3e bb2c bebe 054e a8be ef84 b0bd
000001b0: cf25 193d 9739 f2be c6d5 b8be 51c5 df3e
000001c0: 7328 89bd fb74 5fbe 8974 c13e 37fb b53e
000001d0: 71b3 323e 45cd 1b3d e82e f2be 54dd b8be
000001e0: d9f4 df3e d46a 89bd 9d85 5fbe d3d1 c03e
000001f0: 2b8c b73e 84f9 333e b555 1b3d af46 f2be
00000200: d2d9 b8be ccff df3e a423 89bd 1073 5fbe
00000210: fa9e c03e 90f6 b53e c6f7 323e 788e 619f
00000220: f5bc 28a2 3e52 d0a3 a0ce a9a1 877a 21a4
00000230: 396f 3ca4 2c1c 7da1 9eee 13a3 ce31 f521
00000240: 788e 619f f5bc 28a2 3e52 d0a3 a0ce a9a1
00000250: 877a 21a4 396f 3ca4 2c1c 7da1 9eee 13a3
00000260: ce31 f521 788e 619f f5bc 28a2 3e52 d0a3
00000270: a0ce a9a1 877a 21a4 396f 3ca4 2c1c 7da1
00000280: 9eee 13a3 ce31 f521 a7ac b9bc 6060 593e
00000290: 6643 573e 67c7 09be 5347 183e 8f61 823e
000002a0: 79ed 1dbd 2e5b 543e 7b31 903e 87f9 b6bc
000002b0: 0065 573e 00c7 603e cad0 09be d195 193e
000002c0: 23a8 853e cefb 14bd aae5 583e aedf 8e3e
000002d0: 7e53 b2bc 8b66 563e 5cd0 623e cce8 09be
000002e0: 41a2 133e 44a5 873e 7efe 14bd 885a 5b3e
000002f0: 223c 933e d4e4 d3b4 36a3 18b6 d294 b0b4
00000300: 5da5 57b4 9a5f 00b6 c0b5 aeb4 b1bb 49b3
00000310: 2816 54b5 a116 c2b4 d4e4 d3b4 36a3 18b6
00000320: d294 b0b4 5da5 57b4 9a5f 00b6 c0b5 aeb4
00000330: b1bb 49b3 2816 54b5 a116 c2b4 d4e4 d3b4
00000340: 36a3 18b6 d294 b0b4 5da5 57b4 9a5f 00b6
00000350: c0b5 aeb4 b1bb 49b3 2816 54b5 a116 c2b4
00000360: 1e38 2b9f 1a34 cda4 5de0 bba6 b6a7 6fa3
00000370: 2749 1da7 b0d1 52a7 c70a 14a7 d11d 83a7
00000380: bee8 75a5 1e38 2b9f 1a34 cda4 5de0 bba6
00000390: b6a7 6fa3 2749 1da7 b0d1 52a7 c70a 14a7
000003a0: d11d 83a7 bee8 75a5 1e38 2b9f 1a34 cda4
000003b0: 5de0 bba6 b6a7 6fa3 2749 1da7 b0d1 52a7
000003c0: c70a 14a7 d11d 83a7 bee8 75a5 6efb 1ea7
000003d0: 1b74 77a6 af58 42a5 8da0 bca2 088f c5a4
000003e0: 30b2 b5a6 b407 b119 d991 19a2 f364 0ea6
000003f0: e710 1fa7 1b74 77a6 af58 42a5 bda0 bca2
-4.5161255e-06 -1.269202e-05 -1.4066149e-05 -1.3003881e-05 -2.359371e-05 -1.478243e-05 -1.8142764e-05 -2.6613721e-05
-7.3575607e-06 -4.5161255e-06 -1.269202e-05 -1.4066134e-05 -1.3003881e-05 -2.359371e-05 -1.478243e-05 -1.8142764e-05
-2.6613721e-05 -7.3575607e-06 -4.5161255e-06 -1.269202e-05 -1.4066134e-05 -1.3003881e-05 -2.359371e-05 -1.478243e-05
-1.8142764e-05 -2.6613721e-05 -7.3575607e-06 -2.5075233e-12 -3.1401617e-12 -2.2176767e-13 -1.322055e-12 -1.0797588e-12
-3.0049293e-14 -3.8647833e-14 -2.247857e-13 -3.0928754e-14 -2.5075233e-12 -3.1401617e-12 -2.2176767e-13 -1.322055e-12
-1.0797658e-12 -3.0049293e-14 -3.8647833e-14 -2.2478541e-13 -3.0928754e-14 -2.5075233e-12 -3.1401617e-12 -2.2176767e-13
-1.322055e-12 -1.0797658e-12 -3.0049307e-14 -3.8647833e-14 -2.2478487e-13 -3.0928754e-14 0.29209474 0.36325136
0.28474155 0.2684902 0.08332282 -0.18590388 -0.28397602 -0.4453217 -0.28891423 0.2896243
0.35996422 0.28073013 0.2706583 0.08058285 -0.18708783 -0.28409263 -0.445284 -0.28916603
0.29439643 0.35270187 0.29332665 0.26906583 0.082935974 -0.1850343 -0.28420806 -0.44542193
-0.28889865 0.17839603 0.37446085 0.34001124 -0.24486215 0.024793843 0.28205967 -0.37159672
-0.33012864 -0.080421776 0.17459145 0.37150225 0.32905897 -0.24879918 0.028365616 0.27663508
-0.3717258 -0.33037987 -0.07558398 0.15560442 0.36272958 0.31573766 -0.24695398 0.027981054
0.27961987 -0.37143502 -0.32872024 -0.08619105 0.037389573 -0.47309563 -0.36100596 0.43705228
-0.06697168 -0.21821968 0.37784222 0.35543224 0.17451264 0.038037557 -0.47301412 -0.3610636
0.4374149 -0.06709829 -0.21828313 0.37660083 0.35849127 0.17575651 0.037923533 -0.47319552
-0.36103684 0.43749845 -0.06696251 -0.21821237 0.3762129 0.35539675 0.1747733 -4.776345e-20
-2.2868279e-18 -2.2586236e-17 -1.1506579e-18 -3.5015095e-17 -4.086021e-17 -8.575702e-19 -8.019415e-18 1.6615029e-18
-4.776345e-20 -2.2868279e-18 -2.2586236e-17 -1.1506579e-18 -3.5015095e-17 -4.086021e-17 -8.575702e-19 -8.019415e-18
1.6615029e-18 -4.776345e-20 -2.2868279e-18 -2.2586236e-17 -1.1506579e-18 -3.5015095e-17 -4.086021e-17 -8.575702e-19
-8.019415e-18 1.6615029e-18 -0.022665335 0.2122817 0.21021804 -0.13454972 0.14870958 0.25465056
-0.03855655 0.20737907 0.2816275 -0.02233578 0.21034622 0.21950912 -0.13458553 0.14998557
0.2610484 -0.036372952 0.2118136 0.2790503 -0.021768328 0.20937555 0.22149795 -0.13467711
0.14417364 0.26493275 -0.036375515 0.21421254 0.28756815 -3.9468307e-07 -2.2744766e-06 -3.2890836e-07
-2.0083594e-07 -1.9129134e-06 -3.2542266e-07 -4.6969664e-08 -7.9008396e-07 -3.615178e-07 -3.9468307e-07 -2.2744766e-06
-3.2890836e-07 -2.0083594e-07 -1.9129134e-06 -3.2542266e-07 -4.6969664e-08 -7.9008396e-07 -3.615178e-07 -3.9468307e-07
-2.2744766e-06 -3.2890836e-07 -2.0083594e-07 -1.9129134e-06 -3.2542266e-07 -4.6969664e-08 -7.9008396e-07 -3.615178e-07
-3.6257078e-20 -8.899284e-17 -1.3036545e-15 -1.299173e-17 -2.1827783e-15 -2.9257026e-15 -2.0544968e-15 -3.639213e-15
-2.1329219e-16 -3.6257078e-20 -8.899284e-17 -1.3036545e-15 -1.299173e-17 -2.1827783e-15 -2.9257026e-15 -2.0544968e-15
-3.639213e-15 -2.1329219e-16 -3.6257078e-20 -8.899284e-17 -1.3036545e-15 -1.299173e-17 -2.1827783e-15 -2.9257026e-15
-2.0544968e-15 -3.639213e-15 -2.1329219e-16 -2.2063205e-15 -8.585269e-16 -1.6856865e-16 -5.112749e-18 -8.5677436e-17
-1.2607696e-15 1.8304482e-23 -2.0812578e-18 -4.940296e-16 -2.2074845e-15 -8.585269e-16 -1.6856865e-16 -5.112769e-18

conv1.0.bias f4 [32]
00000000: 4618 1fba 0502 ecb0 a2c3 4c3c 82d4 253b
00000010: d5eb 55bd 986a 8ba8 0f64 b0bd 3709 2fb7
00000020: 00c7 3dab d926 19b1 07cc cba3 d5d0 46b2
00000030: 7f43 02b1 dac1 aeaa 7b5d 87ad 97ec 35ac
00000040: fe32 b6bc c268 05bc ecea dfad 51b0 1ea7
00000050: ead8 29aa 9194 bdae 124a fba7 d59a eabc
00000060: 4e3c d3bc 995f 06ae 8acb 543d da58 c7a9
00000070: b7cb abb8 3bc5 82b8 fb79 9f3d 3dbd a5b9
-0.00060689857 -1.7171834e-09 0.012497814 0.0025303666 -0.05222686 -1.5478328e-14 -0.08612835 -1.0432958e-05
-6.7422457e-13 -2.2286513e-09 -2.2095713e-17 -1.15726e-08 -1.8955857e-09 -3.104312e-13 -1.5389237e-11 -2.585298e-12
-0.022241112 -0.008142652 -2.5456491e-11 -2.2022486e-15 -1.5085472e-13 -8.6211156e-11 -6.97468e-15 -0.028638283
-0.025785591 -3.055298e-11 0.051951922 -8.8527886e-14 -8.19186e-05 -6.23562e-05 0.07786938 -0.00031612246

conv2.0.weight f4 [64, 32, 3, 3]
00000000: 3011 3e00 a471 9c00 7ac6 3380 e846 b900
00000010: f256 1281 8820 3500 a074 6b02 52cb 5601
00000020: 7090 1900 8554 9d01 92e1 3d81 3154 f781
00000030: d051 c900 03c7 b382 d4cc 9001 6ced 4f02
00000040: 2007 b280 d489 dc86 ba04 ffb2 4897 afb3
00000050: 13ed 15b4 f46a d0b3 e5ff e3b3 ba3c 00b1
00000060: 6fb3 d5b4 e6de 25b4 8b81 d6b2 2488 118f
00000070: 7149 27ae 9639 cf21 5e0c 3d2c 8dfe ff2a
00000080: 6549 0d09 c97f cb25 2e02 70af d572 062a
00000090: 8704 0fb1 b368 10af 58b9 6a2b 3722 edb1
000000a0: 0d24 09b3 9326 49b3 c6a5 7d29 a4a3 4a26
000000b0: ce58 c0b3 e625 3001 e413 4101 d9ad a302
000000c0: 1ecf 7b81 38f3 1780 a896 1f81 0cd0 5480
000000d0: 100b 0502 b074 4881 a599 abb2 4281 01b4
000000e0: d099 03b0 63a6 aeb3 7a5b 58b3 cbfc 1bb1
000000f0: 662b d7b3 95f0 08b4 3352 b2b4 323d 4685
00000100: 56b1 1281 5076 2780 cac7 cc83 ccd2 5080
00000110: 2cba 3a82 423b 5a02 aeac 3d81 dad5 7582
00000120: 407b 3600 6d66 e201 288a 9e01 ca3d 3981
00000130: df3b 9704 c804 c481 40c2 bf80 b823 4985
00000140: 4460 8e00 b459 1801 f0d6 6800 ccfe 1880
00000150: 6cf6 4500 6908 2800 68fd 0d80 28ad 2b00
00000160: 151e 0600 410f 0400 78db f400 8919 bc81
00000170: f6c3 2180 6b4d 9801 d89a 6c01 d8a8 d000
00000180: 919f 2781 3464 4201 0bd5 2481 0856 2406
00000190: 5083 c682 670a 8485 2b4a a301 0c85 d280
000001a0: 5c3a 3d00 f06a 4780 b095 2d00 565d 0402
000001b0: 8225 1b00 c44f 0c00 7cf0 2d00 9cbd 0980
000001c0: 0658 1500 6220 3800 ab4d 0a80 4806 4300
000001d0: 5cc8 2480 bf0e b801 dc1b bd80 250c 9e81
000001e0: aea8 5e01 fd89 b001 44d5 6280 146f 0a82
000001f0: f97d 2684 de47 2082 a80d cc81 1ae5 4281
00000200: a06f 8a00 9010 9580 fce6 9e00 746a 5a01
00000210: c076 5181 1a8a 0002 f4d0 8581 f865 2600
00000220: 1e54 ba01 be21 4981 64ed da80 f034 f601
00000230: a43c a780 5a07 1981 a8bd 7381 001f d500
00000240: 6216 5628 92a3 b2ab 2ab0 5507 2268 912a
00000250: 54fe f914 73cc a006 39d7 9716 caf7 6906
00000260: 9b44 2787 e2cb 452c 2455 dcb0 bce9 ceb4
00000270: 69ef 4c2c 6f6e 33b3 a390 99b3 f2ae 5db3
00000280: 8db3 03b3 7233 5eb4 0839 c880 c4d4 1e80
00000290: 19eb 4501 4c68 8c00 f62d 4581 b67f 0102
000002a0: 34f8 3000 38c6 a782 6373 2881 30d5 f200
000002b0: 7cd4 7180 008b 2b01 68d7 3e80 502f 2580
000002c0: cafa 4604 0cca 6480 df58 1d83 f7b6 ed01
000002d0: 601d d600 1412 4400 9406 ae00 9803 d000
000002e0: ecef 8d00 60e4 5c01 0c4e 1200 2ceb 2400
000002f0: d490 2181 ea8a eb81 26a0 3081 6c95 a000
00000300: a863 5d03 96b7 c181 a69d f482 cae7 0702
00000310: f8a2 4180 60a4 2f00 68f6 d401 d49b 4e00
00000320: 924f 9c01 f058 4800 7ac7 0f01 2a38 3882
00000330: 7081 0106 774c 8681 90af 5701 d3c9 8820
00000340: 5b2d 18b3 0f89 ae07 7ba4 7bab c407 532b
00000350: e057 230d dc58 3b99 b368 24ae 271b edae
00000360: 242e 29af 183a 09b3 e58e d1b3 466f 8db2
00000370: 7619 a3b3 3f14 a8b2 c0ad f6b3 16d1 b7b1
00000380: c2ac ffaf 102e a180 1c6c 6181 acc1 a400
00000390: 88cd e281 e245 3702 f0bd 5802 9912 9a01
000003a0: a8d7 6b81 0a73 8582 7262 26b5 87e8 03b5
000003b0: 2c46 222c a977 4ab5 9f2b 6bb5 2039 e8b2
000003c0: 5d08 b5b4 b70b adb3 6527 1db4 6020 4c81
000003d0: 7055 5400 74a2 a481 b09c 6580 b4dd 9e80
000003e0: 0878 9780 c2cc 2201 422b 1e01 d9eb ce01
000003f0: 941a 1500 d5ff e281 5002 7d80 1007 2201
5.699966e-39 1.4367104e-38 -4.75481e-39 1.7015003e-38 -2.6878345e-38 4.878951e-39 1.7298543e-37 3.9451468e-38
2.347702e-39 5.779397e-38 -3.4875656e-38 -9.085428e-38 1.8488284e-38 -2.6415913e-37 5.319116e-38 1.5276095e-37
-1.6349274e-38 -8.295732e-35 -2.9688056e-08 -8.1765904e-08 -1.3962953e-07 -9.7052094e-08 -1.0617058e-07 -1.866097e-09
-3.9804897e-07 -1.5447912e-07 -2.4971788e-08 -7.175272e-30 -3.8036633e-11 1.4042108e-18 2.686538e-12 4.547373e-13
1.7006768e-33 3.5301477e-16 -2.1828647e-10 1.1941431e-13 -2.0811812e-09 -1.313392e-10 8.3390716e-13 -6.9014976e-09
-3.1930586e-08 -4.6834042e-08 5.632107e-14 7.0304603e-16 -8.95685e-08 3.2353285e-38 3.5462772e-38 2.405048e-37
-4.6250018e-38 -2.199467e-39 -2.9311778e-38 -7.788815e-39 9.774472e-38 -3.6817918e-38 -1.997689e-08 -1.2061085e-07
-4.7876103e-10 -8.132772e-08 -5.0374616e-08 -2.2699165e-09 -1.0019612e-07 -1.275351e-07 -3.3214891e-07 -9.321155e-36
-2.6943197e-38 -3.624027e-39 -1.2035912e-36 -7.42246e-39 -1.371855e-37 1.6033117e-37 -3.483771e-38 -1.806113e-37
5.00333e-39 8.316626e-38 5.823828e-38 -3.4023465e-38 3.5554912e-36 -7.200589e-38 -1.7610264e-38 -9.457535e-36
1.3075174e-38 2.798235e-38 9.627997e-39 -2.295456e-39 6.425049e-39 3.676437e-39 -1.284766e-39 4.011043e-39
5.61804e-40 3.72814e-40 2.2486592e-38 -6.9096934e-38 -3.100869e-39 5.594707e-38 4.345745e-38 1.9162353e-38
-3.078754e-38 3.5704065e-38 -3.0274894e-38 3.0908178e-35 -2.9168855e-37 -1.2417042e-35 5.998317e-38 -1.9333182e-38
5.6229e-39 -6.558682e-39 4.186295e-39 9.724614e-38 2.493014e-39 1.13064e-39 4.218867e-39 -8.94538e-40
1.960122e-39 5.154405e-39 -9.46217e-40 6.155232e-39 -3.377953e-39 6.7612085e-38 -1.7366903e-38 -5.805746e-38
4.0895982e-38 6.485019e-38 -9.076384e-39 -1.0170517e-37 -1.957105e-36 -1.1775568e-37 -7.495736e-38 -3.5796545e-38
1.2713342e-38 -1.368943e-38 1.459287e-38 4.0116653e-38 -3.8472436e-38 9.443588e-38 -4.9156317e-38 3.526328e-39
6.844631e-38 -3.6942078e-38 -2.0105298e-38 9.044209e-38 -1.5358282e-38 -2.8106936e-38 -4.4768123e-38 1.9572081e-38
1.188424e-14 -1.2693061e-12 1.6076109e-34 2.582943e-13 2.524289e-26 6.048572e-35 2.453119e-25 4.4004476e-35
-1.2583845e-34 2.8108561e-12 -1.6031305e-09 -3.8540554e-07 2.9123043e-12 -4.1777124e-08 -7.150927e-08 -5.1614684e-08
-3.0664115e-08 -2.0694077e-07 -1.8387558e-38 -2.831391e-39 3.635186e-38 1.2894384e-38 -3.621616e-38 9.514074e-38
4.497142e-39 -2.4652217e-37 -3.0939513e-38 2.2300667e-38 -1.0453636e-38 3.1507467e-38 -5.771074e-39 -3.414886e-39
2.3389945e-36 -9.25603e-39 -4.6240172e-37 8.732259e-38 1.9663334e-38 6.251299e-39 1.5981736e-38 1.9103072e-38
1.3034873e-38 4.057147e-38 1.681037e-39 3.390442e-39 -2.967494e-38 -8.65247e-38 -3.2440996e-38 1.4747282e-38
6.5060463e-37 -7.1160436e-38 -3.5943063e-37 9.984754e-38 -6.02777e-39 4.375235e-39 7.8230076e-38 7.219069e-39
5.741953e-38 6.64406e-39 2.640807e-38 -1.3534303e-37 2.43573e-35 -4.933355e-38 3.9615223e-38 2.3172852e-19
-3.543151e-08 2.6261166e-34 -8.9401376e-13 7.4973036e-13 5.033403e-31 -9.6856184e-24 -3.7382274e-11 -1.07823354e-10
-1.5386853e-10 -3.1950634e-08 -9.758313e-08 -1.6465162e-08 -7.59491e-08 -1.9566981e-08 -1.14868726e-07 -5.3497713e-09
-4.6506982e-10 -1.4802039e-38 -4.1403538e-38 1.5130498e-38 -8.331421e-38 1.3464772e-37 1.5923683e-37 5.659735e-38
-4.331741e-38 -1.9608623e-37 -6.1983076e-07 -4.9139675e-07 2.3060538e-12 -7.542499e-07 -8.76078e-07 -2.7034332e-08
-3.3719962e-07 -8.058071e-08 -1.4636096e-07 -3.749211e-38 7.744831e-39 -6.0477194e-38 -9.331594e-39 -1.458954e-38
-1.3910219e-38 2.9901607e-38 2.9051053e-38 7.6010874e-38 1.93808e-39 -8.338639e-38 -1.1480267e-38 2.9759768e-38

conv2.0.bias f4 [64]
00000000: 300d b3b4 c4c0 43bd 9022 34b4 08ea 87b0
00000010: 7f87 cbae f6fb 1db8 a679 523d 5af1 183d
00000020: 9be1 83b9 4787 aead f073 15b2 ee89 5ead
00000030: e886 a6ab 5907 ebb7 82ff 12ae 0bca 41be
00000040: ba63 96b1 c158 0fab 438b 67b1 fee8 29b8
00000050: 30b6 dd9f c1b1 9cba fb25 f7ac 0052 52b7
00000060: aa47 aeb4 4bf7 c9ae 00de caab 4a75 e2b3
00000070: 982b d8bd eb8a 733d 1818 a5b3 be0e 5cb7
00000080: d14e dbbd 3f19 58af 86e4 06aa 1d5d 902b
00000090: 7e99 aaab 71e7 f23c 28c3 71bd cf9c 92b7
000000a0: 9ea7 e8b9 9775 0bb4 4bc6 c9ac c3f8 9eb8
000000b0: f6b4 593d 0b1c 86a0 20b2 fcab b078 a4b3
000000c0: 155b a73d f709 87aa 88f6 cbb8 4756 9eac
000000d0: 0dd7 23b1 6a0b 04b2 9b9a ecaa 9184 0ea2
000000e0: 2567 68af de7e 3fa2 fae9 4abd da8d 01b5
000000f0: 1770 4bad 29ab 2baf 837f 59ae 8e9f 68b6
-3.3350943e-07 -0.047791258 -1.677638e-07 -9.889058e-10 -9.25544e-11 -3.7666374e-05 0.051385544 0.037339546
-0.00025154356 -1.9841585e-11 -8.699303e-09 -1.26498655e-11 -1.1832453e-12 -2.8017605e-05 -3.3423493e-11 -0.1892473
-4.376912e-09 -5.0926976e-13 -3.3694085e-09 -4.050973e-05 -9.3898545e-20 -0.001195483 -7.024379e-12 -1.25360675e-05
-3.2462168e-07 -9.18435e-11 -1.4414581e-12 -1.054528e-07 -0.1055519 0.059458654 -7.687794e-08 -1.3116454e-05
-0.107083924 -1.9654055e-10 -1.1980876e-13 1.025766e-12 -1.2121829e-12 0.029651375 -0.059024006 -1.7477576e-05
-0.00044375373 -1.2988163e-07 -5.7347785e-12 -7.5803626e-05 0.053151093 -2.271904e-19 -1.7955117e-12 -7.658798e-08
0.081716694 -2.3987732e-13 -9.725714e-05 -4.500209e-12 -2.3841864e-09 -7.6860065e-09 -4.20293e-13 -1.9314769e-18
-2.1136921e-10 -2.595249e-18 -0.049539544 -4.8262666e-07 -1.1564103e-11 -1.5613168e-10 -4.945334e-11 -3.4663567e-06

conv3.0.weight f4 [64, 64, 3, 3]
00000000: 0066 b200 a2d7 9e81 aaa0 2781 d881 ac80
00000010: 5062 9800 fc67 2683 44da 0980 607e 8c01
00000020: c4f9 6b81 51ff ed96 0eb4 e317 fab8 4fa8
00000030: 37e1 2c1f c2db ed93 4775 b99a 71cb 8624
00000040: 32c4 7995 7dc6 b120 f376 b401 2970 8f01
00000050: 0a22 1381 5577 a201 a479 a481 e5f9 9c81
00000060: b4c8 7580 83e9 8281 fc87 a901 4ca0 0d00
00000070: 0626 8600 ee2d 1200 8b68 1c01 8b9a 2201
00000080: 6075 7f81 14b7 c580 eec2 0801 b9ff 9f01
00000090: 3490 8305 72af 3001 d234 0e82 ee15 3881
000000a0: 0c6a 9680 fa23 0b81 7acb 0680 0043 9602
000000b0: 5c4c 4081 146a 9580 ce05 4c00 30e5 0f00
000000c0: 2ee3 0280 705d be01 b09f d180 c2e2 ce80
000000d0: 64b1 a980 2897 9f01 5795 9726 28b5 c4ac
000000e0: 91a8 a2ad b860 65ac ef2f 02af 977d 37b0
000000f0: dc08 0cad e78e 2bb0 d3ea 5aaf dfbd 88ab
00000100: eac6 65ae da4a 04af e255 12ac 25cd 81aa
00000110: 7fd5 8529 c55f e0aa 92d4 9cac 72fb 39af
00000120: 18a3 2500 8ab2 b400 0ee2 1680 ac1e 8580
00000130: 5c60 7780 1dc6 2b00 f4c6 f380 5cce 8600
00000140: 1c84 3200 8c32 2900 4c93 9701 e4b8 6c81
00000150: 28dc 3801 4891 3104 78fb 0280 ddc6 0f05
00000160: 1658 b181 640e e780 980d 2c00 e341 0d00
00000170: c0bd 1700 ccee 3280 8a39 1e80 6315 0980
00000180: 50dd 1480 3ad0 3500 28fd 1300 7e65 0700
00000190: 3fbd 0400 f65a 0a00 d79c 0700 efb8 0100
000001a0: b21d 0600 bc4e 0500 0956 0700 f319 0700
000001b0: f87b 4b00 c241 6e80 1e13 bb80 0c4c 9080
000001c0: bbfc 2580 5492 8080 25c4 2d00 3f78 2000
000001d0: 6a22 2980 d785 1f80 c2c9 1580 6d3c 0c80
000001e0: f786 0380 7530 0a80 554a 0a80 05ec 3000
000001f0: a78d 1900 314e 0e80 64d9 2a80 4a6a 3880
00000200: 3405 0680 cae2 2680 153b 0d80 7e56 2380
00000210: 1a5a 1200 2d11 2880 7ac1 2000 a001 f0af
00000220: df06 95b3 99d2 3bb6 785c d7af 7cbe fdb3
00000230: 5716 89b1 d134 3cb0 0683 85b3 6524 a3b4
00000240: 6c10 0e80 400d 2880 1eea 0900 7d19 2300
00000250: cd1d 1100 54bc 0780 0fb3 2300 7ea9 1200
00000260: b99e 3880 e6b1 3881 fe30 3f81 475c 2802
00000270: c8ab 7a86 3abd 3b01 582d 5880 ae16 2380
00000280: 7de8 8b05 acdc 8101 60b7 2500 c889 2180
00000290: 9a69 0881 1f5a 9601 caaf 3e01 b0bd f300
000002a0: 7fa5 a901 48bc 3d81 a46e 7c80 5d1e 3e80
000002b0: 6725 4380 35c1 3d00 f436 3000 5836 1900
000002c0: 8a0d 2580 44bb 2980 3de0 3a00 6b2f 2a80
000002d0: 2a48 1f00 7854 4880 e726 3700 fcee 2500
000002e0: 244d 3f80 63ad 0d00 eed6 2000 7b2b 3680
000002f0: 94f6 1480 0432 2680 16f7 9203 0c20 2b82
00000300: 0a5e 1c82 3206 ca83 c00d 6101 6807 d284
00000310: dc90 1182 c5ea a781 b884 7601 4ec8 2581
00000320: 1efb de80 7470 3880 ae6f 4400 0231 2300
00000330: 1c55 6e01 16b6 b000 d8ae 7580 54f5 1380
00000340: a6ab 4980 04db 4100 8832 9300 d0db 3181
00000350: 043b e380 a861 a900 b843 9780 f4b5 1280
00000360: f87b 3a81 d821 4600 ec37 3280 8075 7701
00000370: 500d 9581 f022 2981 d810 9480 44bc 5881
00000380: 1d77 8401 57b5 1100 326b 4680 b867 ac80
00000390: 627d 0400 549c eb80 2657 0800 0c17 1081
000003a0: 3e70 1d80 5e02 4101 c0f4 7d81 12f2 0e80
000003b0: 3256 7c81 9723 3400 8918 0482 e344 2782
000003c0: 3461 2b00 1017 b680 4058 3680 310a 0800
000003d0: 5391 0200 b738 0c00 d3da 2300 892a 0880
000003e0: 298d 0500 8809 2600 d9e0 2900 3fd1 1e80
000003f0: c99f f9b1 405c 88b5 713d d3b5 1298 23b3
1.6383309e-38 -5.834945e-38 -3.0788327e-38 -1.5842285e-38 1.3994263e-38 -4.8902384e-37 -9.04818e-40 5.1609217e-38
-4.334188e-38 -3.8450542e-25 1.4714983e-24 -1.1530919e-14 3.660871e-20 -6.004391e-27 -7.670368e-23 5.845788e-17
-5.043992e-26 3.0116315e-19 6.629224e-38 5.2690846e-38 -2.7024058e-38 5.9680635e-38 -6.041863e-38 -5.766393e-38
-1.0816752e-38 -4.808953e-38 6.2275923e-38 1.251365e-39 1.2319597e-38 1.669515e-39 2.872768e-38 2.986558e-38
-4.6920315e-38 -1.8157269e-38 2.511911e-38 5.877432e-38 1.2372153e-35 3.245197e-38 -1.0447671e-37 -3.3811196e-38
-1.3813367e-38 -2.555608e-38 -6.24007e-40 2.2078975e-37 -3.5319616e-38 -1.3721543e-38 6.98158e-39 1.45975e-39
-2.65168e-40 6.9929053e-38 -1.9250904e-38 -1.8999458e-38 -1.5583835e-38 5.8624274e-38 1.0518208e-15 -5.5907674e-12
-1.8492126e-11 -3.2596547e-12 -1.184046e-10 -6.6753486e-10 -7.960046e-12 -6.2412514e-10 -1.9910411e-10 -9.716081e-13
-5.2245243e-11 -1.2031923e-10 -2.0795522e-12 -2.305735e-13 5.943422e-14 -3.9856847e-13 -4.4573867e-12 -1.6914983e-10
3.45642e-39 1.6594437e-38 -2.101474e-39 -1.2225124e-38 -1.0962991e-38 4.019996e-39 -2.2387396e-38 1.2379984e-38
4.639167e-39 3.783388e-39 5.568e-38 -4.3479007e-38 3.3953417e-38 2.087296e-36 -2.73881e-40 6.760353e-36
-6.514593e-38 -2.1219162e-38 4.045638e-39 1.217497e-39 2.180286e-39 -4.677439e-39 -2.775706e-39 -8.34192e-40
-1.916102e-39 4.941979e-39 1.83569e-39 6.79257e-40 4.3523e-40 9.50986e-40 6.99112e-40 1.58177e-40
5.61666e-40 4.87422e-40 6.73712e-40 6.52157e-40 6.932134e-39 -1.0125494e-38 -1.7180096e-38 -1.3251592e-38
-3.488576e-39 -1.1807436e-38 4.202961e-39 2.981872e-39 -3.777601e-39 -2.894913e-39 -2.000922e-39 -1.123703e-39
-3.23923e-40 -9.35738e-40 -9.4502e-40 4.492772e-39 2.346703e-39 -1.313747e-39 -3.935076e-39 -5.180917e-39
-5.5288e-40 -3.571105e-39 -1.215056e-39 -3.24527e-39 1.685361e-39 -3.679581e-39 3.008142e-39 -4.36569e-10
-6.939603e-08 -2.7987755e-06 -3.9173975e-10 -1.18158795e-07 -3.9897645e-09 -6.846906e-10 -6.217128e-08 -3.0387596e-07
-1.291588e-39 -3.678173e-39 9.10505e-40 3.223386e-39 1.571894e-39 -7.10408e-40 3.278476e-39 1.713841e-39
-5.199727e-39 -3.3923098e-38 -3.511631e-38 1.2369173e-37 -4.714598e-35 3.448224e-38 -8.09779e-39 -3.222378e-39
1.31569e-35 4.7703765e-38 3.463696e-39 -3.079998e-39 -2.505502e-38 5.5230615e-38 3.502361e-38 2.2384073e-38
6.231827e-38 -3.4848903e-38 -1.1427292e-38 -5.704693e-39 -6.166396e-39 5.671275e-39 4.427817e-39 2.315382e-39
-3.40277e-39 -3.832434e-39 5.4069e-39 -3.874101e-39 2.872788e-39 -6.642457e-39 5.064908e-39 3.483645e-39
-5.813309e-39 1.256061e-39 3.015838e-39 -4.974715e-39 -1.925165e-39 -3.507691e-39 8.637837e-37 -1.2572293e-37
-1.1488058e-37 -1.1873915e-36 4.1335838e-38 -4.9377564e-36 -1.069449e-37 -6.168299e-38 4.5278285e-38 -3.0449425e-38
-2.0477564e-38 -5.183128e-39 6.284877e-39 3.231823e-39 4.377476e-38 1.6228367e-38 -1.0807475e-38 -1.832882e-39
-6.765567e-39 6.047875e-39 1.3517945e-38 -3.2667473e-38 -2.0867828e-38 1.5555231e-38 -1.3891453e-38 -1.718311e-39
-3.4251748e-38 6.440626e-39 -4.611836e-39 4.5451037e-38 -5.475306e-38 -3.1065464e-38 -1.3597696e-38 -3.9808008e-38
4.866006e-38 1.626256e-39 -6.466939e-39 -1.5832913e-38 4.12321e-40 -2.1637422e-38 7.65947e-40 -2.6465158e-38
-2.703494e-39 3.54502e-38 -4.664436e-38 -1.372535e-39 -4.6346932e-38 4.788213e-39 -9.70487e-38 -1.2288992e-37
3.983796e-39 -1.6722334e-38 -4.990775e-39 7.3834e-40 2.35803e-40 1.122371e-39 3.292742e-39 -7.49943e-40
5.09816e-40 3.493168e-39 3.845915e-39 -2.830128e-39 -7.2650193e-09 -1.0159638e-06 -1.5738607e-06 -3.8089702e-08

conv3.0.bias f4 [64]
00000000: 078e 4ab0 ea7e 28bd 142c 4abd 454c 8bb5
00000010: 94b8 80b9 53bc 953c 512e 82b2 8f2d 4937
00000020: 5cb2 a9ac 098e 13bb f5b3 a1bc 4a83 c6ba
00000030: cb5a 6cbc 298d 45b0 0b22 20bd 136e 5f3c
00000040: 2678 093a b617 d9bc 84a3 0abd b48f 12b6
00000050: dbaf 6b3a ec3c df3a 7382 cdad fccf b0bd
00000060: f007 9e3c 2f31 62b4 3f32 16bb 70a1 5f3c
00000070: 8c19 40ba 1e6e 80bc 8dbe f7bc 15bd 62b0
00000080: 30dd 01b8 eb60 60b3 811e 50b8 6d68 56bd
00000090: 048e 43b5 d767 beb5 06e9 93ad 4e8d 3cb0
000000a0: c89f b1ac c574 05b3 514a 36ab a5d1 dc3a
000000b0: 744a 13bd 5bac 3ebc 3e4b f3b9 fe2f 3bb0
000000c0: 6ac0 8c3b 8f3e 7cb6 0cc4 e9bc bd10 50bd
000000d0: a397 16bd f27a afbc 7732 efb7 805f aebb
000000e0: f5c8 f1bc b759 80af de36 62ae e9c3 2bb3
000000f0: 47f7 34bd 5ee4 46b3 56d5 07b6 de47 69bc
-7.3689005e-10 -0.04113666 -0.049358442 -1.0378504e-06 -0.00024551584 0.018278277 -1.5155054e-08 1.1991141e-05
-4.8230708e-12 -0.002251508 -0.01973913 -0.0015145328 -0.014425944 -7.1868783e-10 -0.039094966 0.013637084
0.0005244039 -0.026500564 -0.033847347 -2.1839342e-06 0.0008990743 0.0017031706 -2.3363733e-11 -0.0863342
0.019290894 -2.1065783e-07 -0.0022918133 0.01364933 -0.00073280255 -0.015677508 -0.030242229 -8.248702e-10
-3.0961994e-05 -5.224221e-08 -4.9619473e-05 -0.052345682 -7.284982e-07 -1.4186325e-06 -1.6815448e-11 -6.859481e-10
-5.048382e-12 -3.1072677e-08 -6.4762524e-13 0.0016847147 -0.035959676 -0.011637772 -0.00046404632 -6.8098405e-10
0.0042953985 -3.758734e-06 -0.028535865 -0.050797213 -0.036765706 -0.02142093 -2.851452e-05 -0.005321443
-0.02951477 -2.334681e-10 -5.1435183e-11 -3.999222e-08 -0.044181135 -4.6308166e-08 -2.0240745e-06 -0.014238326

conv4.0.weight f4 [10, 64, 3, 3]
00000000: 0cc9 d799 1063 6c18 a78a 23a5 d091 0525
00000010: 4b8e de2a d377 1127 a8d5 78a8 762c c12c
00000020: 68bc b2a3 c4bf 98ba abc9 97bd 4060 f8bd
00000030: 0f9c a7b9 55b6 88bd 6d3a f83d 2960 203a
00000040: 69a9 a0bd 4fbb c3bd 416a 9fbd e610 71bd
00000050: 44b3 8d3a c8b2 b53d 7152 05be 4d67 dd3d
00000060: 1588 d53d e0d3 24be dbc9 e63b 0f2f 8429
00000070: 296b 3c2e 1e88 932b 0591 702e 9cb8 00b2
00000080: 6d0f 9c2d dd6a 822e c6cc 0fae afd4 5cab
00000090: 3fd2 56af c628 a938 9fcc bdb9 36b9 02b6
000000a0: b1b5 ddba 03fb ccba 140b 2bb6 dd13 c9ba
000000b0: 5e43 b1ba 8b15 593a d39c 793b f65b e03b
000000c0: 8da3 f0bb b552 93bc 9e41 18bd 6862 3f3d
000000d0: 3670 623e ae6a 5d3e a921 1327 f880 2633
000000e0: 51b4 9e31 92b5 95b2 5ae6 9e35 03cb c035
000000f0: 9580 3bb1 7fd9 fa34 8d3a 4135 f1eb 4a34
00000100: 23a7 9ab6 e6bf 9c37 4482 1735 db2a 9db6
00000110: c9c4 a6b7 5810 2537 d3ea a438 4a93 2f38
00000120: d23f 2fa9 6a85 adad 4aac c6aa 9901 72ae
00000130: 76a0 322f c07d 8a2d a47b 38af 41c0 372e
00000140: 3e50 a02f cd9c 03b2 4811 5238 bbae 7738
00000150: 9464 cfb7 ee0c 693a 5b7e 9f39 0d01 3e36
00000160: 4952 c739 3a21 fc38 a967 0dbc 231d aabd
00000170: 0fab 0a3d 2bd3 ba3c 2b6e bc3d b63e 79bd
00000180: 98f9 e33c ccf1 24bd cddf 0d3d b71a 72b8
00000190: fb2c ce39 5da8 303b 5f39 703b e1d4 2b3b
000001a0: 57c0 b53b eeef be3b 2092 c43a c324 fc3a
000001b0: c84f 09bb 71c5 963b bd04 193b 828e 6b3d
000001c0: 4ade 523e e343 4dbc 6045 653d 68e9 0bbc
000001d0: 00f9 0dbe 490f b528 6005 cc2e e669 172c
000001e0: 8f8c 0cac 0a9b 7a30 d0fe 8e2e 3861 c8ab
000001f0: 3ed0 3730 8b8d 1cae 0c04 f6bb 351a 58bd
00000200: 16c8 493d 5cfa 8ebb eef6 2cba c737 b1bd
00000210: 2af1 173c 569a b23c 40b5 2abd 2f30 8dbb
00000220: 6d2b 3a3c bbc4 b73d 89b9 94bc 803b d63c
00000230: 58f2 0a3e 5046 bbbc 8bcf 3b3d 4c91 f6bc
00000240: fa4e a2bc b0c9 6cbb aa0f 7fbc bfa1 a23d
00000250: df83 2bbd 768f 953d 8b2e 203d bfd3 b13b
00000260: 55eb 01bc c300 053d 94af c33d 9d80 98bc
00000270: a868 ffbd 73cf 55bd 4343 91bd 1235 95bd
00000280: 540d 6e3c a3c2 863e 0fd6 88bd c1f5 71bd
00000290: 2703 323c 9a28 9a3d aead 9fbd 6ef0 a83c
000002a0: 9773 c7bc 7171 89bd f477 403c 6259 e6b4
000002b0: bf10 b4ba 3330 1cba f0ff 6bb9 9adf 4abb
000002c0: d5e1 3abb 5137 0cb9 fd40 e7ba 97e3 2bbb
000002d0: bacb 71bb 6af9 a83b 614a 6e3a 6b26 5b3b
000002e0: d3bd b6bc 860e bcbc 6064 09ba 62e8 29bc
000002f0: a05b 603d b41b e83b 6844 9a3d 7462 3a3b
00000300: dd9a 42bc 820c a73a 6cd7 be3c e1fa 11bd
00000310: f5ed adbc c728 123c f009 6b03 59c7 e1a0
00000320: 961b 4d20 a627 651f 8c22 e4a7 c6a5 ad28
00000330: 5e2a 3aa4 bfc9 08a4 ae39 be25 ea6b 1cbd
00000340: 69e2 b4bd f527 e4bc e972 8a3d 8ab9 0abc
00000350: 8294 b5bd 381b 39bc bdbe 433e d41e 57bd
00000360: 098d 43bc d633 373c 8a48 b73c d219 2dbe
00000370: 8de3 7e3c 78db be3b f2c2 2a3e 3d11 9a3d
00000380: 7e52 80bb 7e68 3b29 096a 60b7 052b 8ab6
00000390: 99c1 8fb7 e1d5 2eba 2085 beb9 1249 dab8
000003a0: 5b83 7eb9 2d65 2b37 82a6 4bb5 95e4 b0b8
000003b0: 80fd 63b9 54f0 18ba 4cb6 75ba c521 bfba
000003c0: a998 2eba b548 acba 83f2 ceba 8bd2 c3bd
000003d0: ad5e f2bc 30a9 43bc e440 523e 59e4 95bc
000003e0: f9ed 14bc 85e2 06bb 7f70 24be fcf3 b7bc
000003f0: 017b e9ba 039b 2bbb 98b6 baba 6a4c 25bb
-2.2311681e-23 3.0552299e-24 -1.4184974e-16 1.1585314e-16 3.9533857e-13 2.018775e-15 -1.3813095e-14 5.490326e-12
-1.9378592e-17 -0.001165383 -0.07411512 -0.12127733 -0.00031968995 -0.06675402 0.12120519 0.00061178446
-0.078448124 -0.09557211 -0.07783938 -0.058854006 0.0010810872 0.088719904 -0.1301973 0.10810719
0.10426346 -0.16096449 0.007043106 5.870141e-14 4.284143e-11 1.0482758e-12 5.4698485e-11 -7.492556e-09
1.7741997e-11 5.930698e-11 -3.269631e-11 -7.845486e-13 -1.9537881e-10 8.0661426e-05 -0.00036201344 -1.9479317e-06
-0.001691511 -0.0015638772 -2.5487434e-06 -0.0015341003 -0.0013524105 0.0008281103 0.003808786 0.0068469
-0.0073437155 -0.017983774 -0.037171952 0.046724707 0.22113118 0.21622726 2.0418595e-15 3.8767183e-08
4.618905e-09 -1.7428452e-08 1.1838958e-06 1.4364199e-06 -2.7285172e-09 4.6724378e-07 7.1983305e-07 1.8898551e-07
-4.609015e-06 1.8686009e-05 5.6441445e-07 -4.6839536e-06 -1.9880377e-05 9.838572e-06 7.863869e-05 4.1860425e-05
-3.891316e-14 -1.972707e-11 -3.5291415e-13 -5.502585e-11 1.6246013e-10 1.5744628e-11 -1.6778628e-10 4.178014e-11
2.9160846e-10 -7.660856e-09 5.0083996e-05 5.905212e-05 -2.4723158e-05 0.00088901713 0.00030420985 2.8312818e-06
0.00038017545 0.00012022485 -0.008630672 -0.08306339 0.03385454 0.02280577 0.092007 -0.06085082
0.027828977 -0.040269658 0.03463726 -5.7722176e-05 0.00039324895 0.002695582 0.003665529 0.0026219415
0.0055466103 0.0058269417 0.0014997162 0.001923703 -0.0020952094 0.0046011736 0.0023348772 0.057508953
0.20592609 -0.0125283925 0.055974364 -0.008539535 -0.13864517 2.0101666e-14 9.277801e-11 2.1517176e-12
-1.9973222e-12 9.1169794e-10 6.502676e-11 -1.4237838e-12 6.687094e-10 -3.559601e-11 -0.0075078066 -0.052759368
0.049263082 -0.0043633413 -0.00065980747 -0.08653217 0.009273807 0.021802109 -0.04167676 -0.0043087224
0.011362893 0.0897307 -0.018154876 0.026151419 0.1356901 -0.022860676 0.045852225 -0.03009858
-0.01981305 -0.0036130957 -0.015567699 0.07941007 -0.04187381 0.073027536 0.039106887 0.0054268534
-0.007929643 0.03247143 0.09554973 -0.018616015 -0.124711335 -0.052199792 -0.07092907 -0.07285513
0.014529545 0.2632037 -0.066814534 -0.05907226 0.010865009 0.075272754 -0.07796799 0.020622458
-0.02434711 -0.0671109 0.011747349 -4.2905873e-07 -0.0013737901 -0.000595811 -0.0002250669 -0.003095603
-0.0028515954 -0.00013372047 -0.0017643269 -0.0026228183 -0.0036895112 0.0051566856 0.0009090063 0.0033439647
-0.022307312 -0.022956144 -0.00052410923 -0.010370346 0.05477488 0.0070833806 0.07532579 0.002844003
-0.011877743 0.0012744816 0.02329608 -0.035639647 -0.02123163 0.008920855 6.90717e-37 -3.82484e-19
1.7373303e-19 4.8525433e-20 -6.332017e-15 1.9278751e-14 -4.0368207e-17 -2.9661185e-17 3.299883e-16 -0.038188852
-0.08832247 -0.027851084 0.067601986 -0.0084670875 -0.08866216 -0.011297993 0.1911573 -0.052519634
-0.011935481 0.011181792 0.022373457 -0.16904381 0.015557182 0.0058245026 0.16675928 0.07522819
-0.003916084 4.1612974e-14 -1.3376129e-05 -4.1177286e-06 -1.713708e-05 -0.00066694437 -0.0003633881 -0.000104086605
-0.00024272261 1.0215951e-05 -7.5865694e-07 -8.434911e-05 -0.00021742843 -0.00058341515 -0.00093731727 -0.0014582208
-0.00066603214 -0.0013144227 -0.0015788827 -0.09561642 -0.02958616 -0.011942193 0.20532566 -0.018297361
-0.00908994 -0.0020581794 -0.16058539 -0.022455208 -0.0017813147 -0.0026184923 -0.0014245091 -0.0025222548

conv4.0.bias f4 [10]
00000000: 3348 e6bb 7264 643d e3d5 53bc 72af 053a
00000010: a9ba 48bc 1ae5 dc3b 8c17 bfbc 274f 133d
00000020: 9c39 65bb ab02 1bbd
-0.00702765 0.055759855 -0.012929413 0.0005099691 -0.0122515345 0.006741178 -0.023326658 0.035964157
-0.0034976965 -0.03784434
