classify_pytorch/output/params_sim.onnx (onnx, 527357 bytes, 10 tensors)

conv1.0.bias f4 [32]
00000000: 707c b03c ee61 e2bc bd80 d33d 019b cdbd
00000010: 1097 9039 0603 df3c bc51 3fbb b6fe 19bd
00000020: ba59 813d 6bb7 1b3d 2909 f53b 9160 3a3e
00000030: 0686 93bb d20c 123e d937 48bd 7e74 86bc
00000040: ded6 05bb 74fb a3bc 3105 9d3c 9f7d 45b7
00000050: 2e5d 4fbd 4bfa 0a3d 4ace c93d 49bf e63d
00000060: b936 a53d 4473 1dbd b7a0 9e3c 001a c23d
00000070: 2a56 d13d f4b3 cbbc 9d39 44bc 4a5d 5ebd
0.021543711 -0.027634587 0.10327289 -0.1003933 0.0002757837 0.027223121 -0.0029193005 -0.037596427
0.06315942 0.038016718 0.0074778986 0.182009 -0.004502061 0.14262703 -0.048881385 -0.01641297
-0.002042226 -0.020017363 0.019167515 -1.17713635e-05 -0.050625972 0.033930104 0.098538 0.112669535
0.08067078 -0.038440004 0.019363744 0.09477615 0.102215126 -0.024866082 -0.011976627 -0.054288186

conv1.0.weight f4 [32, 3, 3, 3]
00000000: 0949 5d3c 0f36 efbc ca3e 3fbd 1ef6 cfbc
00000010: bc10 1cbc a49b 49bd 7aae d73c c80c 28bd
00000020: e91e 5bbc 1238 623d 18e3 2cbd 55e1 69bd
00000030: 17de 833d f5f5 eabc b6a1 48bd 7798 d8bd
00000040: cf87 5ebd e528 84bc fe3b cbbb 0a12 30bd
00000050: cfe8 65bd 8792 89bd d83a 05bd 010c 26bd
00000060: 8a70 423c 0e6b 59bd 6e1d 7fbc 71a8 563e
00000070: 36a4 a5bd 4c5a 32be 0c82 153d 8262 95bd
00000080: c2cb 1ebe 0361 903e 0d24 69bd 0cd5 bdbd
00000090: 0587 6f3e a2b3 fd3d 4a1e 47bd 8030 4b3d
000000a0: ef18 393e cda9 3dbe fb5a 643e 7786 e43d
000000b0: 2cb0 f6bd c47c bf3d dede b33c 9102 5ebe
000000c0: b287 6c3e c101 503c 4712 50be 93a6 873c
000000d0: 59f6 79bd 0fa0 febd ebdc 7f3e 16cf d93d
000000e0: 91c3 683e a36d c73d 567c bb3d 1520 15bd
000000f0: 6b6c 86be 0e8a 18be a0c6 43be f47a 843e
00000100: 9980 853e 2948 073e 001e ecbd 9f30 94bd
00000110: ce80 8bbd c69a 6fbd db64 e9bd 0834 7bbc
00000120: 1b8f 0d3e a41c ce3c 07a5 4a3e ec09 3abe
00000130: 0fb6 75bd 5907 85bd 9c3a 6fbe 40a5 37be
00000140: 6095 edbd 436d 113e 1a34 1e3d 2518 30be
00000150: 49a9 a4bd 31b9 973c 7517 ca3d ca5a 2a3e
00000160: d3b0 683d fbdc 6f3e 88bb b33d 1350 033e
00000170: 6f61 53be 41cd 263e a701 243e 20f7 e4bb
00000180: 30d3 12bd db71 243d 8614 343c f0fe e6bb
00000190: 467a 0dbe 0dce 3bbe eae9 4a3e 2c8f 423e
000001a0: 07a2 243e ba95 963d 6af7 7c3d ef71 3d3e
000001b0: be7c e03d 6c95 353e 5497 26be 8b69 2c3e
000001c0: 3a6d b83d 8dec 71bd 5ccd 2f3d 4718 6b3e
000001d0: 668b bfbd e8ea 603d 8cd8 653e d6e5 2f3c
000001e0: e8dc 933e 44c2 603e ae8c 92bd 9ca4 803e
000001f0: 5898 683e c216 2cbe 2bfe 403e 72b7 493e
00000200: ac8f 0fbe 3fe4 003e 6a0f 973d 1cb5 1b3d
00000210: e0a4 493e 3471 e539 adb0 21be cd1c f33d
00000220: 54b0 f53d 1476 e23d 1b60 acbe 04b9 fcbd
00000230: 99bd b3bd 66dd c03c dcfd b5bd 89bd 0abe
00000240: db1d 0e3c 14c4 c43d 040d 8a3e cd50 7ebe
00000250: 953b ebbd cb17 833d a5ec 1ebd 865c aa3d
00000260: 591e 2fbe 83d0 bfbd af5f f03d 3e99 903e
00000270: a0a3 eebc c461 77be 0f47 3cbe 1514 843d
00000280: 92cb fabc c3cc e5bd 186e 29be 4fcf 0c3e
00000290: fa86 063e eb08 e0bd 627c 113e af54 f23d
000002a0: 5a19 143e 139c c8bd 877e 2d3d 909d 3bbe
000002b0: 2614 423d 11c7 0fbd e1e2 e8bd 2fb9 b53c
000002c0: ebcd 513e 0207 083d 9a44 95bd c998 2d3e
000002d0: 6575 24be 689d aabc e4aa 203e 817a 9c3c
000002e0: 0246 e1bd ad14 9e3d a703 923d b449 313d
000002f0: 9abf 793d 8e67 eebc 53be e4bc 5d13 e2bc
00000300: 41f1 1cbc 983b f1bc 2efc 99bc 1709 f0bc
00000310: 508c f4bc f962 95bc 6217 6cbc 0a7e d2bc
00000320: 7cb8 f1bc 0014 f3bc ff83 f6bc 746b bbbc
00000330: b896 eabc c7d2 2ebc 4ef6 3fbc 1222 c1bc
00000340: ab75 21bd 8acf 73bc 92d3 20bc b0d7 e5bc
00000350: 69a0 febc c5af 3fbc f291 28bc 11d7 9ebc
00000360: cbd0 33be ba73 27be 6947 1fbe 6bc6 4a3d
00000370: 179c ba3b 7c80 6fbd ae47 093e 8dda 0d3e
00000380: e2c8 713e 4b49 38be 9a4c 1ebe d41b 0dbe
00000390: 48b2 233d 6cdc 87bc 1a90 c93c a59d 013e
000003a0: 82b3 b53d b420 023d 6139 25be 4603 10be
000003b0: a094 23be 3286 663c cb19 dbba 3514 5e3d
000003c0: 7dd6 9f3d b6e2 893d 63c6 843e d5f6 163c
000003d0: e0dd 773d 55ef 2d3c fcdf 6dbd 486a 06bc
000003e0: 303e 5e3e 6f86 bf3d fdf1 803d 7cd4 55be
000003f0: 9010 093e d54f 283d 6734 273e 3bc9 133e
0.0135061825 -0.029200582 -0.04669074 -0.025385913 -0.009525474 -0.049220696 0.026328314 -0.041027814
-0.013374069 0.055229254 -0.04220876 -0.05709966 0.06438845 -0.028681735 -0.048982345 -0.10575955
-0.054328736 -0.016132781 -0.00620222 -0.042985953 -0.056130227 -0.06717401 -0.03252682 -0.04053879
0.011867652 -0.05308061 -0.015570981 0.20962693 -0.080879614 -0.17417258 0.036500975 -0.072941795
-0.15507415 0.28199014 -0.056919146 -0.09269151 0.2339135 0.12387778 -0.04861287 0.0496068
0.18075918 -0.18521805 0.22300331 0.1115846 -0.12045321 0.09349969 0.021956857 -0.21680667
0.23098639 0.012695731 -0.20319472 0.016558921 -0.06102595 -0.124328725 0.24986617 0.10635202
0.22730853 0.097377084 0.091545746 -0.03640755 -0.2625459 -0.14896414 -0.19118738 0.25875056
0.26074675 0.1321112 -0.115291595 -0.07235836 -0.06811677 -0.058497213 -0.1139619 -0.015332229
0.13824122 0.025160141 0.19789515 -0.18167847 -0.059988078 -0.06495542 -0.23362201 -0.17934132
-0.11600757 0.14201836 0.038623907 -0.1719671 -0.08040101 0.018520923 0.09867755 0.16636196
0.056809258 0.23424141 0.08776003 0.12823515 -0.20642637 0.16289236 0.16016255 -0.0069874674
-0.035845935 0.040147644 0.010991221 -0.007049434 -0.13816175 -0.18340321 0.19815794 0.18999928
0.16077434 0.07352777 0.06175939 0.18500493 0.10961293 0.17732781 -0.16268665 0.16837136
0.09005208 -0.059063483 0.042920455 0.2295848 -0.0935276 0.054911524 0.22445887 0.0107359495
0.28879476 0.21949106 -0.07155739 0.25125587 0.22714365 -0.16805556 0.18846957 0.19698885
-0.1401965 0.12587069 0.07375987 0.038014516 0.19691801 0.00043762627 -0.15790053 0.11870728
0.119965225 0.11057678 -0.33667073 -0.123399764 -0.08776397 0.023543071 -0.088863105 -0.13548864
0.00867411 0.096077114 0.26963055 -0.2483551 -0.11485974 0.064010225 -0.0387999 0.08318429
-0.1710142 -0.09365942 0.11737 0.28241915 -0.029130757 -0.24158388 -0.18386482 0.06449143
-0.030614648 -0.11220696 -0.16545904 0.13750957 0.13137427 -0.10939201 0.14207605 0.11832558
0.14462796 -0.09795394 0.042356994 -0.18321824 0.047382496 -0.035101954 -0.11371399 0.022183029
0.20488708 0.03320981 -0.07288475 0.16952814 -0.16060407 -0.02082701 0.1569019 0.019101383
-0.10999681 0.07718787 0.07129603 0.04328318 0.06097374 -0.029102113 -0.027922785 -0.027597124
-0.009579004 -0.029447362 -0.018797006 -0.02930121 -0.029852062 -0.01823567 -0.014409872 -0.025694866
-0.029506914 -0.029672623 -0.030092238 -0.022878386 -0.028636321 -0.01067037 -0.011716438 -0.023575816
-0.039418858 -0.014881024 -0.009816067 -0.02805695 -0.031082349 -0.011699622 -0.010288702 -0.019389661
-0.17560117 -0.1635274 -0.15554585 0.049505632 0.005694877 -0.05847214 0.1340625 0.13852902
0.23611787 -0.17996709 -0.15458909 -0.13780147 0.039964944 -0.016584598 0.024604846 0.12657793
0.08872129 0.03176947 -0.1613517 -0.14063749 -0.15974665 0.014070081 -0.0016716061 0.05421849
0.07804582 0.06732695 0.25932607 0.009214123 0.06051433 0.010616143 -0.058074936 -0.00820405
0.2170341 0.09351813 0.062961556 -0.20881838 0.13385224 0.04109176 0.16328584 0.14432232

conv2.0.bias f4 [64]
00000000: ca9a 65bd dcda d8bb 9099 52bc 34fe 8cbd
00000010: bacc 633b 8efe 0cbd a2ba 4cbd cd7e bcbd
00000020: 6e29 8abb b3b4 9fbc 70a0 48bd 2a3e e2bc
00000030: 0744 063d 8789 e7bc 7125 15bd bf4d fcbb
00000040: 2c15 a8bb 0097 21ba 9b52 13bc d424 8dbd
00000050: ac3f 1cba 33df 51bc d2ce 57bc 584a 9fbc
00000060: 6f23 923c 10cf 7dbd 6ed2 09bd 8249 babd
00000070: b2ff 2abd 089e 25bb 28ee a5bc 6dc0 d2bc
00000080: 4b71 d0bb de0d fbbc dc23 813c c6bc babc
00000090: d94b 1dbc 9deb 0fbc c958 d1bb 2dbd 71bc
000000a0: 38a0 cfbc 88f4 fabb 728d 03bc 3f03 15bd
000000b0: 44e7 9abd f26a 20bd 0056 d9bd d957 35bd
000000c0: e394 8cbd 7ca2 203d 46a5 89bb 6af5 06bd
000000d0: fe7c 5ebd 1c0a 1fbd 15e7 993c bdb0 b6bd
000000e0: 3e83 82bb 70db 82bc c322 04bd 63df 4cbb
000000f0: 4a9d c8b8 b708 c1bc a4dc c5bb 3caf f7bc
-0.05605582 -0.006617887 -0.012853995 -0.06884423 0.0034759478 -0.03442245 -0.049982674 -0.09203873
-0.0042163646 -0.019495344 -0.04898113 -0.027617533 0.03277972 -0.02826382 -0.03641266 -0.0076996977
-0.005129477 -0.00061641634 -0.008991863 -0.0689179 -0.00059604156 -0.0128095625 -0.013171868 -0.01944463
0.017839162 -0.06196505 -0.033647947 -0.09096052 -0.041747756 -0.0025271196 -0.020255163 -0.025726521
-0.006361162 -0.03064626 0.01576417 -0.022795092 -0.009600603 -0.008784202 -0.006388758 -0.014754576
-0.025344953 -0.007658545 -0.008029329 -0.03638005 -0.07563642 -0.03916449 -0.10612106 -0.04427323
-0.068643354 0.039217457 -0.0042006103 -0.03294889 -0.05431842 -0.038828 0.018786946 -0.08920429
-0.0039829304 -0.015973777 -0.032259714 -0.0031261079 -9.5660405e-05 -0.023563726 -0.0060382653 -0.030234925

conv2.0.weight f4 [64, 32, 3, 3]
00000000: c4f1 ae3a 4041 033a ef0e 823b 0e8c 493b
00000010: 6947 333b 64b3 6b3a ea0e 8c3b 0710 e739
00000020: 3e9b 6d3a 603e 6cbb 2a91 053c 70ea 2fba
00000030: c09c a73c 683d 6e3c 64e7 1fbb b4a6 8a3c
00000040: c858 093c 0294 a13b 3b7b 1abc e636 d0bc
00000050: f862 0fbd 7144 57bc e146 f2bb e81c 89ba
00000060: ca6d bd3a 89e4 9abb 513b 673b 7420 303c
00000070: 5cef 453a e3c3 c8ba 9188 26bb ce85 233b
00000080: 60b5 3839 fea6 373b 98d9 0d3b 984c 7ebb
00000090: 0a72 cbbc 6fd8 f8bc ec7c b4bc 322f aebc
000000a0: 6a7e 5fbc 611d bcbc 6732 23bc 30fd 5abc
000000b0: 98d1 0cbd 3246 4c3b 70b6 a43a 28b3 7dbb
000000c0: 8a10 803c ddfd 5c3b 049c 2d3b f7b6 173a
000000d0: f084 74ba 1d07 f2ba 1ef0 b43b 0ce4 c3bb
000000e0: efb8 62ba 0354 1bbb 0749 863b 7eeb 9c3b
000000f0: d22e 873b 9645 253b a235 043c 6ce3 e0b5
00000100: f8ae 1b35 6d83 a9b5 d783 bd35 e462 6fb4
00000110: 8fe7 7db5 9a06 e734 d88f 8f35 7eaf 3d35
00000120: 985f 0f3b 0612 86bb df24 a63b eab0 b8bb
00000130: a4ab d53b afd7 8f3b 0b5a 123c 1180 c13b
00000140: 1113 b63b a56e 97bc 2ca4 a2bc 9b39 52bc
00000150: adda 2cbc ecf2 85bb 1860 e3bb 8265 43bb
00000160: dc08 b0bb e810 75bc 3a04 54bc e43e 02bc
00000170: 7519 85bb 97fa 84bb 2a8a e8ba 4015 9bbb
00000180: b9c5 ad3b 3206 cfbb 148a 073b a07d e8bb
00000190: 0a2c 81bc 3f2b bebc 8eb0 44bc 4856 74bc
000001a0: 8c0f 08bc 8571 34bc 4e53 a6bb fafd 62bb
000001b0: d777 253c f651 dc3a fc00 97bb 0519 903a
000001c0: 227d 0b3a b4e2 d93b 4cae a039 1559 ee3b
000001d0: 5cb0 b53b fe30 4fbb b6c1 8cbb 8c03 aabb
000001e0: c61e 80bb b710 99bb 5afa 8bba 8ec0 7bbb
000001f0: 183a 9039 7aaf e93a 349a 3a3c ecba 343c
00000200: b7d8 a53c e429 0c3c 029c 66bb 24fa 7ebb
00000210: a1bb 853b 259c 4abb 288f d639 f66a 533b
00000220: ef0c 9d3b e09c 37ba 6bbe bdb9 78ff 273a
00000230: faa4 e83a 84ec deb9 2294 c9ba 882e a13a
00000240: bd3e b9bc 6b02 afbc 562e 80bc 0b73 86bb
00000250: ffce 82bb d448 e3bc 2461 5f3b c9a8 afbc
00000260: ee0a 09bd b972 b4bb 1b55 1e3c 75dd 6d3c
00000270: 12a3 253b f483 a73b 2cce 55bb c70f 7cbb
00000280: 6a94 1fbb 8b22 0f3b 50d4 d13a 38c9 e3ba
00000290: 1833 993b d838 57bb 0d7b 063c b5ad d43b
000002a0: ea71 6f3b 4787 083c bb00 88bb ae9a 5835
000002b0: 04cd 3db6 6065 83b4 c421 7e34 2c79 89b5
000002c0: 76d0 f035 f8fc 2634 2ae3 1a36 cc0b 2736
000002d0: fcc7 9ebb ba51 05bc a059 18b9 5bc5 643c
000002e0: e474 693c 09dc 003c 9416 0d3a 44c1 73bb
000002f0: 4f2d b83b b147 163c 4b41 ad3b bce0 74bb
00000300: de27 b33b 40e5 a7b9 72d7 8fbb 3dd4 a3bb
00000310: 8b94 0ebb 0397 7c3b 60de 32bc f299 9ebc
00000320: af54 ddbc ec3d 20bc 982b 15bc 805c ddb8
00000330: d72e 5cbb 6a34 ca3a a8f9 8eba 5b85 89bb
00000340: bfd5 14bb 4151 80bb 72da 5bbb a853 74bb
00000350: 36d3 933b 64b0 4dbb d6e0 a23b d07b 193c
00000360: 74c4 91bb b6bd f9bb de9d 52bc ea75 0abc
00000370: e22a 12bc 99c7 81bb 8205 a7bb c556 91bb
00000380: 52cb eb3a e58d e23b bca4 7a3c 3579 893c
00000390: 8aea 8f3c b74a 6e3c 6270 30bb b96f e73b
000003a0: 702f c6b8 6ef3 2d3b 3b25 fd3a 7ffa 19bb
000003b0: 9920 2dbb fa36 eab8 2dc7 233b 2a83 e9b9
000003c0: 7676 cd3a 63de df3a 0688 e1b8 21ac 3dbc
000003d0: 3e31 68bc 76ff 65bc 38a7 21bb 1cf4 243c
000003e0: 1d11 573c c916 df3b 9a9e 183c 233c 17bb
000003f0: d843 0aba c278 5abb d84b 14ba d16d e4ba
0.0013347198 0.00050069764 0.0039690654 0.0030753645 0.0027355796 0.000899127 0.004274239 0.00044071695
0.00090639654 -0.003604792 0.008152286 -0.0006710654 0.020460486 0.014541008 -0.0024399394 0.016925193
0.0083829835 0.004930974 -0.0094287945 -0.025416803 -0.035006493 -0.013138876 -0.0073937033 -0.0010460885
0.0014452275 -0.0047269505 0.0035283158 0.010749925 0.0007550621 -0.0015317168 -0.002541099 0.002495158
0.00017615175 0.002802312 0.0021644589 -0.0038802978 -0.024834651 -0.030376641 -0.022032224 -0.021262739
-0.013640979 -0.022963228 -0.009960747 -0.013366029 -0.03437957 0.003116977 0.0012566578 -0.0038711522
0.015632886 0.003372065 0.0026490698 0.0005787457 -0.00093276706 -0.0018465255 0.0055217883 -0.005978113
-0.0008648773 -0.0023701198 0.004098061 0.004788815 0.0041254545 0.0025218478 0.008069428 -1.6755489e-06
5.799661e-07 -1.2629731e-06 1.4119968e-06 -2.2294586e-07 -9.4586807e-07 4.3031906e-07 1.0696194e-06 7.066336e-07
0.0021877047 -0.004091504 0.0050703133 -0.005636324 0.0065207053 0.004389725 0.008932601 0.0059051593
0.005556472 -0.018485377 -0.019853674 -0.012831117 -0.010550183 -0.0040877964 -0.0069389455 -0.0029815142
-0.00537215 -0.014957644 -0.012940461 -0.007949565 -0.0040618726 -0.004058193 -0.0017741371 -0.004732758
0.0053031114 -0.006317877 0.0020681666 -0.007095054 -0.01576807 -0.02321398 -0.012004985 -0.014913149
-0.008304488 -0.011013393 -0.0050758487 -0.0034636245 0.010099373 0.0016809094 -0.0046082716 0.0010993785
0.00053210754 0.0066493396 0.0003064744 0.007273803 0.0055447053 -0.0031614895 -0.004295553 -0.005188411
-0.0039099185 -0.004671182 -0.0010679469 -0.0038414332 0.00027509104 0.0017828785 0.011389304 0.011030894
0.02024494 0.008554909 -0.0035188203 -0.003890642 0.004081205 -0.0030915823 0.0004092392 0.0032259799
0.0047928016 -0.0007004272 -0.00036190762 0.0006408612 0.0017749362 -0.00042519358 -0.001537923 0.0012297193
-0.022612924 -0.021363458 -0.015647095 -0.0041030697 -0.003991961 -0.027744688 0.0034085 -0.021442788
-0.03345769 -0.00550684 0.009663845 0.0145181315 0.00252742 0.0051121656 -0.0032624109 -0.0038461552
-0.0024349936 0.0021840658 0.0016008709 -0.0017378693 0.0046752803 -0.0032840278 0.0082080485 0.006490434
0.0036536404 0.008333034 -0.0041504777 8.069136e-07 -2.828253e-06 -2.4474411e-07 2.3667877e-07 -1.0242561e-06
1.7942064e-06 1.5551984e-07 2.3080015e-06 2.4891806e-06 -0.0048456173 -0.008137161 -0.00014529238 0.013963069
0.01424906 0.0078649605 0.00053820875 -0.0037194053 0.0056206356 0.009172366 0.0052873245 -0.0037365397
0.005467399 -0.00032023527 -0.0043896968 -0.004999666 -0.002175602 0.0038542158 -0.010917276 -0.019360516
-0.02701792 -0.009780388 -0.009104632 -0.00010555331 -0.0033597255 0.0015426998 -0.0010908144 -0.0041968054
-0.002271041 -0.003915936 -0.0033546952 -0.0037281308 0.0045112623 -0.0031385655 0.00497065 0.009367898
-0.004448468 -0.0076214923 -0.012855021 -0.0084509645 -0.008921357 -0.0039605615 -0.005097092 -0.0044353926
0.0017989671 0.006913888 0.015298065 0.016781429 0.017567892 0.014544181 -0.0026922454 0.007062879
-9.450212e-05 0.00265428 0.0019313464 -0.0023495255 -0.0026417135 -0.0001116823 0.0024990544 -0.00044538948
0.0015675563 0.0017079826 -0.000107541724 -0.011576683 -0.0141718965 -0.014037957 -0.002466632 0.010067966
0.013126639 0.006808136 0.009315157 -0.0023076616 -0.0005274392 -0.0033336137 -0.00056570536 -0.0017427747

conv3.0.bias f4 [64]
00000000: 46b8 32bd cec1 9abc c745 82bc 2f91 bcbd
00000010: c7a7 20bd a334 11bd 1579 b7bc 4ddd 3fbd
00000020: 746b 3fbc 781f 89bb 3afa d5bd 9742 35bd
00000030: 16f2 8cbd 92c7 b1bb 4e0b 04bb 6b8f 30bd
00000040: c978 3039 b2ef a3bc adc2 37bd c4f0 31bd
00000050: 1b72 1fbd e8df aebc ce85 3dbd 8be5 0f3d
00000060: 3b29 7dbc 1ca9 abbc e5d9 debc ff28 5dbc
00000070: adb7 b5bc 2289 1c3a 6725 2ebc a60d c3bd
00000080: eba8 e4bc d540 46bd 66e1 a6ba 8e6b 6ebc
00000090: a083 ffbb 3ccc 58bd a449 1dbc c596 0dbd
000000a0: 63e6 47bb 96cc 2cbd 811e 4cbd 9fca 3eba
000000b0: e1b4 9ebc b669 1cbd 1ada b9bb 455e 66bc
000000c0: d4eb 2dbc 4f8e 30bc c6a0 2dbc 7560 a5bc
000000d0: 7d1a dbbb f798 0fbb 04d7 b9bc 37d9 1fbc
000000e0: f9be 6cbd 6794 f8bc 354e a9bd d374 41bd
000000f0: 55d9 2fbb 956e 4cbd fe81 803b 9b4b 2fbc
-0.043632768 -0.018891241 -0.015902413 -0.09207379 -0.039222505 -0.03545059 -0.022396604 -0.04684191
-0.011683334 -0.0041846596 -0.104481176 -0.04425296 -0.06882112 -0.005425402 -0.002014834 -0.043105524
0.00016829664 -0.020011757 -0.04486339 -0.043442503 -0.03892718 -0.021347001 -0.046270184 0.03513102
-0.015451725 -0.020954661 -0.02720351 -0.013498544 -0.02218231 0.0005971362 -0.010629035 -0.095240876
-0.027912578 -0.048401672 -0.0012731969 -0.01455201 -0.0077976733 -0.052929148 -0.009600077 -0.034567613
-0.0030502311 -0.042187296 -0.04983378 -0.00072781177 -0.01937336 -0.03818675 -0.0056717517 -0.014060562
-0.010615308 -0.0107761165 -0.010597413 -0.020187596 -0.0066865073 -0.0021911243 -0.022685535 -0.009756378
-0.057799313 -0.030344201 -0.0826687 -0.047230553 -0.002683242 -0.049910147 0.0039217463 -0.010699178

conv3.0.weight f4 [64, 64, 3, 3]
00000000: f929 0835 b031 8b36 8322 45b6 5fa4 4136
00000010: 913e 3c36 a7e8 3b36 fd05 80b5 2ac1 f7b5
00000020: 78e7 07b5 e2d7 38b6 e69b 06b6 c7a5 9cb5
00000030: d76b 0235 1799 5ab6 f815 aa35 c738 20b6
00000040: 5a97 f1b5 766c 9b36 d47f 85b5 7e87 a535
00000050: f628 9eb5 182d 2436 9795 2f36 f30c dbb5
00000060: 0c0e de35 444c fbb5 ae6f d0b4 b50e c137
00000070: dda9 0bb9 0827 0fb6 faef 4839 7e12 20b8
00000080: 86da 21b8 1427 1db9 ce6f 21b8 a04a 2b37
00000090: 3a0a 35b6 f1eb 2435 f87c d5b6 4c47 4b36
000000a0: d19f b7b6 afcc 0636 afe1 a3b6 36be fd36
000000b0: 8d24 c6b5 74ee d134 7c35 8d35 a00a 3235
000000c0: 7f9e 5736 bbaf 06b6 d833 7d34 dbcb a8b5
000000d0: 5f2b ab35 d60e 7635 8198 7fb5 26f2 9935
000000e0: 5140 de35 c056 72b2 228d d934 a05b b932
000000f0: 3647 c235 1e5e c3b5 2c00 55b4 5fc2 e4b5
00000100: 021b ddb5 a2ec e936 c048 6032 9823 15b7
00000110: 9cdd 1636 73a1 32b7 09c2 6ab6 f430 95b6
00000120: f883 b8b5 ffd9 3236 aba7 b736 dd24 8db6
00000130: 80cf d4b1 4ac8 2cb6 e67b bcb6 2579 ceb5
00000140: 6dd5 61b7 47d3 f5b5 2375 0ab6 9649 5636
00000150: 4a16 bbb6 ac0a 3936 8908 fcb6 7ffb a1b7
00000160: 9043 4538 65f2 ddb7 1ea7 2135 9ecf 99b5
00000170: 8ae5 8636 2d4c 9bb5 15b2 20b6 cc8a ad34
00000180: 7c95 7fb6 24ff 8fb6 d014 c3b6 b702 46b6
00000190: 1c79 70b5 7bd1 2c36 3483 e0b6 1a04 8637
000001a0: affb 0e36 9284 1737 6801 e2b4 8c44 a9b5
000001b0: 4282 d3bc 050f 56bd 1420 75bd b6ce 37bc
000001c0: c03d f8bc 32d2 79bd 200a 27bc 98af debc
000001d0: d429 8dbd 85c3 2935 d735 7b35 3269 4835
000001e0: 1912 fcb6 53e6 8736 14d0 9eb6 091e 27b7
000001f0: 98fe 8e37 e3a0 17b7 4433 c3b3 88c5 ef35
00000200: 9d63 9336 56d1 21b6 bc99 2db6 3359 0f37
00000210: 45de 3f37 4547 dfb6 b481 3637 dce3 28b6
00000220: 660f 1ab6 bbe3 e4b6 fb54 01b7 1a56 9836
00000230: c8e2 a736 cf41 5337 c3e6 a337 e765 0637
00000240: 2ffc cfb5 b70e 7b36 7f15 7b36 6a0b 9e36
00000250: 0892 d336 9320 80b5 0614 4db6 567e 2237
00000260: e11d f135 ec2b 2536 6ea0 7bb5 242c 0136
00000270: be79 9eb4 f0f1 03b6 be03 83b5 2084 37b4
00000280: 1184 29b5 c02f 0634 7900 03b6 f8fd 01b6
00000290: 1292 b2b4 6d96 33b6 c41e fc35 74ba 9fb6
000002a0: 09a9 db35 b848 3836 4677 2e36 58b6 5539
000002b0: 4895 8139 530b 2439 d3f2 8c39 d569 9139
000002c0: d793 5439 4f02 8939 6a21 a339 fdf0 0139
000002d0: 0e59 dfb5 bf48 85b5 2829 3fb4 f069 cd36
000002e0: c80f 24b6 cf9c 16b6 40e5 88b4 1860 bfb4
000002f0: c1c4 c2b7 ec5f a335 78f7 ce34 4526 17b6
00000300: a9fb 1a36 a22c f035 8a22 5d35 9472 b336
00000310: 8a44 a435 ca0b 9c36 57d5 13b6 3cf8 b8b5
00000320: 693f 2bb5 cab2 0d36 9641 8ab5 ba2f 6535
00000330: 723d 4835 740d 2ab4 567d ba35 280b 8133
00000340: 59fc 1436 7317 fe33 d16d 7236 22de 20b6
00000350: 84cb c736 adea 2cb6 d4d1 0c36 ba41 2e36
00000360: f26d 593a c6ff 3ebd 6508 94bd 3235 c0b8
00000370: 90fe edbc b931 4ebd 7674 a1b9 4e50 00bd
00000380: a0d8 31bd a187 8a37 8040 1e37 9c44 1136
00000390: f861 b736 64e9 28b6 e91b f136 cf07 8a36
000003a0: fae6 23b5 1cb5 04b6 0843 afb4 2cf3 8335
000003b0: c01b cdb2 c435 18b7 c5c2 0e37 8d8b 7fb5
000003c0: 8a85 e0b6 1c44 53b6 5079 03b5 d6c3 0cb5
000003d0: 9940 8735 043d 4636 444b 6eb6 ea32 39b5
000003e0: 1ca5 0b35 d888 bc33 2813 1735 3234 87b6
000003f0: e9a6 8fb5 2e29 1bb6 c5ab 1235 4acb 1935
5.0725026e-07 4.148307e-06 -2.9375376e-06 2.8854918e-06 2.8050601e-06 2.8000593e-06 -9.538486e-07 -1.8459152e-06
-5.062825e-07 -2.7543797e-06 -2.00583e-06 -1.1671153e-06 4.85857e-07 -3.2573641e-06 1.2672381e-06 -2.3874907e-06
-1.7999948e-06 4.6319865e-06 -9.946475e-07 1.2332891e-06 -1.1783839e-06 2.4464152e-06 2.6164105e-06 -1.632054e-06
1.6544377e-06 -1.8723154e-06 -3.8824277e-07 2.3014241e-05 -0.00013319352 -2.133138e-06 0.00019162885 -3.8164195e-05
-3.8588907e-05 -0.00014987245 -3.8489517e-05 1.0209769e-05 -2.6977054e-06 6.14381e-07 -6.362443e-06 3.0290857e-06
-5.47243e-06 2.0086698e-06 -4.8840516e-06 7.562131e-06 -1.4762787e-06 3.910278e-07 1.0520885e-06 6.632563e-07
3.2129753e-06 -2.0069845e-06 2.3581322e-07 -1.2576305e-06 1.2753115e-06 9.166373e-07 -9.5216825e-07 1.1469863e-06
1.6559007e-06 -1.4105979e-08 4.0522087e-07 2.15785e-08 1.4474851e-06 -1.4556024e-06 -1.9837233e-07 -1.7043893e-06
-1.6473643e-06 6.971489e-06 1.30550575e-08 -8.889379e-06 2.2480735e-06 -1.0647217e-05 -3.498166e-06 -4.446245e-06
-1.3747476e-06 2.6650957e-06 5.473344e-06 -4.206419e-06 -6.193602e-09 -2.574658e-06 -5.6172603e-06 -1.5383454e-06
-1.3460737e-05 -1.8315412e-06 -2.0631785e-06 3.1931318e-06 -5.575629e-06 2.757336e-06 -7.511179e-06 -1.9309808e-05
4.7031383e-05 -2.6458127e-05 6.022036e-07 -1.1459813e-06 4.020233e-06 -1.157057e-06 -2.3945515e-06 3.232475e-07
-3.8084972e-06 -4.2914344e-06 -5.8138758e-06 -2.950588e-06 -8.9583204e-07 2.575193e-06 -6.6909943e-06 1.5975955e-05
2.1306148e-06 9.031168e-06 -4.2096804e-07 -1.2611431e-06 -0.025818948 -0.052260417 -0.059845045 -0.011218717
-0.030302882 -0.060991473 -0.010195285 -0.027183339 -0.06892744 6.3241924e-07 9.3583134e-07 7.4658885e-07
-7.512292e-06 4.050127e-06 -4.7329904e-06 -9.960969e-06 1.7046274e-05 -9.037761e-06 -9.08972e-08 1.7864377e-06
4.392538e-06 -2.411272e-06 -2.5868494e-06 8.5442325e-06 1.1436238e-05 -6.6542148e-06 1.0878244e-05 -2.5166582e-06
-2.2956751e-06 -6.821441e-06 -7.708785e-06 4.5399765e-06 5.0033887e-06 1.2591902e-05 1.9538571e-05 8.010748e-06
-1.5496097e-06 3.741048e-06 3.7414427e-06 4.7100957e-06 6.3052903e-06 -9.546224e-07 -3.0559036e-06 9.685367e-06
1.7964595e-06 2.4612482e-06 -9.373824e-07 1.9248191e-06 -2.9518372e-07 -1.9661347e-06 -9.76135e-07 -1.709127e-07
-6.314959e-07 1.2497094e-07 -1.9520796e-06 -1.9370327e-06 -3.3261364e-07 -2.6760638e-06 1.8784417e-06 -4.7602753e-06
1.6365967e-06 2.7460464e-06 2.5997447e-06 0.00020381191 0.0002471602 0.00015644477 0.000268838 0.00027735406
0.0002027297 0.00026132396 0.00031114678 0.00012392174 -1.6640713e-06 -9.930444e-07 -1.7803234e-07 6.121809e-06
-2.444709e-06 -2.2443016e-06 -2.5498775e-07 -3.564644e-07 -2.3218223e-05 1.2172363e-06 3.8550547e-07 -2.252303e-06
2.3094274e-06 1.7894383e-06 8.2379177e-07 5.3479544e-06 1.22389e-06 4.6505347e-06 -2.2028887e-06 -1.3781314e-06
-6.379474e-07 2.1114706e-06 -1.0300889e-06 8.53786e-07 7.459522e-07 -1.5837378e-07 1.3894557e-06 6.00906e-08
2.2200604e-06 1.1832062e-07 3.6124732e-06 -2.3971156e-06 5.9543545e-06 -2.5766597e-06 2.0983762e-06 2.5966278e-06
0.0008294276 -0.046630643 -0.07228164 -9.165182e-05 -0.029052049 -0.050340388 -0.00030795083 -0.031326585
-0.04341948 1.6514039e-05 9.432551e-06 2.164662e-06 5.46523e-06 -2.5169802e-06 7.185609e-06 4.1136295e-06
-6.1058347e-07 -1.9774952e-06 -3.2645062e-07 9.831033e-07 -2.387776e-08 -9.072424e-06 8.509208e-06 -9.5197976e-07
-6.691266e-06 -3.1481095e-06 -4.8977836e-07 -5.2439043e-07 1.0077084e-06 2.9539815e-06 -3.5508574e-06 -6.899196e-07
5.20218e-07 8.779324e-08 5.627976e-07 -4.02939e-06 -1.0702908e-06 -2.312077e-06 5.4639196e-07 5.7292766e-07

dense.0.bias f4 [128]
00000000: d6e6 85ba 297e c2bb af28 7e3d 0007 e4bc
00000010: d4cb e537 c4e7 5fbd ab40 333d 2d8e 47b9
00000020: 57b8 3bba 437c 36bd cc0b ddba d69d 173d
00000030: 9753 633c 2e06 4abc 4281 10bb 57e6 85b9
00000040: 945f 083d d1b5 a03a 0c6e 87bc 1916 4cbc
00000050: 2814 e7ba 41fe a2b8 47b6 88bb ccae abb9
00000060: a5f3 00bb 5a85 78bb 7dd8 ba3d a899 b33d
00000070: 4448 483c 1a14 d23b cec5 95bd b483 e2ba
00000080: 8f1e e9bc aad1 97bc a592 edbb 8400 e4bb
00000090: 54a4 0abc 71c9 ad3c 40fb 9eb6 4738 13bc
000000a0: 12ff 833c 3640 21bb e901 33bb 4265 a139
000000b0: 9382 293d afd3 153a 1d19 503a 526e 973d
000000c0: 3ede aa3d 555d 91b9 967d 8a38 bdc0 53bc
000000d0: 9d56 25bc 5e5a 523d 23cf 96bd 907f 05bb
000000e0: e322 69bd 1b52 a7bb 72d9 723d c9d4 f6b8
000000f0: 8a0b 26ba 22fe cabc 4f83 ddbc dc96 c53c
00000100: 0bd7 0dbd 097c 803c 7e08 65bc 914f d7bc
00000110: 5477 69ba 969c 2339 b65b 883d ea9e 24bc
00000120: e200 93b8 af4e 46bb 0e50 52bc f2ba ebb8
00000130: 10fb 90bc f74f 1bbc 407c 72bc 07a6 abb8
00000140: 84d1 bdb8 aaf3 18bc a84b 1a3d 3f7a 0f3d
00000150: 9a34 78ba 3047 e83c bbab 12bc f585 d3bc
00000160: 07dd b1ba 63b9 42bb d966 7abc 2678 a93d
00000170: bd54 0e3e e1fc 10bd c974 18bc fa61 0abc
00000180: 2259 9f3d a2e9 51bd 974e af37 faa6 9c3d
00000190: 5b0c 6eba 66b4 04bc 6911 45bc a7e6 e43a
000001a0: 3dfc 8dbc adf2 223b 1ccb 1abb 0071 5ebd
000001b0: c946 6e3d 8c30 b1bb 35e9 bb3c 1feb 37bc
000001c0: 4488 b8bc 3270 d93c 69c6 4dba b3c4 b63d
000001d0: f91b 45bc 7d09 8bbd f608 8dba 5d11 06bc
000001e0: b0be b43c b349 45bb ce03 38bd 5a17 75bd
000001f0: 1f91 d8b9 05d0 3738 3ad9 863c a873 41bc
-0.0010215889 -0.0059354496 0.062050518 -0.02783537 2.7393842e-05 -0.05466439 0.043762844 -0.00019031084
-0.00071609527 -0.0445521 -0.0016864478 0.03701576 0.01387491 -0.012330575 -0.00220497 -0.00025539353
0.033294275 0.0012261217 -0.016531967 -0.01245644 -0.0017629908 -7.7721204e-05 -0.00417212 -0.00032745895
-0.0019676473 -0.003792128 0.09123323 0.08769542 0.012224261 0.0064110877 -0.07313119 -0.0017281682
-0.028456954 -0.018532593 -0.0072501474 -0.0069580693 -0.00846203 0.021214219 -4.7380163e-06 -0.0089855855
0.016112838 -0.0024604923 -0.002731437 0.00030783756 0.04138429 0.0005715442 0.00079383125 0.07394089
0.083431706 -0.00027726093 6.603745e-05 -0.01292437 -0.010091451 0.051355712 -0.07363727 -0.0020370223
-0.056918036 -0.0051062233 0.059289403 -0.000117698284 -0.0006334117 -0.024779383 -0.027040152 0.024119787
-0.03462891 0.015684145 -0.0139790755 -0.026283057 -0.0008906026 0.00015603224 0.066581175 -0.010047654
-7.009671e-05 -0.0030259301 -0.012836469 -0.000112404945 -0.01769784 -0.009479514 -0.014800131 -8.1848404e-05
-9.0512476e-05 -0.009335438 0.037669808 0.035028692 -0.00094682875 0.028354257 -0.008952077 -0.025820712
-0.00135699 -0.002971255 -0.01528331 0.082748696 0.13899513 -0.035397414 -0.0093051875 -0.008446211
0.077806726 -0.0512482 2.0898222e-05 0.07649036 -0.00090808206 -0.008099651 -0.012028077 0.0017463759
-0.01733219 0.0024863884 -0.0023619598 -0.054306984 0.058172975 -0.0054073986 0.02293835 -0.011225491
-0.022525914 0.026542757 -0.0007849695 0.08924236 -0.012030595 -0.06788919 -0.0010760117 -0.008182851
0.022063583 -0.0030103743 -0.044925503 -0.059836723 -0.00041306854 4.3824333e-05 0.016461004 -0.01180736

dense.0.weight f4 [128, 576]
00000000: 51fb f335 14a7 50b6 b88b d9b4 0b5c 8ab5
00000010: 7c28 b935 0bae 4ab5 a6f7 1c36 f4b7 39b6
00000020: 0e07 11b6 5aa9 8035 579c c2b5 cc7b e0b5
00000030: 82ed efb5 2e88 0eb5 3c4e b835 0139 6fb5
00000040: 4029 1e34 9087 1636 fc22 7835 02aa 0c35
00000050: b469 9c33 9c1f 3b34 2c1f 0db6 200b fa35
00000060: e091 a9b3 9a2e 1a35 7a02 b834 0677 aeb5
00000070: 50b7 2733 db5b 1836 247c c5b5 c420 f4b5
00000080: fa0b 25b5 d4cc 4936 caef d5b5 e872 5fb5
00000090: f2bd c2b5 180a 26b4 c2d6 b934 9ebb 83b5
000000a0: 420d 57b6 f2c8 73b5 f591 c3b5 34df 9835
000000b0: 88cf 3bb6 ddbb b6b5 00b4 6036 3908 6735
000000c0: 94b8 3b36 b2fe 82b5 c808 edb5 b00b f3b5
000000d0: 575a 5ab5 2119 b435 510d 3e35 be42 2f35
000000e0: f3d1 0835 52ee c8b4 e989 8435 ee87 8db5
000000f0: 6eaa a735 86ff b334 dd73 7eb5 db58 01b6
00000100: ec5d ee35 9c97 d235 8213 1736 1853 8533
00000110: 21d5 c035 c576 39b6 802d 2c32 6f8a 1736
00000120: 5881 8a34 88b9 b8b4 530e c2b5 1b30 16b4
00000130: a091 7433 bd17 3735 2f25 36b5 fc27 b533
00000140: 1766 d334 d1df 72b5 8010 2db5 6ad0 5335
00000150: f254 e134 7cfc 53b5 709f 40b3 8e3c 05b5
00000160: 02db 0b36 d547 9cb5 3899 60b4 12a8 1135
00000170: fa12 1f35 dc7f ed34 ffe4 e5b4 5413 f5b4
00000180: 643e d534 d6ff 36b6 2ecb 1536 8844 c535
00000190: bc3d 9335 7869 9fb3 7ab8 eb35 3fd2 5935
000001a0: 3b79 1bb5 0124 26b5 7254 7935 aed1 0436
000001b0: 8889 5735 5c1f a4b5 1c24 e235 283b 7438
000001c0: 7ccd 4cbb 4655 d7b7 d491 a436 58d9 fdba
000001d0: f30d a33b 7a25 7835 3cf3 34b5 7721 e335
000001e0: 6b77 8634 8128 96b5 0c4c e135 e07c 9733
000001f0: 029a d0b5 4287 6035 67d9 e534 9e6a d9b5
00000200: 6928 b8b4 1fb4 8935 5c2a f2b3 9828 43b5
00000210: e095 0c35 e059 8432 dc9e b734 3795 eb35
00000220: 613f 8935 8bd1 77b5 4ade f6b4 5baf c1b5
00000230: 58ef 43b4 ebab 8d35 1d50 8fb4 a176 bfb5
00000240: d0fd 4ab4 4cfd 4334 48ea 0c34 c2b6 f434
00000250: ae51 3835 1ccb e034 447a d235 60de a6b5
00000260: 80d0 1a31 f77e 57b5 f097 8fb5 7d9f e935
00000270: 0d7e acb5 4429 8334 c31f 1836 f604 bbb5
00000280: 1687 0736 8b39 dab5 d2b1 fcb4 e82a 9dba
00000290: 9afe 063b e71c d537 6104 06b6 1454 61b8
000002a0: 8bb1 8036 8099 e2b9 e6a5 1dbb 4938 ed34
000002b0: aceb 4e35 86fe 3d35 f0f9 2734 5848 8f34
000002c0: f14d af35 4486 a2b5 782b 04b5 fb27 84b5
000002d0: 6043 1d32 46f2 0f35 eeeb 9934 38cc c1b4
000002e0: 58ec 1835 10b2 12b5 425d ae35 9481 92b5
000002f0: 4e20 fa36 7ef6 07b7 86ac 55b5 4b72 7ab6
00000300: 4729 5837 0a5e 53b7 8789 84b6 163c f936
00000310: 54f8 6837 1e7c b436 48f5 aa35 e3d9 03b6
00000320: d4bc b5b4 bbec 2036 683d 0336 8db8 0736
00000330: 5829 7535 ec8a 0f36 08bc 4f36 5ce4 bd39
00000340: 729d 08b9 1b1d 84bb ea4a cdbb e3e6 e23b
00000350: ee8a ea3b 0dbd a5b9 7b57 e0b9 5790 32bb
00000360: 06c5 5d35 10df 4535 784c 7936 9cb3 02b6
00000370: 4c9c 85b4 b368 06b6 02a4 88b5 22b7 bd34
00000380: fdcc 2636 a2c4 0835 9e28 6935 3501 dfb5
00000390: b9ee a4b5 a421 d0b4 5eb0 2cb5 7f56 34b5
000003a0: 0e4f 5336 c709 beb5 0412 f9b5 45f4 32b5
000003b0: 270c ef35 26cb 8fb5 640f 1535 095e 1f36
000003c0: 05dd 01b5 a825 3fb4 dd73 1bb5 0862 d534
000003d0: 00ea adb5 5c0d 6cb5 f7a6 4836 19cd a835
000003e0: a918 2cb5 90d9 6d34 2daa 6bb5 7182 28b6
000003f0: d6f1 3aba cbea d03a 68f5 e93b 0c40 dd3b
1.8178054e-06 -3.1091668e-06 -4.0521059e-07 -1.0308589e-06 1.3795357e-06 -7.550413e-07 2.3389962e-06 -2.7674223e-06
-2.161079e-06 9.586031e-07 -1.4499627e-06 -1.672533e-06 -1.7876011e-06 -5.309729e-07 1.3731837e-06 -8.911739e-07
1.4729903e-07 2.243065e-06 9.243811e-07 5.240146e-07 7.2835434e-08 1.7427232e-07 -2.1028782e-06 1.8629689e-06
-7.89621e-08 5.7437285e-07 3.4274473e-07 -1.2998651e-06 3.904944e-08 2.2703232e-06 -1.4713773e-06 -1.8188953e-06
-6.148472e-07 3.007056e-06 -1.5939524e-06 -8.3241184e-07 -1.4509408e-06 -1.5463627e-07 3.4615192e-07 -9.814864e-07
-3.2045214e-06 -9.081697e-07 -1.4571111e-06 1.1389843e-06 -2.798597e-06 -1.3614732e-06 3.3483375e-06 8.606617e-07
2.797261e-06 -9.759881e-07 -1.7660432e-06 -1.8108312e-06 -8.134279e-07 1.3418359e-06 7.0799894e-07 6.5289703e-07
5.0969464e-07 -3.7426304e-07 9.874904e-07 -1.0544879e-06 1.2492071e-06 3.3527266e-07 -9.4790977e-07 -1.9274219e-06
1.7759717e-06 1.5690343e-06 2.2512108e-06 6.20841e-08 1.4367143e-06 -2.7636281e-06 1.0022063e-08 2.2581332e-06
2.5798613e-07 -3.4407662e-07 -1.4458295e-06 -1.3987339e-07 5.6943122e-08 6.8207356e-07 -6.785439e-07 8.4357424e-08
3.9376093e-07 -9.047772e-07 -6.447153e-07 7.890691e-07 4.1971322e-07 -7.897104e-07 -4.484849e-08 -4.963448e-07
2.0840093e-06 -1.1643812e-06 -2.0917366e-07 5.4261284e-07 5.925973e-07 4.423772e-07 -4.282119e-07 -4.564887e-07
3.9719737e-07 -2.726903e-06 2.2320996e-06 1.4697589e-06 1.097032e-06 -7.423199e-08 1.7562554e-06 8.114475e-07
-5.7918413e-07 -6.189221e-07 9.288261e-07 1.9791582e-06 8.0293876e-07 -1.2228079e-06 1.6848821e-06 5.8229227e-05
-0.0031250408 -2.5669706e-05 4.9045575e-06 -0.0019367142 0.004976028 9.2441735e-07 -6.740918e-07 1.6922558e-06
2.5046333e-07 -1.1187659e-06 1.6785939e-06 7.0542e-08 -1.554203e-06 8.364333e-07 4.2812755e-07 -1.619879e-06
-3.4302073e-07 1.0259718e-06 -1.1276708e-07 -7.270223e-07 5.237216e-07 1.5407693e-08 3.4201992e-07 1.7552292e-06
1.0225741e-06 -9.2319596e-07 -4.5982807e-07 -1.4430656e-06 -1.8247863e-07 1.0555353e-06 -2.6694116e-07 -1.4265134e-06
-1.8905052e-07 1.8252939e-07 1.3123747e-07 4.5581515e-07 6.86642e-07 4.1871033e-07 1.5681803e-06 -1.2432683e-06
2.2528468e-09 -8.02785e-07 -1.069855e-06 1.740627e-06 -1.2851684e-06 2.4430676e-07 2.2668253e-06 -1.393403e-06
2.0195198e-06 -1.6259013e-06 -4.706804e-07 -0.0011990936 0.0020598532 2.5405037e-05 -1.9970105e-06 -5.3722484e-05
3.835366e-06 -0.00043220446 -0.0024055182 4.4185643e-07 7.708393e-07 7.0778367e-07 1.5644014e-07 2.6688463e-07
1.30612e-06 -1.2109017e-06 -4.923709e-07 -9.846402e-07 9.153922e-09 5.3624206e-07 2.8670132e-07 -3.609764e-07
5.696834e-07 -5.4648353e-07 1.2991152e-06 -1.091556e-06 7.4543414e-06 -8.104018e-06 -7.959974e-07 -3.731943e-06
1.2884214e-05 -1.2598475e-05 -3.949917e-06 7.427773e-06 1.3886096e-05 5.378867e-06 1.2737373e-06 -1.9647348e-06
-3.3851268e-07 2.3979653e-06 1.9556264e-06 2.022399e-06 9.1329775e-07 2.1389524e-06 3.0954852e-06 0.0003621903
-0.00013028624 -0.00403179 -0.006265034 0.0069244965 0.007157675 -0.00031612106 -0.00042789787 -0.0027246678
8.261562e-07 7.371282e-07 3.7148402e-06 -1.9476056e-06 -2.4886901e-07 -2.00285e-06 -1.0180522e-06 3.533724e-07
2.4855246e-06 5.0950086e-07 8.685837e-07 -1.6615146e-06 -1.228843e-06 -3.8767496e-07 -6.433164e-07 -6.7181094e-07
3.1487466e-06 -1.4158949e-06 -1.8557189e-06 -6.6665626e-07 1.7810424e-06 -1.0713454e-06 5.552922e-07 2.3747582e-06
-4.837787e-07 -1.780196e-07 -5.7910603e-07 3.974567e-07 -1.2957607e-06 -8.793629e-07 2.9899509e-06 1.2576667e-06
-6.411088e-07 2.2151494e-07 -8.779196e-07 -2.5109878e-06 -0.0007131373 0.0015939114 0.0071398504 0.0067520197

dense.2.bias f4 [10]
00000000: 2bb4 10be 1fa4 863a f8b0 923d b739 373e
00000010: a6b3 06be 0b5a fc3d a783 afbd 664c 2fbd
00000020: 5b44 6c3d 3bf7 b8bc
-0.14131229 0.00102723 0.0716266 0.1789311 -0.13154468 0.12321862 -0.085700326 -0.04279747
0.057682376 -0.022578826

dense.2.weight f4 [10, 128]
00000000: ba42 c2b9 3e0c 333e be04 13bd cbd6 b23d
00000010: 9ea6 94b8 eb87 d93d c6f2 713d 6f1b b03c
00000020: 4050 4c3d a07c d33d 2bd8 ad3c 1471 d63c
00000030: ce7c 823d 273d 01bd 0803 503d b42b 71bd
00000040: 233d 92be de9d 2c3d cecd 843d d417 cd3d
00000050: b6c8 e8bb f358 ba3b b087 f43c ca40 993a
00000060: f466 dc36 44fb 21be 0964 44be 69c8 913d
00000070: 3bba 423d 4a42 d2bc c462 1c3e be25 1938
00000080: 50a5 3c3e 5bfc 1f3e 0225 923c e247 b5bd
00000090: 48fb 423c 73c8 a8bd 5d6a 8ebc da46 273d
000000a0: be40 083e 59ce 4e3a 6885 a8bc ab16 77bd
000000b0: 3268 c13d 5488 433d 9f80 25ba d5c2 c1bc
000000c0: e5fe 09be 0528 793b 4b87 b0bc 3e34 bb3d
000000d0: 89fe fabd 633f 323c 67b9 a03e ab4e edbc
000000e0: f779 d53d 1e7b 9bbb 711b 1ebe 00ab 0e3d
000000f0: 3a3c 94b6 c0d8 633d 26d1 3ebc 42b8 053d
00000100: 8026 34bd 1d56 75bd d418 49bc ee54 00be
00000110: 4073 6db9 3454 e4bb 5832 8bbd 9112 143d
00000120: 9b18 aa3c 13fb 27b7 751d 373b a5ae 913b
00000130: 7cb0 a8bb 58c8 033d 7c70 a43c 101c 083d
00000140: 40a3 383d 9380 043e 2135 dfbd 52fd 0cbc
00000150: 7199 bfbb aa48 c43c e57d 953c 58fe 143a
00000160: e727 a1bd 866a 053d 8735 163a ecf6 b83d
00000170: 4eed f5bd 08e6 1bbe 7ab5 46bd 4ea9 ef3c
00000180: 08ac 22be e11e 283d b9ec b137 35dc c4bc
00000190: 5bee 26b7 46b9 aabd e659 753d 0c94 943d
000001a0: e341 8b3d f6d2 0b3d 8603 c33d bf49 58bd
000001b0: 7f92 34be 2aef 0a3e 3347 6fbd 8e76 393c
000001c0: 9602 103d f7be 4dbe 13f8 04bd 4d03 08be
000001d0: 9aa8 633d 9a25 473d 17c3 003d 7d5b 1a3d
000001e0: fd11 05be 1d09 c0b6 c227 063e 844b 2cbd
000001f0: 2ad1 8abd 192b 0838 34d3 7f3d 6881 b13b
00000200: 5173 eb39 6b0f 0c3e f166 3e3d f5c2 28b6
00000210: 0411 5038 6a08 54be 83ba 0cbd e889 ea3c
00000220: 1272 f1bc e971 9f3d 993d 643d 7627 a0bd
00000230: b099 92bc 7720 2dba d4e5 74bc ac25 993d
00000240: 154a 0b3e 7a69 43bb be09 06bb 5484 af3c
00000250: ecd3 e33c 48c3 aab8 8239 06bc 2de5 883c
00000260: 42f8 4b36 239e d5bc 08bd 0abe 6f8c d4bd
00000270: 0130 ca3d 5225 bdbd 579c 583d a9d0 79b5
00000280: a30b 54bd 181a 78bd 6d13 8d3d f8f5 013e
00000290: 550e fc38 30b2 af3d a10e 433c c4c9 62bb
000002a0: 26d5 23be 8839 253c 1b47 ce3c 87cc 4dbd
000002b0: 4292 9b3c 032c a8bc 966b b0ba cce7 533d
000002c0: 6356 0f3e 8e97 7d3c 4a84 8f3d adcf 3f3e
000002d0: e4a1 0b3e 1034 f7bd 862a 9b3d 52d6 283e
000002e0: 2e06 88bd 8255 163d 48d0 ea3d 1ca1 e43c
000002f0: f179 03b6 f5c8 e1bd 898b d93c 74c3 e9bd
00000300: 83d3 843c d0bb 99bd 309f 233e 665d 1b3e
00000310: 5a91 52b9 3650 2a3d 5f9e ce3d 8082 a83b
00000320: 9863 283b 6898 c7b8 4ec5 2dbc 76ef c43b
00000330: eed7 293c e905 d2bc d3f0 edba 6133 9fba
00000340: 8943 6d3d da7f 733c 4500 ddbd f122 f63d
00000350: 1977 2ebd b33f 11be 91cb 193d 3998 c83b
00000360: 445f 7b3b 5b8c cf39 d3a6 b43d 07a0 66be
00000370: 1c5f b4bc c0da 903d c803 d23d 4ce5 b2bb
00000380: 223d 043e a56a 9d3d ecb1 9f34 43e0 87bd
00000390: 78de 46b8 0c67 0bbb 2997 e1bb d9f8 0fbc
000003a0: 8397 483d 779c 043c 9c83 c4bd 7c2e f93d
000003b0: fa90 133d a2cc ebbd 2a9a 063d 5047 773d
000003c0: 183c 8738 e3f2 b83d 40b0 ae3d 89bf 6d3d
000003d0: 9b6f 863b fddb 87bd 7a56 9a3c a0dd 35bb
000003e0: 0640 253e c482 28ba 6c3a ebbd 31f3 813d
000003f0: ff04 8ebd 93fa a2b6 b6a8 ae3d 991a 133b
-0.0003705228 0.17485139 -0.035893194 0.08732375 -7.088225e-05 0.106216274 0.059069417 0.021497456
0.04988122 0.10326505 0.021221241 0.026176967 0.06371461 -0.03155246 0.05078414 -0.05887957
-0.2856227 0.04214274 0.06484567 0.100143105 -0.0071040047 0.005686873 0.029849857 0.0011692282
6.5684962e-06 -0.15818506 -0.19178785 0.07118303 0.047540884 -0.025666375 0.15272051 3.6513193e-05
0.18422437 0.1562361 0.017839912 -0.08851601 0.01190073 -0.08241358 -0.017384702 0.040839054
0.13305947 0.00078890246 -0.020571426 -0.060324352 0.09443702 0.047737435 -0.00063134165 -0.023652473
-0.13476141 0.0038018238 -0.021548888 0.09140824 -0.1225558 0.01087937 0.3139145 -0.028968176
0.104236536 -0.0047449013 -0.15440156 0.034831047 -4.417755e-06 0.05562663 -0.011646545 0.032646425
-0.04398203 -0.059896577 -0.012273986 -0.12532398 -0.00022645015 -0.0069680456 -0.06796712 0.03615052
0.020763686 -1.0012433e-05 0.0027941142 0.004445868 -0.0051479917 0.032173485 0.020073168 0.033229887
0.045077562 0.12939672 -0.108988054 -0.008605318 -0.005847149 0.02396043 0.018248508 0.0005683652
-0.07868939 0.03257229 0.0005730022 0.090314716 -0.12008153 -0.15224469 -0.048512913 0.029255535
-0.15885937 0.041045073 2.1210277e-05 -0.024030784 -9.9498675e-06 -0.08336119 0.059900187 0.072548
0.06799676 0.034136735 0.095221564 -0.052804705 -0.17634009 0.13567796 -0.05841751 0.01131977
0.035158716 -0.20092379 -0.032463145 -0.13282509 0.055580713 0.048619844 0.031436052 0.037684906
-0.12995143 -5.723107e-06 0.13101104 -0.042064205 -0.06778176 3.2465065e-05 0.06245728 0.0054170378
0.0004490861 0.13677756 0.04648489 -2.514743e-06 4.960691e-05 -0.20706335 -0.03435756 0.028630212
-0.029473338 0.077853985 0.055722807 -0.078200266 -0.01789555 -0.0006604264 -0.014947373 0.074778885
0.13602479 -0.0029817508 -0.0020452584 0.021425404 0.027811013 -8.142606e-05 -0.008192422 0.016710842
3.0393862e-06 -0.026076382 -0.13548672 -0.10378348 0.09872437 -0.09235634 0.052883472 -9.306337e-07
-0.05176891 -0.06057176 0.06888471 0.12691486 0.00012018966 0.085789084 0.011905343 -0.0034605125
-0.15999278 0.010084517 0.02518039 -0.05024388 0.01899064 -0.020528799 -0.0013459797 0.05173473
0.13997798 0.015478028 0.07007654 0.18731566 0.13635975 -0.12070477 0.0757647 0.16488007
-0.06641804 0.03670264 0.11465508 0.027908854 -1.95915e-06 -0.11024658 0.026555793 -0.11414233
0.016214138 -0.075065255 0.15978694 0.15172347 -0.00020081308 0.0415804 0.10088801 0.00514251
0.0025694128 -9.517447e-05 -0.010606123 0.0060099913 0.010366423 -0.025637584 -0.0018153436 -0.0012146049
0.057925735 0.014862025 -0.10791067 0.12018383 -0.04259405 -0.14184456 0.03754765 0.006121662
0.0038356343 0.0003958669 0.08820882 -0.22521983 -0.022018008 0.07072973 0.102546275 -0.005459463
0.12913945 0.076863565 2.9745513e-07 -0.066345714 -4.741407e-05 -0.0021271138 -0.006884475 -0.008787357
0.048972618 0.008093945 -0.09595415 0.12167069 0.036026932 -0.1151364 0.032861866 0.060370743
6.448495e-05 0.09030702 0.08529711 0.05804399 0.00410266 -0.06633756 0.018840063 -0.0027750507
0.16137704 -0.0006428177 -0.114857525 0.06345213 -0.06934547 -4.857147e-06 0.08528273 0.0022446273
