classify_pytorch/output/params_1.pth (torch, 528775 bytes, 10 tensors)

conv1.0.weight f4 [32, 3, 3, 3]
00000000: f98b 6d3d b255 a3bd 5727 333d 4685 79bd
00000010: 7367 0e3c 779c f33d 116a 0ebe 4ffb 363d
00000020: 500f 643d 018d 31be c3ee 45be bab8 2fbd
00000030: db2b 53be f1e7 713d 55fd e53c cb9f acbd
00000040: ad97 2e3d 33e9 14be eaac 9e3d a611 6fbe
00000050: b638 5abe 8d0b 903d 4ebd 81be a9d6 5fbe
00000060: b5dc c9bb 33eb 92bc 8b58 cb3d d7ca d7bd
00000070: 2fc0 053d 59c4 83be 7241 27be 92e4 3bbe
00000080: b9a7 de3d 8e41 09be f8ab cabc 112d d63d
00000090: 2f5d 47bc 494d 953d 575e c13c 5f1d 7dbc
000000a0: fe37 73be c636 c23c 8e42 65be efad 73bd
000000b0: cfb2 c8bd 86af cf3d 51cb 3c3c e998 cfbd
000000c0: 8978 dabd c088 703c 8e8e 0a3e ba5a 3a3d
000000d0: 12b0 42bc e2d6 de3d bfae b63d 2986 a3bd
000000e0: 8b73 0ebd 7259 3bbe 77dc 28be f13b 39be
000000f0: c693 2dbd b5d5 9c3d 03a7 a43b bc5f 323d
00000100: 5a3d 5e3d 1e9f 0ebe a457 b53d 29a2 afbd
00000110: fb51 33be deb1 ccbd 1870 a9bd 3c12 e4bd
00000120: a0e3 b53d 042a 2fb9 9dc3 2abe b20a c03d
00000130: 8820 793d 1f15 ce3d a6b1 36be b2d0 023c
00000140: e1c2 8ebd c363 8fbd 3301 e03c 3d8c 5b3c
00000150: 8d65 873d 8eb8 9e3d e5e3 3abd 3af7 3f3a
00000160: 4b32 943b bfb5 36bd 7e3b 97bd 4c18 18be
00000170: 622e 403d 0dec cc3c 114d 9cbd 1a17 883d
00000180: d580 3b3a 70cc bf3b 7433 0cbc 58ee 643d
00000190: 5781 26be f34f 79bd 7c2c 9abd 9f1a 3c3d
000001a0: 9e8f b8bd e1d8 8b39 8b66 873b 1648 febc
000001b0: af99 023d 54a6 82be e832 4bbd bdf3 67be
000001c0: ee7b 29bd 8972 a93c f871 af3d 452a 8ebc
000001d0: 9a18 1bbd e778 19be e9d5 37bc 63c4 a63d
000001e0: d93a e9bd 07bc c9bd 9e28 debd 471d 1cbe
000001f0: 1deb 4f3d 5400 663d 6d3c e33c b2fb b33d
00000200: 4d1a 273c d769 fd3c 7867 99bc 89d9 2f3d
00000210: e0c7 b63d 3463 023e a67f 923d e906 d0bd
00000220: 7cc1 55be d094 39be 69fb 333d 79dd 13be
00000230: e0c4 fbbd 6db9 683c 477c 563d f826 f1bd
00000240: 3ca6 033e d6d8 f43d 55d3 71be b80e d53d
00000250: eceb db3d c6ae c33b db24 f0bc 4bac bb3d
00000260: a48e 02be a3cc 623d 45b4 26be 84cc 4abe
00000270: 583c 863d d2d5 56be c3cf 973d 231d 7ebe
00000280: e9f9 873d b047 473d 9a32 363d b010 c5bd
00000290: e54d 4a3d b3e3 67bd d07b cf3d ef46 42bd
000002a0: 8c90 3b3d 8aa3 42bc 0228 553d 4ffa 943d
000002b0: 0676 043e a7bd 0c3d 9959 973d 759b 77bd
000002c0: d55e 013e 6a45 023e bab8 debd bd13 4ebe
000002d0: b3dc 47bd 3157 a33d c272 70be f22c 77be
000002e0: 703b 6abe 5751 5abe 0adb 1a3d 0c63 46be
000002f0: 0cf8 a0bd 5a6b 0d3b c0d8 d9b9 4ec2 f63c
00000300: 91d1 e0ba bbab f2bd e99f f8bd e551 8f3c
00000310: 9ead 69bc 6a3a e4bd c48c 0cbb 4085 ddba
00000320: 88d1 d5bd 5f6a 8f39 543b 80bd 6232 b1bd
00000330: beab a0bd b5c3 d93c a035 02be 940f 40bb
00000340: 17d1 deba d710 b4bc ba03 803a 3617 58bd
00000350: 486c 103d 81fd bfbd dbe1 f2bc bb47 983d
00000360: 8a16 53bc 2f58 9b3d 7905 51bd 01d4 24bd
00000370: 7368 6bbe c47a 5bbe f6aa 2ebe 7cad 8fbd
00000380: 5f11 68bd b09e d3bd 0951 65be 7094 3abe
00000390: 7263 b43c 6b13 653d 9b00 41be 8fa0 29bd
000003a0: ddef a43d b0a5 8dbd fa8d 0dbe 4530 9e3d
000003b0: daa6 bf3d 63f9 e23d 507d dd3d a726 e93c
000003c0: a4ce 8fbd a0d9 dbbd 4565 b1bd 3841 1dbe
000003d0: 3cf8 fd3c 00f0 833d 8e98 a4bd 363a a2bd
000003e0: c2be 7a3d e0ac 32be a94f 5cbe bfc7 c23d
000003f0: 8575 2dbe ea0b 2dbe 0523 11be 56b4 653d
0.057994816 -0.079753295 0.04373869 -0.060918115 0.008691656 0.11895078 -0.13907649 0.04467326
0.055678666 -0.17338945 -0.19329362 -0.04290078 -0.20622198 0.059059087 0.0280749 -0.084289156
0.042625118 -0.14542083 0.077478245 -0.23346576 -0.21310696 0.07033453 -0.2533974 -0.2185923
-0.0061603435 -0.017934417 0.099289976 -0.105367355 0.032653984 -0.2573574 -0.16333559 -0.18348911
0.10871834 -0.13403913 -0.024740204 0.104578145 -0.012168213 0.072901316 0.023604555 -0.015448897
-0.23751828 0.023707759 -0.2238867 -0.059492048 -0.0979973 0.101409 0.011523084 -0.10136587
-0.106675215 0.014681041 0.13530943 0.04549668 -0.011882799 0.108808294 0.08920049 -0.079845734
-0.03477816 -0.1829584 -0.1649035 -0.18089272 -0.042377256 0.07657949 0.005024792 0.04354833
0.05425773 -0.13927886 0.08854607 -0.085758515 -0.17511742 -0.09994863 -0.08273333 -0.111362904
0.08881307 -0.00016704953 -0.16676183 0.0937704 0.06082204 0.10062622 -0.17841205 0.007984327
-0.06970764 -0.0700145 0.027344322 0.013400135 0.06611166 0.07750045 -0.045627493 0.00073229114
0.004522597 -0.04460692 -0.07384394 -0.14853019 0.046919234 0.025014902 -0.07631887 0.06645031
0.00071526814 0.0058532283 -0.008557189 0.055891365 -0.16260277 -0.06086726 -0.07528016 0.045923825
-0.09011768 0.00026673733 0.004132097 -0.031040233 0.031884845 -0.25517523 -0.049609095 -0.22651573
-0.041377954 0.020684497 0.0856666 -0.01735414 -0.03786526 -0.14987527 -0.011220434 0.081429265
-0.113881774 -0.098503165 -0.10847591 -0.15245543 0.05076133 0.056152657 0.027738774 0.087882414
0.010199142 0.030934257 -0.018726096 0.042932067 0.08924842 0.12733155 0.07153253 -0.10157568
-0.2087459 -0.18123174 0.043940935 -0.14439954 -0.1229341 0.014204365 0.052364614 -0.11775011
0.12856382 0.11955421 -0.23615773 0.10403198 0.10738358 0.0059717624 -0.029314449 0.09163722
-0.12749726 0.055370938 -0.16279705 -0.19804579 0.065544784 -0.20980003 0.07412674 -0.24815802
0.066394635 0.04865235 0.04448185 -0.096223235 0.049390692 -0.056613635 0.10131037 -0.04743093
0.045792148 -0.011879811 0.052040108 0.07274305 0.12935647 0.034360554 0.07390136 -0.06045099
0.12633832 0.12721792 -0.108750775 -0.20124717 -0.04879446 0.07975615 -0.23481277 -0.24138239
-0.22874236 -0.21320091 0.03780655 -0.19373721 -0.07859811 0.002157888 -0.00041550957 0.030121949
-0.0017152299 -0.11849161 -0.121398754 0.017495105 -0.014262585 -0.11143954 -0.0021446208 -0.0016900674
-0.104403555 0.00027354338 -0.06261316 -0.08652188 -0.07845257 0.026582578 -0.12715769 -0.002930616
-0.001699957 -0.021980686 0.0009766736 -0.05275651 0.035259515 -0.09374524 -0.029648712 0.074355565
-0.012883792 0.07585179 -0.05103061 -0.040241245 -0.22989063 -0.2143355 -0.17057404 -0.070155114
-0.05665719 -0.103330016 -0.22394194 -0.18220687 0.022020075 0.05592672 -0.18847887 -0.041412886
0.08053563 -0.06916368 -0.13823691 0.077240504 0.09357996 0.11082723 0.10814917 0.028460814
-0.070218354 -0.10734868 -0.08661894 -0.1535691 0.031002156 0.06442261 -0.0803691 -0.07921259
0.061217077 -0.17448759 -0.21514763 0.09510755 -0.16939361 -0.16899076 -0.14173515 0.056080185

conv1.0.bias f4 [32]
00000000: 3c8c 8c3d e1d3 89bc 36de aebc 18ba c7bd
00000010: 7a7d af3d 6a6e da3c 57ec bfbd fd76 7dbd
00000020: 0b26 b1bd b09e 9cbc 8c32 5ab9 006c 903d
00000030: 176c 0bbe c83b 05be 5802 5abc 2a6a 5c3d
00000040: c40b 8b3d acc5 cc3d e56c 4bbd 137e 82bc
00000050: d7ef 56bd 48de 023c de53 9abc 51eb e2bc
00000060: c185 12be d57d c03c f843 fa3d 5408 3bbe
00000070: fd24 3abc a2e3 9cbc a83f d93d cab7 cc3c
0.06862685 -0.016824665 -0.021346193 -0.097522914 0.08568855 0.026663978 -0.0937125 -0.061881054
-0.08649834 -0.019118637 -0.0002080893 0.07051849 -0.13615452 -0.13011086 -0.013306223 0.053812183
0.067893535 0.099986404 -0.049664397 -0.015929257 -0.052474823 0.007987566 -0.01883882 -0.027700098
-0.14308836 0.023497501 0.12219995 -0.18264896 -0.011361358 -0.019151513 0.106078446 0.024989981

conv2.0.weight f4 [64, 32, 3, 3]
00000000: 6b4a 043d 329c 333c 0644 113d d8d5 9d3c
00000010: ac75 223d 8bb8 d43c 5c20 2a3d c208 043d
00000020: e228 ac3c 11c8 5e3d adc9 033d 5fdb 893d
00000030: deec 3b3d aa4c 563d 444f 613d 8c5c 533d
00000040: 49bc 123d 4cd7 fc3c f9f9 2f3d 2f06 303d
00000050: 6af8 773d 7c7d 3e3d f5e0 8c3d fe88 813d
00000060: 3510 143d d4cf 2d3d 36ed 003d d833 50b9
00000070: d5a5 1fba 14b2 0339 35f1 6eb9 105b 0c37
00000080: d898 1b38 2a35 9238 1421 9437 0031 3f36
00000090: 15fb 283d 1de1 b93c 32c6 333d 3863 8d3d
000000a0: 37d4 343d 3d8e 853d bbc2 903d c909 183d
000000b0: 866f 483d 8cb2 5b3d 9693 513d db5e e73c
000000c0: cc26 433d b7e4 413d a83f 813d db84 833d
000000d0: b989 5c3d ba56 383d ea10 6e3d 3917 613d
000000e0: 6f6e 253d e2c1 9d3d 07bf 713d 5351 2b3d
000000f0: 78b5 863d eb54 7d3d 4f85 693d ae3e ceb9
00000100: 78a7 63b7 abda bb39 b205 de37 74e1 3539
00000110: 666e 1239 30b9 2238 d0a3 5939 247f 7c39
00000120: 4eed 8fb9 f86f 1638 d035 d137 d8b2 7db9
00000130: d057 df37 6c50 d939 cade e5b9 dcb0 2b38
00000140: a13c 173a aed6 bf3b 18cd 593c 7e63 ea3c
00000150: 1e00 143c 1300 ca3c bd00 a83c 41fa 443c
00000160: d30b da3b 47db 0f3c 2db1 8b3a c29e 223a
00000170: 62eb b4b9 e257 01b9 907c f0b7 8f6d 363a
00000180: 544a 2e3a 3eed deb8 d82c deb9 a2b0 a53c
00000190: 1fdd 0f3c 3cee ba3c 8b5f 843c e6e9 243d
000001a0: 78d1 093c 2081 403a c226 af3c e470 f83c
000001b0: 6f34 ab39 9174 4d3a 5b23 583a 6985 19bb
000001c0: e48e 7cba c6ec baba 56c7 37bb d9a8 963a
000001d0: f473 1e3b f60d 60bb 79e0 ee3a 6315 d53a
000001e0: 49a9 953b ec85 ec3a 2059 00bb 53b9 41bb
000001f0: f963 303b c402 993b fcc3 9a3c 3880 9b3c
00000200: 111c 043d 6712 c93c 7456 eb3c 05f8 a83c
00000210: ac14 2c3c c955 3b3c baf0 873c b055 d13c
00000220: 4cf6 473d 81ab cf3c e3f8 2f3d f664 3b3d
00000230: 4328 d73c 931a 543d d375 783d 00da 643d
00000240: 5c98 833c 040e 0d3d 36f4 df3c e32f 603c
00000250: c447 033d ffad b83c 7898 0d3c 1917 863c
00000260: 8a0d 2d3c c197 133d 80c0 b93c 7f50 d43c
00000270: bcb9 c03c 20b2 293d 2f56 ab3c 0276 923c
00000280: c07f 173d 64ae 903c f0c7 78bb c676 59bb
00000290: 8a8c 0b3c 6b82 1f3d 0eb7 103d c8e0 043d
000002a0: ecdd 743c 9478 0c3d 0e40 b43c b6b7 493d
000002b0: 59f1 a43d b410 573d 49e5 873d 1523 a53d
000002c0: 62fc 763d d457 893d 9f70 a23d 20d9 8e3d
000002d0: 4d12 923c c294 2e3d 6848 0e3d de50 123d
000002e0: c833 1d3d bae6 e73c 19ae 643c bd76 a13c
000002f0: 2dea de3c 14d2 933a 376d 983a d85d e5b8
00000300: 188a 9c3a 61b9 323a 080c f03a 68e0 7b3a
00000310: f157 7c3a 0ec7 0f3b c268 c63c 4c3a 033d
00000320: d71c 063d 75e9 2d3d 4b76 633d 57b8 6a3d
00000330: d4bd 1c3d 2f14 283d c968 2e3d 6303 d63c
00000340: 5857 093d 0bad 243d 1dad 4c3d 8c36 633d
00000350: 4f8c 423d 20c0 ea3c 37fb 153d cfd8 0c3d
00000360: 1ece 52b9 a44b 8038 de6e 97b9 7c1b 1a3a
00000370: b436 c3b7 e441 2eb8 c1b2 8e39 d6d1 9fb9
00000380: 005d 40b7 ef74 d63c ac6f a93c d266 213d
00000390: 3a36 e83c 01da 2b3d a2e5 943c a0b4 de3b
000003a0: 4193 9c3c bbd9 a73c 73e1 d43c e000 373d
000003b0: fb97 e33c 622e 093d 88fa e93c 9edf 133d
000003c0: dbc5 223d 2ab2 0f3d ecf8 483d 0b3a 1a39
000003d0: 740b a238 a72a a939 913e 2139 02f8 8e39
000003e0: 71fe 17b9 a4a8 05ba be74 9139 c865 d9b9
000003f0: ec4a 8d3d 2312 8b3d e5e4 923d 70cc ab3d
0.032297533 0.010962533 0.035465263 0.019267008 0.039663002 0.025966903 0.041534767 0.032234915
0.021015588 0.054390017 0.032174755 0.06731295 0.04588019 0.052319206 0.055007234 0.05160193
0.035824094 0.03086438 0.042963002 0.042974647 0.06053964 0.04650639 0.06878845 0.06324957
0.03614827 0.04243453 0.031476222 -0.00019855739 -0.00060900796 0.00012559473 -0.00022787305 8.365852e-06
3.7097227e-05 6.971725e-05 1.7658378e-05 2.848974e-06 0.041255075 0.02269035 0.043890186 0.0690369
0.044147696 0.065212704 0.07068392 0.037118707 0.048934482 0.053637072 0.05116614 0.028243473
0.04764442 0.04733726 0.063109696 0.064218245 0.05384228 0.045004584 0.0581216 0.054953787
0.04038852 0.07702996 0.05902007 0.041825604 0.06577581 0.061848562 0.0570119 -0.00039338082
-1.3569246e-05 0.0003583034 2.6467114e-05 0.00017345493 0.00013964772 3.879628e-05 0.00020755758 0.00024079956
-0.0002745189 3.5867066e-05 2.49398e-05 -0.00024194585 2.6624562e-05 0.00041449384 -0.00043844274 4.093429e-05
0.0005769227 0.0058544492 0.013293527 0.028611895 0.009033231 0.024658239 0.020508165 0.012022556
0.0066542416 0.008780307 0.0010657661 0.00062034663 -0.0003450765 -0.00012335138 -2.8668233e-05 0.00069590745
0.0006648649 -0.00010629975 -0.0004237655 0.020225827 0.008780747 0.022818677 0.01615884 0.040262125
0.008411758 0.000734346 0.021380786 0.030327268 0.00032654728 0.0007837499 0.00082450145 -0.0023425466
-0.00096343295 -0.0014261238 -0.0028042397 0.0011494412 0.0024178 -0.003418801 0.0018224857 0.0016256984
0.0045672995 0.0018045283 -0.0019584373 -0.0029559925 0.0026915057 0.004669519 0.01889228 0.018982038
0.03225333 0.024544908 0.028727747 0.020626077 0.010502975 0.011434027 0.01659428 0.025553554
0.04881887 0.025350334 0.042961966 0.04575058 0.026264315 0.051783156 0.06065924 0.055871964
0.016063862 0.034437194 0.027338129 0.013683292 0.032050863 0.022543905 0.008642308 0.016368436
0.01056231 0.036033396 0.022674799 0.02591729 0.023526065 0.04142964 0.020915119 0.017878536
0.036987066 0.01766128 -0.003796097 -0.0033182367 0.008517394 0.038942736 0.035330825 0.03244093
0.014945488 0.03429468 0.0220032 0.049247466 0.08053846 0.052506164 0.066355295 0.08063332
0.060299285 0.06706205 0.07931637 0.06975007 0.017830992 0.042622335 0.03473702 0.035721652
0.03837946 0.028308261 0.013957524 0.01970994 0.027211273 0.0011277818 0.0011629228 -0.00010937051
0.0011943011 0.0006817785 0.0018314132 0.0009608329 0.00096261414 0.0021938714 0.024219874 0.032038018
0.032742348 0.04245897 0.055532735 0.057304706 0.03826697 0.041034874 0.0425804 0.026124662
0.033530563 0.04020409 0.04996978 0.05547194 0.04749709 0.028656065 0.03661653 0.034386452
-0.00020103945 6.117605e-05 -0.00028883567 0.0005878729 -2.3271285e-05 -4.15462e-05 0.00027217533 -0.00030483183
-1.1465745e-05 0.026178805 0.020683132 0.039404698 0.02834617 0.04195595 0.018175904 0.0067964345
0.019113185 0.020489564 0.025986409 0.04467857 0.02778243 0.0334915 0.028561845 0.03610193
0.03973947 0.03508202 0.049065515 0.00014708207 7.726895e-05 0.0003226597 0.00015377464 0.0002726913
-0.00014495269 -0.0005098677 0.00027743535 -0.00041465298 0.06899056 0.06790569 0.071725644 0.08388603

conv2.0.bias f4 [64]
00000000: fb2a 0a3d 52b5 2abd 2b43 3cbd fc8b 823b
00000010: 380a 66bd 4175 63bd 78b6 0ebd 1e94 c6bd
00000020: 4b8f 8ebd 0357 a0bd ce75 84bc 8d83 33bc
00000030: b81a 6ebd b336 96bd 6286 0cbd c16f 8dbd
00000040: 46d0 b5bc 8283 e3bb e3b2 11bd 8f88 e8bc
00000050: 381b 82bb 6a23 c1bc 8435 b9bd c475 b4bc
00000060: 1962 adbd 326c 40bc 4aca 06bd 6abb 23bd
00000070: 2782 a5bd c5b5 21bc e94c d7bc f773 17bc
00000080: f503 eabd c1eb 8fbd a806 aebd b729 6dbc
00000090: 18e4 91bd 2418 66bd 0227 5fbc f23a e9bc
000000a0: 1688 c8bd 398e b3bd 06f3 a0bd d164 53bc
000000b0: 23f3 78bd 697c 79bd 9572 06bd beb5 4dbd
000000c0: adc6 9bbd 33d8 a1bd 992f 9abd a125 8ebd
000000d0: ecc9 a9bc b527 b3bc 7dba bf3c 91f0 c7bd
000000e0: e790 6abc f2cb abbd a7b5 73bd 5140 c4bd
000000f0: 8b19 03bd 657f 6ebc 09c2 6fbd 5937 06bd
0.033732396 -0.041676827 -0.045962494 0.0039839726 -0.05616209 -0.055531744 -0.034841985 -0.0969622
-0.06960925 -0.07829096 -0.016169455 -0.010956657 -0.05813095 -0.07334652 -0.034307845 -0.06906081
-0.02219404 -0.006943167 -0.03557099 -0.028385429 -0.00397053 -0.023576457 -0.090434104 -0.022028811
-0.08465976 -0.011744546 -0.03290776 -0.039973654 -0.08081465 -0.009869997 -0.02628179 -0.009243957
-0.11426536 -0.07027388 -0.08497363 -0.014475278 -0.071235836 -0.056175366 -0.01362014 -0.02847049
-0.09791581 -0.08767361 -0.07858853 -0.0129024545 -0.06077875 -0.060909662 -0.032824118 -0.05022215
-0.07606254 -0.07902565 -0.0752861 -0.06940771 -0.020726167 -0.02186952 0.023404354 -0.09762681
-0.014316774 -0.08388509 -0.05949941 -0.0958258 -0.03200678 -0.01455674 -0.058534656 -0.032767627

conv3.0.weight f4 [64, 64, 3, 3]
00000000: fe8a f638 db52 3c38 88c9 e9b7 d8d3 10b9
00000010: 900d 1838 c7db 81b9 dcdb ac39 28f3 b937
00000020: 5cd5 4639 e85f 74bc 7089 34bc 3555 95bd
00000030: a9ff bbbc 9050 c7bc d701 a0bd 67ad 02bd
00000040: b421 e8bc 8c64 88bc 487a f0ba 71de d9ba
00000050: 683c 8539 686c 713b ca7e ad3b 2aac 373a
00000060: 80a1 293a 7a64 6c3a 54d2 393a 01f2 09bd
00000070: e42f 0cbd 5337 4fbc 1051 02bc 328a 9ebd
00000080: fbff cfbc c563 90bd 29dd adbd 6560 22bd
00000090: 160d 6abd 2549 96bd 4724 a4bd 478e 96bd
000000a0: ddfe 10bd 9498 abbd 5c88 92bd 39c3 a2bd
000000b0: 9706 90bd e092 a2b7 388a 123c fc09 463c
000000c0: bd15 c73c 229c db39 f2fb 0d3b 327b 8c3c
000000d0: 0a0d 543c a403 4fbc a669 2cbd 2644 69bb
000000e0: b189 3ebd 9971 91bd da8f 5abd bdc6 bdbd
000000f0: f51e 1dbc 3112 a0bc 54b5 a8bd 0afc 81bd
00000100: 7177 3abd e0f9 93bd 0aea ecbc 01a5 57bd
00000110: 9f39 9abd 4932 fabc 85df 5ebd 9432 fdbc
00000120: 44e5 2bbd 9e84 f0bc 0c08 20bd 6825 9fbd
00000130: 58ba 3cbd 026c 00bd df59 53bd d27a ddbc
00000140: 520b 6abd a017 85bc 405c 98bd 90d4 33bc
00000150: 830c 52bc 7f57 aabd 6d3d 16bd 0a0c edbc
00000160: ab85 f1bc ac99 ddbc ca57 5739 541e 9339
00000170: 8e8b 02b9 3fa5 81b9 ca34 13b9 b27a 50b9
00000180: d690 49b9 e38d 3b39 4fa4 00b9 7917 16ba
00000190: 6a22 78ba 974d d738 77ad d8b9 61b9 943b
000001a0: 6957 35bb fe70 2dba c1d1 303a 6ae6 953a
000001b0: 26cb 44bd 3699 40bd 09c2 5fbd 4b97 92bd
000001c0: b82c c9bc ac45 7dbd 6d2f f6bc 3a37 2ebd
000001d0: 07b2 19bc b7b3 cb39 8fc3 7939 32ee fab8
000001e0: ab2b 1539 0416 80b9 ac3d 3fb8 286b 1c38
000001f0: bc88 f139 d84c 0eb8 9ede 83bd 3dae 15bd
00000200: 44d7 20bd be4c c5bc 756f 9fbd 25c2 e7bb
00000210: 6fe3 0bbc a9e0 81bd c76b 98bc 98eb 6d3b
00000220: 0ff7 863b 41d0 193a 25d3 e8ba 7114 6a3a
00000230: 8274 103c 4e9e 633c 09ff 143a d838 96ba
00000240: 7b45 eeb9 35b4 24bd d5ad a3bc 9939 5bbb
00000250: c9ab 09bd cbe3 0cbd 5b3c 46bb 007f f23a
00000260: 5de4 ddbc 5673 74ba 5881 5a3a e4ac b338
00000270: d879 acba 5ff1 52ba a5be c3b9 820c 3e3b
00000280: 4370 8d3a 5f93 95ba 8f22 1abb da4e f23b
00000290: 0df2 673c 0d6c 5c3b 0251 45bc a164 86bc
000002a0: fbcd eabc b7c6 4dbc 8805 7abc 9d33 a7bc
000002b0: 2daf 9dbc 0b33 86bc 71bb 74bd fb12 58bc
000002c0: 4444 9fbd 0a00 4ebd b333 34bd 1601 0fbc
000002d0: 3163 f8bb 21d0 68bd fcee 9ebd 69b4 95bd
000002e0: 2c84 93bd 76a9 adbd ce46 7cbd 2b0e 56bd
000002f0: 9de4 86bd 1009 803b 9410 55bd 4373 62bd
00000300: 2a31 41bc 1cdb d1bb c885 2cbd c4e1 a1bb
00000310: 5ff6 9fbc f10e e4bc 3df9 8dbc 31e8 9cbd
00000320: f7e3 73bd e492 52bd 2124 cdbd ad36 efbc
00000330: 3356 88bd 9776 d1bd ee44 56bd d8ad b038
00000340: 786f da3c 94a1 953a 17e2 b73a 719d e03c
00000350: cdaf 6fbb cf52 733a 5526 b13a d269 263c
00000360: 038d ba3a 71d9 edbc bff0 63bc 5350 ee3a
00000370: 49c3 f8bc 0420 59bc eb39 83b9 ad10 56bc
00000380: e4dc 55bc c0b0 88bd 4d21 15bd 334e ccbd
00000390: f577 91bd 5b3d 34bc 2f50 f7bc da29 cbbd
000003a0: 39af 58bd d219 a6bc f6f5 873a 85d7 a039
000003b0: 5658 a63a d019 1fba 4e62 a53b 0f67 e63a
000003c0: 7fc4 a0ba 06ea b2ba 3e2a 93b9 536e 58bb
000003d0: 2998 e8b9 ed50 93ba bdab c739 06c6 fbbc
000003e0: f142 cb3a f63e 8ebc 2205 c1bc 187f 47bd
000003f0: 2fbe 75bd 3daf 98bd 069f 41bd 173a a5bc
0.000117560834 4.4899858e-05 -2.786961e-05 -0.00013811828 3.6252255e-05 -0.00024768544 0.00032970204 2.2166947e-05
0.00018962234 -0.014915444 -0.011019096 -0.072916426 -0.022949057 -0.024330407 -0.07812851 -0.03190365
-0.028336383 -0.016649507 -0.001834699 -0.0016622079 0.00025412743 0.0036838297 0.0052946554 0.00070065504
0.0006470904 0.0009017658 0.0007088531 -0.03367806 -0.03422536 -0.012647468 -0.007953897 -0.077412024
-0.025390616 -0.070502795 -0.084894486 -0.03964271 -0.057141386 -0.0733817 -0.08014732 -0.07351356
-0.035399307 -0.08378711 -0.07154915 -0.07947392 -0.07032507 -1.9380299e-05 0.008944087 0.012087341
0.024302358 0.00041887263 0.0021665064 0.017148588 0.012942562 -0.012635145 -0.04209294 -0.0035593598
-0.04651803 -0.07101745 -0.053359844 -0.09266422 -0.0095899 -0.019539924 -0.082377106 -0.06346901
-0.045524064 -0.07225394 -0.028920192 -0.052647594 -0.075305216 -0.030541556 -0.054412384 -0.030907907
-0.04196669 -0.029360112 -0.039070174 -0.077708066 -0.04607615 -0.031353004 -0.05159938 -0.027036104
-0.057139702 -0.016246617 -0.0743947 -0.010975972 -0.012820366 -0.0831747 -0.036679674 -0.028936405
-0.029482683 -0.027050816 0.00020536702 0.0002806062 -0.00012449754 -0.00024727915 -0.00014038678 -0.00019882133
-0.0001922281 0.00017886567 -0.00012268241 -0.00057255436 -0.00094655773 0.00010266451 -0.00041327972 0.0045387005
-0.0027670509 -0.00066162634 0.0006745123 0.0011436467 -0.0480453 -0.047021113 -0.054628406 -0.07157763
-0.024557456 -0.061834022 -0.030051911 -0.042533137 -0.009380824 0.00038853075 0.00023819342 -0.00011965296
0.00014226015 -0.00024430465 -4.5595385e-05 3.7293095e-05 0.00046068977 -3.3927005e-05 -0.06438945 -0.03654312
-0.039267793 -0.024084445 -0.077849306 -0.0070727044 -0.008538111 -0.06341679 -0.01860608 0.0036303755
0.004118807 0.0005867519 -0.0017763121 0.00089294376 0.00881684 0.013892723 0.0005683755 -0.0011461033
-0.00045446664 -0.04021092 -0.01998035 -0.003345108 -0.033611093 -0.034396928 -0.0030248377 0.0018500984
-0.027086431 -0.0009325048 0.0008335314 8.5675885e-05 -0.0013158871 -0.00080468314 -0.0003733534 0.0028999154
0.0010790903 -0.0011411718 -0.0023519134 0.0073946537 0.0141568305 0.003363374 -0.01204324 -0.016405405
-0.028662672 -0.012559584 -0.015260108 -0.020410353 -0.01924857 -0.016381761 -0.05974907 -0.013188119
-0.077766925 -0.050293006 -0.043994617 -0.008728286 -0.007580184 -0.056839112 -0.077604264 -0.07309801
-0.07202944 -0.08479588 -0.061590962 -0.052259605 -0.06586573 0.0039073303 -0.052017763 -0.055285703
-0.011791507 -0.0064042937 -0.04211977 -0.0049402434 -0.019526659 -0.027839156 -0.01733076 -0.076614745
-0.059543576 -0.051409617 -0.10016657 -0.029200876 -0.06657066 -0.10227697 -0.05231183 8.424715e-05
0.02666448 0.0011415952 0.0014029172 0.027418824 -0.0036573291 0.0009282054 0.0013515452 0.0101570655
0.0014232699 -0.029034348 -0.013912379 0.0018181897 -0.030366557 -0.013252262 -0.0002502942 -0.013065499
-0.013053153 -0.066743374 -0.03640871 -0.09975853 -0.07102958 -0.011000956 -0.030189602 -0.09920092
-0.05290148 -0.020275984 0.0010372985 0.00030678153 0.0012691121 -0.0006069215 0.005047119 0.0017578321
-0.0012265592 -0.0013650067 -0.00028069498 -0.0033024743 -0.00044363856 -0.0011239328 0.00038084193 -0.030734073
0.0015507621 -0.017364006 -0.023562018 -0.04870519 -0.059995826 -0.07455299 -0.047270797 -0.020169301

conv3.0.bias f4 [64]
00000000: 5525 aabd 7a7d 8cbc 0070 2abd ebb7 4bbd
00000010: 0663 86bc 1387 9bbd 2d5b 39bd cb60 76bd
00000020: fab4 26bd 3c85 82bc fbe3 86bd bd54 0bbd
00000030: f275 ccbc b704 d5bc 3051 24bc 1a47 5bbd
00000040: 37eb 19bd f458 b8bc 0a24 53bd 2071 71bd
00000050: 8b0c 6dbd 5c6e aebd c59a 84bd e75c 64bd
00000060: ea2f d1bc 6d64 0bbd ef8b b9bc 57bb e8bc
00000070: 1ba8 89bd fae7 aabc 8bbe a8bd 8894 82bd
00000080: d758 4ebd a18e 8fbc 14c1 c7bc ed8d fdbc
00000090: 42a3 2dbd 10bb 16bd b407 96bd 764b abbd
000000a0: b63a 9cbd 3adf 56bd bf37 03bd aea4 51bd
000000b0: 4dc4 8fbd 57d3 2cbd 9016 893b cfda 0abd
000000c0: c45c 7cbd 661f b3bd ce66 13bb 1573 62bd
000000d0: d772 44bd 20c8 4bbd 4d21 07bd 2ebd b5bd
000000e0: afd6 1bbd 0adb 16bd 772f 7fbd 8a36 61bd
000000f0: 5c16 85bd 4c92 6ebd 6b04 63bd 669c d7bc
-0.08307902 -0.017149676 -0.041610718 -0.049735945 -0.01640464 -0.07594123 -0.045252968 -0.060150903
-0.040699936 -0.015932672 -0.065864526 -0.03401636 -0.024958584 -0.026003225 -0.010029122 -0.053534605
-0.037577834 -0.022503354 -0.05154804 -0.058945775 -0.05787329 -0.08517143 -0.064748324 -0.05575266
-0.025535543 -0.03403132 -0.022649733 -0.028409643 -0.06721517 -0.020862568 -0.08239468 -0.06375986
-0.050377693 -0.017524065 -0.024384059 -0.030951465 -0.042392023 -0.03679949 -0.07325688 -0.083640024
-0.07628386 -0.05245898 -0.032035585 -0.05118244 -0.07019863 -0.042193737 0.004183598 -0.03390008
-0.061611906 -0.08746223 -0.0022491696 -0.055285532 -0.047961082 -0.0497514 -0.032990742 -0.08873974
-0.038046535 -0.036829986 -0.062301125 -0.054983653 -0.06498405 -0.05824499 -0.055424135 -0.026319694

dense.0.weight f4 [128, 576]
00000000: c1c8 42bd 4d2c 8fbb 21e3 57bd 0e2e 47bd
00000010: 761d d6bb 41a8 3dbd b4ea eebc 73bc 49bd
00000020: faa8 84bc 4ca8 a3bc 64f1 56bd 117e f6bc
00000030: 95d9 46bd 0b93 70bd 2740 0cbd 7d4c 1fbd
00000040: faf8 aabc 0d42 56bd 0a46 2b3b 403f 593c
00000050: 64f0 103c 44fa 083b 698d 043d 9bbe e83b
00000060: 57d7 183c 5a83 603b 10e3 163c ca5b 8ebc
00000070: e809 0dbd ad29 20bb be51 7cbd 93ea 49bc
00000080: 5bbf 77bb d76f c3bc 9f00 2abc a14f fabc
00000090: ed31 34ba 6279 c7ba d4c9 9239 1755 733b
000000a0: ee5c aaba c60f 8fb8 5475 853b da25 48b9
000000b0: 8169 af39 ab58 a9bc 7857 39bd c00b 45bc
000000c0: 0c81 48bd 8bfc 2dbd d28d 1abd d74c 0ebd
000000d0: 91c3 8ebd 0cfa cdbc f35a 1c3b f10b 8d3a
000000e0: 4214 bd3a b46d 85ba 3b14 2639 096b 1039
000000f0: 68d3 443a 3c42 51b9 7e32 19b9 6018 0dbc
00000100: 861f 0dbc 6589 993b 1bf8 843c 3350 0e3b
00000110: a4ad 033c 43b0 c13b bd86 4a3c de69 b93c
00000120: ee08 58bd 019c 5cbc c40d 57bd aca1 86bd
00000130: 53ff 90bd 71f0 4cbd b931 5dbd e9e9 0fbd
00000140: 0ca8 84bd 59e6 c0bc 2800 0dbc e851 95bd
00000150: 9a23 99bd dcc1 2bbd 7910 81bc df4a 05bd
00000160: b07e 24bd 7ffd 17bc 4966 73bd cea8 72bb
00000170: 04b9 11bd 1cd6 55bd ad90 a1ba eb53 c6bc
00000180: c3b2 8bbd cc56 fdbc d6a8 983c da4e 523a
00000190: ada9 82b8 7ff4 9a3b 2835 c838 205f 2fb9
000001a0: 0619 1d3c 1845 15b9 5609 fe38 afb9 e839
000001b0: 8074 25bd 153b efbc 400b 31bd f32c 7dbd
000001c0: af5e 5abd ab93 07bd 5eb5 81bd 338e 30bd
000001d0: be7d 55bd 9406 8fb9 1b7e c03b 8fba 6c3c
000001e0: 9942 593c f46c 373c a70e d23c ea0e 873b
000001f0: 5910 c03b 3dc2 cc3c 56c1 6bbd ffe4 84bc
00000200: 8a7f 13bd 04fe 92bd 222d b4bc 07e1 83bc
00000210: 837a 2bbd db22 67bd 623e 13bd 9d1d 6bbc
00000220: a147 9d3c 4b5a c83c 63c0 b53c d189 133c
00000230: 6e02 853b 2d6f e9bb f4d3 85bc 77e8 dfbb
00000240: 1339 5b3a 178c f23a 1d98 d3bc cc52 9db9
00000250: 0941 6abc e487 0bbd 3cf1 67b9 d36b a1bc
00000260: ac3f 19bd 872b 14b9 0086 9b36 60b5 a1b9
00000270: 5413 aab9 b295 c4b9 3691 b838 604a ceb9
00000280: 8051 3539 3623 c838 6cb5 c6bc 8c51 85bd
00000290: 580d 38bd 5924 e2bc 547e 06bd 56bd 05bd
000002a0: 3002 61bb a1cf 91bd cc96 8fbd 9e98 6eb9
000002b0: f6b7 053a 0476 db3c d601 f3b8 be9a 80b8
000002c0: fd8f 8c3c a130 e138 90fd 3c37 0e05 de39
000002d0: 253f 2dbd 203f 9bbc f2fe 5fbd 1401 99bd
000002e0: b499 46bd 6d48 90bd e824 6dbc 4ce3 abbc
000002f0: 92e3 57bd 40e9 01bb 6574 57bb ca45 373d
00000300: 9ad1 9139 e42c 79bb 971d 08bc 6b7d 37bb
00000310: a343 85ba 35a6 983b 193c d8bc 3685 34bb
00000320: 35f8 3b3d 74c8 913a 0e00 8a3c f53d fb3c
00000330: de30 17bd f311 923c def9 303d ea15 07ba
00000340: 94cc 8238 41c8 f5bc 28f8 63b8 6c74 0bbc
00000350: c9f5 72bd 7641 113b f9b2 76bd ef69 7cbd
00000360: f7ed e4bc b430 71bd d3b5 1cbd 58b1 24bd
00000370: 4815 52bd d7ac 33bd 07b8 dcbc 8357 3ebc
00000380: f241 95bd 3119 13bd 337b 35bd 96df 58bb
00000390: 72df aabc 2ed3 43bd 608f 9dbc cfc7 85bd
000003a0: c23e 67bd 5704 debc 2600 8dbc b498 893b
000003b0: 115d 94ba 5af5 60bd 46c8 58bd d37b 52bd
000003c0: 0123 18bd d851 91bc ed07 6bbd f161 a538
000003d0: c2de c5b9 4678 ccb8 ac67 e1b9 68e4 8739
000003e0: 2523 9cba 40b7 51b8 4f12 2b3a 3af0 133b
000003f0: 1b2d c8b9 9c07 983c 20f3 9db8 d22c 543b
-0.047554735 -0.0043692947 -0.05270684 -0.048627906 -0.0065342737 -0.046303038 -0.02916465 -0.049251985
-0.016193856 -0.019977711 -0.0524763 -0.03008941 -0.048547346 -0.05873398 -0.034240868 -0.038891304
-0.020870674 -0.052309085 0.0026134276 0.013259709 0.008846376 0.0020901123 0.03236142 0.0071028
0.009328685 0.003425798 0.009209409 -0.017377753 -0.034433275 -0.0024438903 -0.061601393 -0.012323993
-0.0037803266 -0.02385704 -0.010376125 -0.030555548 -0.00068738946 -0.001521867 0.00027997664 0.0037129575
-0.0012997666 -6.8217094e-05 0.0040728245 -0.00019087587 0.00033457208 -0.020672163 -0.045249432 -0.012026727
-0.048951194 -0.042477172 -0.037732907 -0.03474125 -0.06970895 -0.025143646 0.002385792 0.0010761005
0.0014425593 -0.0010179789 0.0001583853 0.00013772784 0.00075083086 -0.00019956467 -0.00014610027 -0.0086117685
-0.008613473 0.004685568 0.016231587 0.0021715283 0.008037005 0.0059109046 0.012361226 0.02263349
-0.05274289 -0.013464929 -0.052503362 -0.06573805 -0.07079949 -0.05003399 -0.054002497 -0.035135183
-0.06477365 -0.023547338 -0.008605994 -0.07291013 -0.074774936 -0.041932926 -0.015754925 -0.032542106
-0.04015988 -0.009276747 -0.05942372 -0.0037026885 -0.035576835 -0.052206144 -0.0012326442 -0.024209937
-0.068212055 -0.030925177 0.018635195 0.0008022614 -6.2304876e-05 0.0047288532 9.546644e-05 -0.00016724737
0.009588486 -0.00014235487 0.00012113403 0.00044388833 -0.040394306 -0.029202977 -0.04322362 -0.061810445
-0.053312954 -0.03309981 -0.06333421 -0.04310436 -0.05212187 -0.00027279987 0.005874408 0.014448776
0.013260507 0.01119541 0.025641752 0.004121651 0.005861324 0.024994964 -0.057557426 -0.016222475
-0.036010303 -0.07177356 -0.021994177 -0.016098512 -0.041864883 -0.056429725 -0.035948165 -0.014350322
0.019199194 0.024457118 0.022186464 0.009005026 0.0040591275 -0.007123849 -0.016336419 -0.006833132
0.0008362692 0.0018504885 -0.02582937 -0.00030007062 -0.014297732 -0.034065142 -0.00022119744 -0.019704735
-0.037414238 -0.00014130595 4.6349596e-06 -0.00030843448 -0.00032439327 -0.00037495565 8.800851e-05 -0.00039346796
0.00017291866 9.543302e-05 -0.02425643 -0.065096945 -0.0449346 -0.027605223 -0.03283532 -0.032651268
-0.003433358 -0.0711968 -0.07011184 -0.00022754303 0.00051009597 0.026789673 -0.00011587485 -6.1323386e-05
0.017158503 0.00010737894 1.126471e-05 0.00042346906 -0.042296547 -0.018950999 -0.054686494 -0.07470909
-0.048486426 -0.07045064 -0.014474131 -0.020982407 -0.052707262 -0.0019822866 -0.0032875773 0.04474429
0.0002781272 -0.0038021142 -0.008307836 -0.002799834 -0.0010167252 0.0046584853 -0.026395844 -0.002754522
0.045891006 0.0011122362 0.01684573 0.030669192 -0.036911838 0.017830824 0.043207042 -0.0005153107
6.236989e-05 -0.030002715 -5.435213e-05 -0.008511644 -0.05931643 0.0022164262 -0.060229275 -0.061624464
-0.027945502 -0.058884338 -0.03825934 -0.04020819 -0.051289827 -0.043866005 -0.02694322 -0.011617544
-0.07287969 -0.035912696 -0.044306945 -0.0033092252 -0.0208585 -0.04780882 -0.019233406 -0.06532251
-0.056456335 -0.027101679 -0.017211985 0.004199112 -0.001131924 -0.054921485 -0.05292537 -0.05138762
-0.037142757 -0.017739221 -0.057380605 7.886056e-05 -0.00037740736 -9.749881e-05 -0.00042992586 0.00025919382
-0.0011912329 -5.0000148e-05 0.00065258605 0.0022573606 -0.0003818058 0.018558316 -7.531629e-05 0.0032375348

dense.0.bias f4 [128]
00000000: dafe aabc 9af1 2abd 0d85 dcbc 22f5 35bd
00000010: 81b4 29bc abfa 91bd 48b2 67bd 9a5b 6bbc
00000020: 18d5 89bd d567 83bd 5e92 6bbd 502f 26bd
00000030: 4188 53bd a526 8cbd 51dc 39bd 84da adbd
00000040: dc25 18bd 792f afbc 72de 82bd 46d9 5ebc
00000050: fa0a 73bd 966c 1bbd 7d79 91bd 80ca efbc
00000060: 9a57 f8bc 149a 9ebc edf4 95bc ec51 a7bc
00000070: 2c54 18bd 8fd1 1bbd a375 07bd ef9e dcbc
00000080: bfe2 a3b9 f524 a5bc 84ff 13bd ab69 77bd
00000090: 5a2a 3ebd 22c1 08bd 82b5 3eba 463a c2bc
000000a0: 520d 32bd 4165 a9bc a51d 1cbd af0a 00bd
000000b0: e514 16bd a8d3 d4bc 8564 8cbd 5873 95bd
000000c0: 619d 14bd 1edf 38bd 4b89 85bd 9ca8 0abd
000000d0: e697 4abd 3ca3 1cbd e9ce 44bd 68d8 69bd
000000e0: 457f 72bd 8d96 62bd 72ab c6bc 7df8 c1bd
000000f0: 4e50 0dbd 84d5 dfbc 02b3 6cbd 1e74 6abd
00000100: 12ed 1cbd b89e bdbb 4afe 6fbd 96e5 80bd
00000110: 2dc9 3bbd da27 97bd debc 20bd 3042 adbc
00000120: 8de9 2ebd 5cfd 39bd 43be 8ebd 9b2c adbc
00000130: 6d53 28bd 5d8d 87bd a8ec 79bd c17d 07bd
00000140: 66f4 37bd 5e11 93bd d52d 96bc 886f 1bbd
00000150: 0cfa 21bd 0331 61bd 73f7 11bd e5ac 7ebd
00000160: 9278 05bd 8d9a 33bd a32b cdbd c208 51bd
00000170: 71ed 86bd c142 33bd 976a d3bc a441 42bd
00000180: 4910 16bd f810 d9bc 9c74 11bd b858 83bd
00000190: 1461 6dbd 00bf 90bd 0da7 acbb 93ab 92bc
000001a0: 2d1c 37bd 46e4 f3bc dba5 d2bc b742 75bd
000001b0: 8c1f 8bbd fa55 a1bd b908 8fbd 9582 2fbd
000001c0: b56a 1abd f7b6 97bd cfd9 5ebd bcd2 4ebd
000001d0: 202f 9bbb 5c0b 75bd af50 86bd db93 65bc
000001e0: 42a1 efbc cc5b a5bb d8be 9cbd b2a7 b7bc
000001f0: f20d 72bd 7cf1 3abd f705 ea3c dda0 46bd
-0.020873476 -0.041734315 -0.026918912 -0.04442323 -0.010357977 -0.07127889 -0.056566507 -0.014365101
-0.067300975 -0.06416289 -0.057512634 -0.040572464 -0.051643614 -0.06843308 -0.045376126 -0.08488944
-0.03714548 -0.021384941 -0.06390084 -0.013601607 -0.05933664 -0.037945352 -0.0710325 -0.029271364
-0.03031521 -0.01936058 -0.018305266 -0.020424806 -0.037189648 -0.038041648 -0.03307117 -0.026931254
-0.00031258722 -0.020159224 -0.03613235 -0.060403507 -0.04642711 -0.03338731 -0.00072749716 -0.023709428
-0.043469734 -0.020678164 -0.03811421 -0.03126019 -0.03664102 -0.025979832 -0.0685511 -0.07297391
-0.0362829 -0.045134656 -0.06520327 -0.033852205 -0.049461268 -0.03824161 -0.048048887 -0.057091147
-0.059203405 -0.055319358 -0.024251673 -0.094712235 -0.034500413 -0.027323492 -0.057787903 -0.057239644
-0.038312025 -0.005786743 -0.05859212 -0.0629379 -0.045846153 -0.07380648 -0.039242618 -0.021149725
-0.0427032 -0.045407638 -0.06969883 -0.021139434 -0.041095186 -0.0661876 -0.06101671 -0.033078913
-0.04491081 -0.07181047 -0.018332401 -0.03794816 -0.039545104 -0.05497838 -0.035636377 -0.062176604
-0.032585688 -0.043848563 -0.10018089 -0.051033743 -0.06588257 -0.043764833 -0.025807662 -0.04742588
-0.036636624 -0.02649735 -0.035511598 -0.06413406 -0.05795391 -0.0706768 -0.0052689374 -0.017904079
-0.044704605 -0.029771935 -0.025713852 -0.059878077 -0.067931265 -0.07877727 -0.069840856 -0.042849142
-0.03769942 -0.07407945 -0.054406937 -0.05049394 -0.0047358423 -0.059825286 -0.06558358 -0.014012302
-0.029251698 -0.0050463434 -0.07653588 -0.02241883 -0.05909533 -0.045640454 0.028567297 -0.048493255

dense.2.weight f4 [10, 128]
00000000: ed36 01bd fad4 0ebe 4ceb b2bc 2987 c1bd
00000010: e5e1 fcbd 6f33 42be 41f6 95bd 1f28 27bb
00000020: ff00 55bd 1ed2 dcb9 96f8 1939 27d2 4c3a
00000030: 755e a83a e25f fd39 752f cb3a d2c9 b1bd
00000040: 1574 d3bb 299e d5bc 53b7 b0bc 9d42 06be
00000050: 1a37 2abd bb66 833c 0dbb b8bd 947f 4fbd
00000060: 3215 a13c 6230 1fbe 28fe 5a3c 8dd1 1e3b
00000070: b828 323a 68b6 ee3c 9bce 7b3c a814 5fbb
00000080: 54f3 9f39 28f2 5d3c 7724 00bb 73ee f7ba
00000090: eae4 7abd facf 9039 7c3c 0c3b 3754 0cbd
000000a0: 2afb 2abe 0081 92bd 1808 23ba 98d8 e4bd
000000b0: 70bf 96ba ac96 b53b 2bc5 18bd e781 21bb
000000c0: 7f90 57ba 18c7 b0b8 2af6 0fba 4c17 d3bd
000000d0: 5322 0a3a 7c08 1a3b 2d0d 0abd 4d21 f7bd
000000e0: f886 76bd 2f82 adbd 862b 41ba 4ced 24bd
000000f0: f778 973a 7508 9cbd f4e8 09bd 8fc0 5abe
00000100: 1280 bfbd 8c1c f0b9 0ba0 97bd a3d7 3ebd
00000110: 51fc b1bc a328 1ebe 2931 12be 0508 333c
00000120: 01d6 47be 773e 99ba 0603 2bbc cf73 84bb
00000130: 2b6a 6cbc d963 a4bd ca9e 903a 6b01 583a
00000140: 52e9 1339 1cf2 04b9 874c 39bc e8a7 1cba
00000150: e608 803a bc18 31ba 3d2f eabc fb7d 12bd
00000160: 1a74 373c c28e 71bc 45e1 34bd c4de 1fbd
00000170: 1357 5dbd 2a5c fdba efeb 2fbd dd21 04be
00000180: 2681 93bd ca4e 033a 021f b53a a43d 51bc
00000190: fc2c a7bd 525a 35be 499e d2bc 63d1 89bc
000001a0: f104 cd3c 4e51 83bc d59d 17be e6f3 80bd
000001b0: 48ad c7b9 f9b0 613b 1b8b 78bd 5b9b 6b39
000001c0: 85a9 9cbd 079f cf39 0053 f4bc 7508 dcbd
000001d0: 9fd1 27be 82e7 79bd 51f7 08be f5cb 963a
000001e0: 91cc ccbd 154a 7bbc 55c7 0fbe 47c3 2a3a
000001f0: 2f0a 0ebe ded0 563a 3524 f1bd 90a0 d8bd
00000200: 00e3 8dbd 83ff 943d cc15 2d3c ac57 50bd
00000210: 0572 14bd 1c66 0bbc 8dce 91bd 82f5 64ba
00000220: 159a 5d3c 394e 8a39 322c 4fb9 844f 253a
00000230: c8af ccb9 eca3 04b9 14ad 84bc 6dac b1b9
00000240: 5af1 473c b481 5abc 9b28 d3bc 684c b8bd
00000250: ebb0 833d 3999 b8bd 2918 7bbb e112 d9bc
00000260: 8a5c 533b cd9b 4b3d 687a 723d d133 ab39
00000270: acbe 453a 51dd 1b3b da01 b3ba a024 0dbb
00000280: b8cc bcba fc23 24bd ff59 543c e0c1 76bd
00000290: 7c8b 653c 063c 113a 56ee f73a 6c00 303d
000002a0: b5bc 8dbd 6b9c d53b 82ea f0b9 42aa aabc
000002b0: f903 8bba 713f 8dbd 8fda c93c 805e f3bc
000002c0: ae6e 99b8 aa57 c7ba 2236 43ba dad1 90ba
000002d0: 05a3 3d3d 58e1 b13a ffef 58bb 2fdd acba
000002e0: 3d6a d7bc 45db 753c b215 d9b9 e36d c0bc
000002f0: e2a1 323a fb49 76bd 5476 9a3b 6667 413c
00000300: 4b73 98bd 3035 7739 ee2d edbb 1853 173d
00000310: 7147 d9bb 4489 35bd 1b4b 063d 73ad 6cbc
00000320: 6f6a c03c a030 40ba 817b bebb 6238 6bbc
00000330: e613 20bc 458c fa3c 8e9b 1f3b 6646 0c3b
00000340: ba68 763a 7eec 13ba dc33 a1bb 16a8 2bba
00000350: dd36 17b9 7712 183a e1f6 7dbc c22f 963d
00000360: 30c3 9139 d6c1 1dbc e58b abbd b713 af3c
00000370: 99e0 e3bd f3d2 a9ba dab0 01bc 7a16 0abc
00000380: 3fc0 37bd a810 223a 2dd0 e53a 5f73 06bc
00000390: e86d f33c 0cad ba3c 4094 0f3d bc6c 4cbb
000003a0: 9a53 1bbd 0fc0 6cbc 64ca 52bc 3ad9 74bd
000003b0: 9917 32ba 7e7d 113b 50ba b7bc 6add deb8
000003c0: abca 393d ac3a aeb7 a21a cebc f9c4 ed3b
000003d0: 277d e23c 58c1 c63c 2e8d d0bc 133f cb39
000003e0: a362 9cbb 2cd6 de3c 5721 df3c 2990 b439
000003f0: c610 023d 1be5 3139 4d3f 3ebe fc3e afbd
-0.031546522 -0.13948432 -0.021840714 -0.09449608 -0.123477735 -0.18964933 -0.0732236 -0.0025506092
-0.052002903 -0.0004211822 0.00014683823 0.00078132976 0.0012845533 0.0004832736 0.0015501814 -0.08681072
-0.006453047 -0.026076393 -0.02157179 -0.13111348 -0.041556455 0.016040197 -0.09020052 -0.050658777
0.019663427 -0.155458 0.01336626 0.0024233789 0.00067962287 0.029139712 0.015369083 -0.0034039412
0.00030508137 0.013546504 -0.0019552985 -0.0018915668 -0.061253466 0.00027620775 0.0021398356 -0.03426
-0.16697374 -0.07153511 -0.00062191626 -0.111741245 -0.0011501145 0.005541643 -0.03729741 -0.0024644078
-0.0008223131 -8.429418e-05 -0.00054916984 -0.10307178 0.0005269397 0.0023503592 -0.03370397 -0.120668985
-0.06018731 -0.08472096 -0.0007368851 -0.040265366 0.0011556436 -0.076188006 -0.033669427 -0.21362518
-0.09350599 -0.00045797636 -0.07403573 -0.046592366 -0.02172676 -0.15445189 -0.14276566 0.010927205
-0.1951523 -0.001169159 -0.010437733 -0.004042126 -0.014429609 -0.08026857 0.0011033651 0.00082399574
0.00014105931 -0.00012678694 -0.011309749 -0.0005975948 0.0009768277 -0.00067557 -0.028586978 -0.035764676
0.011197114 -0.014743509 -0.044160146 -0.039030805 -0.05403812 -0.0019329835 -0.042949613 -0.12903543
-0.072023675 0.0005008994 0.0013818445 -0.012771044 -0.08162877 -0.17710236 -0.025710242 -0.016823476
0.02502677 -0.01602998 -0.14806302 -0.0629652 -0.00038085342 0.003443776 -0.060679536 0.00022469221
-0.07649521 0.000396006 -0.029824734 -0.107438006 -0.16388558 -0.0610118 -0.13375594 0.0011504876
-0.099999554 -0.015337487 -0.14040883 0.0006514084 -0.13871072 0.0008194576 -0.11774484 -0.105775
-0.069280624 0.072752975 0.010564279 -0.05086486 -0.03624155 -0.0085082315 -0.071194746 -0.0008734093
0.013525506 0.00026379692 -0.00019757522 0.0006306099 -0.0003904088 -0.00012649567 -0.016195811 -0.00033888538
0.012203539 -0.013336588 -0.025776198 -0.08998948 0.06430229 -0.090136 -0.003831396 -0.02649826
0.0032251203 0.04970913 0.059198767 0.00032654268 0.0007543366 0.0023783038 -0.0013657168 -0.0021536723
-0.0014404273 -0.04007338 0.01296091 -0.060243487 0.014010306 0.0005540255 0.0018915634 0.042969152
-0.06920759 0.0065188906 -0.0004595109 -0.020833138 -0.0010606042 -0.06896866 0.02464035 -0.029708147
-7.316224e-05 -0.0015208621 -0.0007446726 -0.0011048869 0.046298046 0.0013571186 -0.0033102033 -0.0013188476
-0.026295776 0.015005891 -0.0004140563 -0.023489898 0.00068142836 -0.060129147 0.004713813 0.011804437
-0.074438654 0.0002357557 -0.0072381413 0.03694448 -0.006630831 -0.04432036 0.03278647 -0.01444565
0.023488251 -0.00073314644 -0.0058130627 -0.014356704 -0.009770369 0.030584464 0.0024354192 0.0021404265
0.0009399761 -0.0005642845 -0.004919512 -0.0006548179 -0.0001442092 0.00058010913 -0.015500755 0.07333328
0.0002780198 -0.009628734 -0.08376292 0.021371705 -0.11126823 -0.0012956545 -0.0079157 -0.00842821
-0.044861075 0.00061822915 0.0017533355 -0.008206218 0.029715493 0.022787593 0.03505349 -0.003119274
-0.037921526 -0.014450087 -0.0128656365 -0.059777476 -0.00067936775 0.0022200043 -0.022427708 -0.000106270265
0.045359295 -2.0769738e-05 -0.025159184 0.007256147 0.027647568 0.024262115 -0.025457945 0.0003876617
-0.0047725006 0.027201734 0.027237577 0.00034439683 0.031754278 0.00016965384 -0.18578835 -0.08556935

dense.2.bias f4 [10]
00000000: f617 a5bd 33e2 adbd 545f 4b3b f26c 30bc
00000010: 9521 80bd 490f 403d aa7d b3bd e898 19bd
00000020: 9086 ecbd 4fb9 5abe
-0.08061211 -0.0849041 0.0031032162 -0.010768162 -0.06256405 0.046889577 -0.08764203 -0.03749934
-0.11549103 -0.21359752
