classify_pytorch/output/params_1.pth (torch_old, 527679 bytes, 10 tensors)

conv1.0.weight f4 [32, 3, 3, 3]
000000 42 f7 cb bd c4 0c 56 bd 58 cc c0 3d 14 2d 1c 3d
       -0.0995927 -0.052258268 0.094139755 0.038128927
000010 47 54 95 3c 0d 50 39 3d 1b bb 42 bd 19 bb 2e be
       0.018228663 0.045242358 -0.04754172 -0.1706356
000020 5a be 89 bc c2 1a 36 3c 10 49 c0 bd 40 be 03 3e
       -0.0168144 0.011114778 -0.093889356 0.12865543
000030 41 43 fb bc 1b 1c 70 bd 1a 56 1c 3e 0e da d2 3c
       -0.030671718 -0.058620553 0.1526722 0.025738742
000040 9d c2 92 bd 38 42 1e be 64 d3 9c bd 79 58 f2 3d
       -0.07166026 -0.15454948 -0.07657507 0.11833281
000050 22 2a b5 bd 04 59 d0 3d a3 fa 8f 3d a6 63 21 3e
       -0.08845927 0.101732284 0.07030227 0.15760669
000060 18 6c 7e 3d 99 3b 96 bd 61 f8 fe bd 0f df 99 3d
       0.062114805 -0.07335586 -0.12449718 0.07513248
000070 88 a6 1b 3e 6e 39 40 3e 4c 34 24 3d 97 9e 0f 3d
       0.15200245 0.18771908 0.040088937 0.035063352
000080 56 58 ee 3d 0a 18 b3 bc 95 64 3e bd ed a5 d3 3d
       0.116379425 -0.021862049 -0.04648264 0.10334382
000090 8d 3c 45 bd 60 d9 aa 3d bb 63 b0 3d 29 a1 9a 3d
       -0.04815345 0.08342242 0.08612772 0.0755027
0000a0 54 b6 d8 bd 2f 3f 06 3e 08 ce 00 3c eb 01 f1 3d
       -0.10581651 0.1311004 0.007861622 0.11767944
0000b0 72 9f 07 be 51 20 e2 bd 80 0b f2 3d 6a 03 9f 3d
       -0.13244417 -0.1104132 0.118186 0.07764323
0000c0 8d d4 0a bd 0a f8 d4 3d 0b c0 18 3e fc b3 d7 3d
       -0.03389411 0.10398872 0.14917009 0.10532376
0000d0 28 e7 e6 3d 62 20 e9 3c 5e be db b9 59 83 bb 39
       0.11274558 0.028457824 -0.0004191277 0.0003576528
0000e0 98 c0 6f 39 47 f0 90 b9 2d 4c b1 b9 32 8b d9 ba
       0.00022864563 -0.0002764484 -0.00033816826 -0.001659727
0000f0 97 81 76 bb 37 7b af bb eb 2e cc bb c6 e6 d8 b9
       -0.0037613863 -0.0053552645 -0.006231179 -0.0004137067
000100 52 a9 cc 39 c8 60 81 39 bc 27 93 b9 4e c1 aa b9
       0.00039036066 0.00024676905 -0.0002806763 -0.0003256895
000110 6c 4b dc ba 47 3a 77 bb 04 27 af bb 00 0c cc bb
       -0.0016807145 -0.0037723945 -0.005345227 -0.0062270164
000120 f6 30 da b9 07 95 bc 39 4a 8d 8a 39 4e aa 8b b9
       -0.0004161668 0.00035969188 0.0002642668 -0.00026639033
000130 9d fa af b9 d8 26 dd ba 5b f1 76 bb aa 84 af bb
       -0.00033565323 -0.0016872538 -0.003768048 -0.005356391
000140 04 eb cb bb 28 ae 47 36 6a 3d 08 b7 0c c3 33 b6
       -0.0062230844 2.9754683e-06 -8.120531e-06 -2.678661e-06
000150 07 52 22 b7 58 81 92 35 d2 e2 f8 35 c8 6d 83 b5
       -9.675051e-06 1.0915492e-06 1.8543453e-06 -9.792211e-07
000160 51 3d 5b 36 04 53 5a 37 c2 2d d6 b6 27 38 63 b6
       3.2669234e-06 1.3013141e-05 -6.383024e-06 -3.385832e-06
000170 be 65 10 37 ef 67 96 b6 cc aa 7e 36 79 7f 90 36
       8.606758e-06 -4.482448e-06 3.7948366e-06 4.306374e-06
000180 40 9a 27 37 f7 fd bf 36 c6 80 9d 37 b7 19 18 36
       9.98989e-06 5.721809e-06 1.8775823e-05 2.2664733e-06
000190 94 2c 8a b5 c7 72 30 b7 5b 67 41 b6 e7 a3 1a 36
       -1.0294775e-06 -1.0517141e-05 -2.8819402e-06 2.3043192e-06
0001a0 37 51 da 36 ad 27 89 b6 60 90 0e 35 e0 64 3a 37
       6.506361e-06 -4.087537e-06 5.3109216e-07 1.1109951e-05
0001b0 98 55 bc bc 98 d6 25 bc 5e 13 d4 bb d4 e5 11 bc
       -0.022990033 -0.010121964 -0.0064720353 -0.008904893
0001c0 10 3e a9 bc 03 3a ce bc fa d9 d7 3b 2d 90 00 3d
       -0.020659477 -0.025174147 0.006587264 0.031387497
0001d0 44 33 e2 3c 6c c9 ee 3b 5e 96 f9 bb 88 a0 b8 bc
       0.027612336 0.007287195 -0.007616802 -0.022537485
0001e0 81 c0 e3 bb e4 e7 96 bc 03 96 6e bd f4 4e 6e bc
       -0.0069504385 -0.018421121 -0.05824853 -0.014545191
0001f0 80 9c 2f bd 82 bb 97 3c db 97 83 3b 38 37 b5 bc
       -0.04287386 0.018522028 0.0040159053 -0.022121057
000200 b6 29 20 bd 02 4a 62 3c 6d 59 9f bc c5 52 8f bb
       -0.03910228 0.01381159 -0.019451821 -0.0043738806
000210 a7 77 8c bb 6c 81 3a 3c 93 80 ca 3c a2 92 1b bd
       -0.0042867246 0.011383396 0.024719512 -0.037981637
000220 f2 cd 90 3d bf 43 2a be 6a dd 0c bd 79 71 84 bd
       0.07070531 -0.16627406 -0.034390844 -0.06466956
000230 0f 34 07 be 19 fc a1 3d 57 ef fb 3d 76 9a 4b 3d
       -0.13203453 0.07909412 0.1230151 0.049707852
000240 19 d0 21 3d 44 a2 0d be 50 f2 22 be 44 43 48 3d
       0.039505098 -0.1383143 -0.15912747 0.048892274
000250 97 91 84 bd c3 2f 9c 3c 61 a6 b0 bd a5 d3 17 3e
       -0.064730816 0.019065743 -0.08625484 0.1482683
000260 ed 9c a0 3d a7 c0 35 bb 4e ce c4 3c 7a ab df 3c
       0.07842431 -0.0027733238 0.024024155 0.027303446
000270 e8 36 2e 3d b6 ac 9d 3d 9f 12 d2 3d 8e 05 a2 bd
       0.04253283 0.076989576 0.10257458 -0.07911216
000280 64 b8 bf bc ab 2c 02 3d 7d 9f da 3d d9 44 cf bd
       -0.023403354 0.03178088 0.10674951 -0.101205535
000290 66 96 5a 3c 0d 1f 04 3e ac ef 7f 3d 08 ae ff bd
       0.013341522 0.1290247 0.06248443 -0.12484366
0002a0 f7 37 dc 3d 2f e2 bf 3d 27 2e e9 3b 04 22 ac bc
       0.10752862 0.09369313 0.0071160975 -0.021012314
0002b0 8c 81 53 3e 2f f5 7c 3d c8 75 10 3e 16 7a 01 3e
       0.20654887 0.061757263 0.1410743 0.12644228
0002c0 de 65 67 be 63 86 0f 3d 92 21 0d 3e 7e 52 21 be
       -0.22597453 0.03504027 0.13782337 -0.15754125
0002d0 33 12 37 3e 42 64 e8 3b d7 bd e2 bd 20 b9 4a 3e
       0.17878036 0.00709203 -0.11071365 0.19797182
0002e0 e2 c5 34 3e 0c d5 80 be ce fd 2e bd 0a fe 1e 3e
       0.17653611 -0.25162542 -0.042722516 0.15526596
0002f0 d8 f6 d2 bd 09 0a e6 3d ee cc 03 3d b8 1a 54 3e
       -0.10300988 0.11232383 0.032177858 0.20713317
000300 87 7d 78 bd 95 09 68 bd a9 cb bd bd 1b 8e c8 bd
       -0.060666587 -0.056649763 -0.09267361 -0.097927295
000310 6c 06 15 be a4 23 17 be e4 56 32 3d 0c 22 90 3d
       -0.14553231 -0.1475969 0.043539897 0.07037744
000320 51 27 0c 3e 5f 2a b0 bc cc ac a2 bd 74 36 9e b9
       0.13686873 -0.02150458 -0.07943115 -0.0003017668
000330 96 3f 01 be b8 a3 08 be b2 95 0c be e4 6b ab bc
       -0.12621912 -0.13343704 -0.13728979 -0.02092547
000340 4c 70 e6 3d ee f6 22 3e 41 40 a8 bd 93 e8 14 bc
       0.11251888 0.15914509 -0.082153805 -0.009088653
000350 25 72 bb bd f7 c2 e3 bd 0a 9f 0b be 77 cc 0d be
       -0.09152631 -0.11121171 -0.13634887 -0.13847528
000360 d7 f4 e4 bd 20 f0 3a be 62 35 08 bd 5a 80 e9 bd
       -0.11179512 -0.18255663 -0.033254035 -0.11401434
000370 24 3c c5 bd 64 01 0a 3e 9d 24 53 be 08 ea 25 bd
       -0.096306115 0.13477093 -0.20619436 -0.040506393
000380 a1 b0 b6 bc c5 65 e5 bd 56 53 2b be c9 49 c6 3c
       -0.02230102 -0.112010516 -0.16731009 0.024205105
000390 36 55 e9 bd ac 84 b6 bd 04 a2 3d 3e 44 c8 21 be
       -0.11393206 -0.08912024 0.18518835 -0.15799052
0003a0 27 06 a2 bc 3a fc 03 3e 5c 7c e5 bd 3e b1 21 be
       -0.019778324 0.12889186 -0.1120536 -0.15790269
0003b0 63 2b 7d bd d6 e6 e9 bd 90 b0 a0 bd ad 28 79 3d
       -0.061808955 -0.114209816 -0.078461766 0.060829807
0003c0 f9 e8 21 be 4b f6 69 3d 7c 4c 1d 3e 1e 9a 5c be
       -0.15811528 0.05711965 0.15361208 -0.21543166
0003d0 ee a4 9d bd ca ba 00 be 4f 8b 79 bc d1 d5 1d be
       -0.076974735 -0.12571254 -0.015230968 -0.15413596
0003e0 37 82 0b be 06 8e 66 3e ed 40 42 3e 30 ce cd 3b
       -0.13623892 0.22515115 0.1897008 0.006280683
0003f0 aa 86 84 be 13 6a 1d be a7 df df bd 93 9e a4 bd
       -0.2588399 -0.15372495 -0.1093133 -0.08038058

conv1.0.bias f4 [32]
000000 be 44 0f bd 0b 14 de bc eb 4a 00 bc 35 af c4 bb
       -0.034977667 -0.027109167 -0.007830362 -0.0060023316
000010 4b f3 b4 bd 26 9e f4 bc f3 f3 8a bd 16 a1 c7 bc
       -0.08835467 -0.029860567 -0.06784811 -0.024368804
000020 d3 a0 eb bc 41 a3 ae 3d 20 0b 36 3d 98 5e 9b bc
       -0.02876321 0.08527232 0.044444203 -0.018966004
000030 64 58 25 ba 30 0c 24 bc f0 bd e1 bc c5 49 1b be
       -0.0006307422 -0.010012671 -0.02755639 -0.1516486
000040 db 56 19 3e 4a 64 f8 bc 98 d6 66 bc 9c 30 1b 3a
       0.14974539 -0.030321259 -0.014089249 0.0005920024
000050 f3 ab 25 3d 4b 7b 91 bd e8 4b 8a 3d ce e8 1c be
       0.040447187 -0.071035944 0.06752759 -0.15323183
000060 6d bb 1a be b7 fc 3c bd 52 37 9b 3d 49 a1 89 3b
       -0.1511056 -0.046139445 0.07578911 0.004200135
000070 73 1b a4 bd 0d ae 45 3d 50 f6 92 bd c5 4b af bd
       -0.08013048 0.04826169 -0.07175887 -0.08559374

conv2.0.weight f4 [64, 32, 3, 3]
000000 6e 6c 74 b7 d2 f5 87 b7 89 64 f5 b3 bc 61 ed 37
       -1.4568779e-05 -1.6207723e-05 -1.1426989e-07 2.8298113e-05
000010 2a 6e 62 36 ca 26 36 38 01 6b 83 b7 d4 a0 25 37
       3.3740748e-06 4.3428307e-05 -1.5666245e-05 9.872212e-06
000020 ed f5 6e 37 04 fb 16 b9 0c a2 84 bb bc 95 4a bb
       1.42431645e-05 -0.00014398625 -0.004047638 -0.0030912003
000030 2e d3 d2 bb 8f a5 26 ba 04 9e 6b bb 5a f4 84 bb
       -0.006433866 -0.00063570676 -0.003595234 -0.0040574493
000040 2c 6a ba ba c7 11 ac bb 26 00 54 b5 d0 c2 61 b4
       -0.0014222316 -0.0052511427 -7.897637e-07 -2.102563e-07
000050 90 0d b1 34 74 07 23 36 be 4c 2f b5 90 55 57 b3
       3.2978687e-07 2.429323e-06 -6.5304255e-07 -5.0136407e-08
000060 45 c9 9d b5 aa 03 95 35 88 c2 9b b5 a9 d5 4e b6
       -1.1755989e-06 1.1102431e-06 -1.1605016e-06 -3.0820759e-06
000070 a3 a4 86 35 40 b0 4f 36 ef 68 51 b5 0f e7 1c 36
       1.0031694e-06 3.0947995e-06 -7.8011266e-07 2.3380305e-06
000080 e3 d1 9c b5 b7 e3 5c b5 fd af 38 b6 00 bc b5 30
       -1.1683991e-06 -8.2287755e-07 -2.7520575e-06 1.3222916e-09
000090 e4 61 d1 b5 08 40 77 b4 55 93 8a b5 2d 11 d4 35
       -1.5600203e-06 -2.3026962e-07 -1.032468e-06 1.580023e-06
0000a0 39 91 87 35 b2 0f 9b b5 fd 3c 9b 35 cd 68 de b5
       1.0100549e-06 -1.1552968e-06 1.156615e-06 -1.657079e-06
0000b0 d1 be 5c b6 ab ae 88 b6 f2 60 e4 b6 66 20 19 37
       -3.2893624e-06 -4.07345e-06 -6.8062154e-06 9.127054e-06
0000c0 c2 b8 43 36 da ab 55 b6 16 9e 07 37 d6 55 4b b7
       2.9164808e-06 -3.1839504e-06 8.083434e-06 -1.2119728e-05
0000d0 25 ac a3 b6 03 be 0f 37 9b f1 98 b7 0d f3 80 b7
       -4.877819e-06 8.567705e-06 -1.8232318e-05 -1.5371968e-05
0000e0 81 95 27 38 0a ef fc 36 0d 22 75 b7 34 f4 eb b7
       3.995514e-05 7.538013e-06 -1.4611066e-05 -2.8127899e-05
0000f0 1e c2 66 37 a0 c8 b3 35 6a c2 1c 38 6d 84 82 b5
       1.3754265e-05 1.3394929e-06 3.737436e-05 -9.724296e-07
000100 53 c4 c5 b5 28 bd f1 35 b0 5d 25 b4 35 3a 5b b5
       -1.4734782e-06 1.8010951e-06 -1.5400906e-07 -8.166856e-07
000110 26 5b ef b5 9e cf b4 35 5c 78 1d b5 2d 96 04 b5
       -1.7833415e-06 1.347147e-06 -5.8662204e-07 -4.9392366e-07
000120 cb 68 ed 35 53 96 1c 35 44 94 e6 b4 a8 8b 75 b5
       1.7688375e-06 5.833328e-07 -4.2948716e-07 -9.147284e-07
000130 23 52 24 b6 10 05 ec 34 a8 9b a9 35 13 f4 de b5
       -2.4485714e-06 4.396211e-07 1.2636783e-06 -1.6611324e-06
000140 80 aa 19 36 dd 29 79 b7 48 05 5c b5 cf d5 06 b7
       2.289802e-06 -1.4851304e-05 -8.196407e-07 -8.036804e-06
000150 c8 04 57 b7 ae f6 01 35 58 0e d4 36 42 c8 ee b6
       -1.2816112e-05 4.841521e-07 6.319762e-06 -7.116266e-06
000160 49 71 a9 b7 7e 6e 13 b7 e4 29 b4 b6 90 b6 fe b4
       -2.0199122e-05 -8.787609e-06 -5.3692947e-06 -4.7444018e-07
000170 63 26 78 b6 78 1f 97 34 d2 a7 2f 36 f2 c8 c6 35
       -3.6977224e-06 2.8148838e-07 2.6174716e-06 1.4810632e-06
000180 bf 73 23 b6 1b 62 60 37 f8 71 13 37 3d c8 da b5
       -2.4356266e-06 1.3374282e-05 8.788418e-06 -1.6300543e-06
000190 6a e0 94 35 0a e6 f5 b5 6e d5 32 36 14 ce b4 b5
       1.1092172e-06 -1.8320873e-06 2.66483e-06 -1.3471022e-06
0001a0 df 13 8f 35 d7 17 a5 b5 42 28 94 b5 8f ce 18 35
       1.0660114e-06 -1.2300396e-06 -1.1038576e-06 5.6924995e-07
0001b0 d1 04 a5 36 ba 68 22 35 8e 42 41 b6 70 5c 9b b6
       4.917944e-06 6.05021e-07 -2.879798e-06 -4.630121e-06
0001c0 e3 9e d3 36 77 36 65 b6 8b 3c ac b7 d7 5c 1b b7
       6.306787e-06 -3.4155362e-06 -2.053219e-05 -9.260336e-06
0001d0 18 98 06 b7 84 13 de b5 ca c8 69 b6 a8 df e8 b6
       -8.0224345e-06 -1.6545969e-06 -3.483658e-06 -6.940176e-06
0001e0 58 47 42 b6 07 42 ed 35 c0 67 10 b7 02 e8 0c b6
       -2.894978e-06 1.7677093e-06 -8.607225e-06 -2.0996672e-06
0001f0 d8 30 ba b6 8a 0d 93 b5 c0 1c 7a b5 39 02 f8 b4
       -5.548918e-06 -1.0956294e-06 -9.3174094e-07 -4.6195217e-07
000200 ae 1c 52 b4 16 df db 35 71 fa 6f 35 2d 16 8f 34
       -1.9568208e-07 1.6381698e-06 8.939888e-07 2.665196e-07
000210 76 31 ec 35 6c 1e 4a b5 18 e6 e5 35 20 2b 42 38
       1.7597765e-06 -7.5295134e-07 1.7128796e-06 4.6293368e-05
000220 54 c5 ae 35 a1 db 0d b8 d8 18 26 b7 0c 00 88 38
       1.302144e-06 -3.3821565e-05 -9.900155e-06 6.484994e-05
000230 0f e7 af b9 7c 78 13 38 fc 41 a8 37 3a ff 22 36
       -0.00033550753 3.515974e-05 2.0057887e-05 2.4288443e-06
000240 b5 de c4 37 d3 f7 28 36 31 10 84 b5 d9 82 b2 36
       2.3468727e-05 2.5178203e-06 -9.839479e-07 5.320046e-06
000250 fa 64 8c 35 45 49 9d 35 5d fe 09 37 30 d3 85 36
       1.0460201e-06 1.1718736e-06 8.22506e-06 3.9882943e-06
000260 90 d3 47 36 9e 4c 97 b9 8b 17 46 b9 db 51 3c 38
       2.9776456e-06 -0.0002885805 -0.00018891522 4.4898927e-05
000270 54 25 68 ba c1 c9 9c ba 9c 3d 30 bb eb 5b 88 ba
       -0.000885566 -0.0011961983 -0.002689219 -0.001040337
000280 a7 ee 6c ba a5 61 dc ba 0d aa 03 b6 86 3b 5e 35
       -0.00090382475 -0.0016813768 -1.9619504e-06 8.278806e-07
000290 97 18 25 36 26 e8 8a 35 1a cd af b4 de 22 bd b5
       2.460123e-06 1.0349365e-06 -3.274552e-07 -1.4091745e-06
0002a0 24 24 50 b5 b7 e8 18 35 08 74 52 b3 cc 4a d1 35
       -7.753863e-07 5.696306e-07 -4.8999965e-08 1.5593482e-06
0002b0 d7 60 d7 b5 9e b0 cc 35 0d 8e 41 b4 6a f3 31 b5
       -1.6046932e-06 1.5250587e-06 -1.8026203e-07 -6.629185e-07
0002c0 9e a2 e3 35 51 ea 2c 35 b9 ef dd 34 28 e4 b3 34
       1.6960146e-06 6.441597e-07 4.133888e-07 3.3507354e-07
0002d0 0b 97 6a 36 cd 7e 9d 35 6d 4c 21 b6 ac a8 3f b7
       3.4956636e-06 1.1734315e-06 -2.4035355e-06 -1.1423759e-05
0002e0 ce 6c 0a b7 b4 51 b1 b6 f4 c8 d9 35 12 c3 bb b6
       -8.250774e-06 -5.2845226e-06 1.6226245e-06 -5.5957435e-06
0002f0 a3 ae 81 b6 0e 69 a5 36 d9 a7 00 37 60 e0 a1 b4
       -3.86483e-06 4.929613e-06 7.668475e-06 -3.015184e-07
000300 5e 2b 59 b5 58 a0 0f b6 c4 0f e4 36 41 36 08 36
       -8.0901907e-07 -2.1401993e-06 6.796765e-06 2.029716e-06
000310 a1 a8 af 36 3a 3a 87 36 96 eb df 36 4c 3b 4e 37
       5.2350374e-06 4.030092e-06 6.6733437e-06 1.2292363e-05
000320 7d 95 af b6 4e ad 3c 36 18 a1 80 36 d7 28 19 b7
       -5.232809e-06 2.811506e-06 3.833451e-06 -9.129019e-06
000330 3c 63 5f 35 3b af 10 37 62 38 3c 36 12 9b 97 b6
       8.321838e-07 8.623868e-06 2.8047002e-06 -4.5182032e-06
000340 1f 15 0b b6 2b 19 68 36 fb fc 04 37 9c 17 00 b4
       -2.0724908e-06 3.4585344e-06 7.926715e-06 -1.1929518e-07
000350 14 8e 82 35 cb 75 18 b7 52 ee c1 b6 90 8f 14 b7
       9.727105e-07 -9.087332e-06 -5.7795924e-06 -8.854913e-06
000360 ac 0b 6a 39 9f 62 03 39 bf b9 07 b9 d5 22 e3 b8
       0.00022320327 0.00012529873 -0.00012943799 -0.000108306915
000370 76 28 c5 b9 7b 03 08 bb ee df 63 b9 2d 90 a5 b9
       -0.00037604914 -0.0020754028 -0.00021731827 -0.00031578672
000380 bf 60 9a ba 55 f0 58 b6 3a f5 42 b6 af 7b 03 37
       -0.00117781 -3.23264e-06 -2.9050993e-06 7.837006e-06
000390 80 54 9e 36 04 4f ec 36 88 15 de b4 6c 65 bd 35
       4.718604e-06 7.0425467e-06 -4.1366388e-07 1.4111115e-06
0003a0 29 76 e7 b5 17 3b ad b6 48 5e 07 36 b5 7f b0 b6
       -1.724523e-06 -5.1626807e-06 2.0171447e-06 -5.260076e-06
0003b0 12 55 2e b7 21 64 c9 37 28 84 8d 36 c7 f3 7a 37
       -1.0391015e-05 2.4007693e-05 4.2175125e-06 1.495792e-05
0003c0 cc bc 0f b7 5f f3 92 36 da ab ac b7 e0 61 ba b5
       -8.567422e-06 4.379471e-06 -2.0584022e-05 -1.3886565e-06
0003d0 d7 e4 58 36 73 dc b2 36 00 56 6a b4 0f 30 37 35
       3.231971e-06 5.330477e-06 -2.1824235e-07 6.8242747e-07
0003e0 71 82 76 36 c4 89 fa b5 20 df 84 36 04 3d 6c 35
       3.6732783e-06 -1.8666547e-06 3.9598817e-06 8.800564e-07
0003f0 8e 46 02 36 88 4b d9 35 66 e3 1f 36 8c 6c 76 b3
       1.9412578e-06 1.6189742e-06 2.382521e-06 -5.737506e-08

conv2.0.bias f4 [64]
000000 36 c0 88 bc 0f 46 86 bd 56 96 10 bc 17 00 0a bb
       -0.016693216 -0.06556331 -0.008824905 -0.0021057182
000010 07 68 9f b9 0e 9f b0 3c 25 71 4f bd db 13 e5 bb
       -0.0003040435 0.021560218 -0.050645012 -0.0069908923
000020 07 3a fc bd 8d 3e a8 bb d3 e5 4b bd 13 0e 83 bd
       -0.12315755 -0.0051344098 -0.049779724 -0.06399169
000030 7a c5 0d bd 46 c0 bb bd d4 24 ea 3b 4f 74 ba bd
       -0.034612156 -0.091675326 0.0071455035 -0.09104215
000040 8a 6e 4b 3b 39 73 be bc 1e f0 b4 bd 79 76 15 3c
       0.0031041228 -0.023248302 -0.08834861 0.009122484
000050 ac 36 74 3c 39 71 f1 bc b7 6d 33 bb 70 3f da bb
       0.014905613 -0.029472934 -0.0027378628 -0.0066603944
000060 e6 42 3b bd 3e bc 8f bd 5d 69 75 bc cc 75 47 bc
       -0.045718096 -0.07018326 -0.014978734 -0.012174081
000070 d3 2e c1 bb e5 f3 25 b8 70 69 7e 3c 51 64 36 bc
       -0.0058954745 -3.956621e-05 0.015528068 -0.011132316
000080 eb 1f 6f bd 44 fe a5 bc e4 13 df bb 01 33 ae bd
       -0.05838005 -0.020262845 -0.006807791 -0.08505822
000090 c4 d5 ab bc 04 2c 33 ba 81 b5 af 3b 95 cc 2e be
       -0.020975955 -0.0006834867 0.005362213 -0.1707023
0000a0 b7 4f 5d 3c 75 f4 02 bd 69 10 dc bc d3 b0 7a bd
       0.013507775 -0.031971414 -0.026863294 -0.06120379
0000b0 09 5c 9a bd df 0f dd bc d5 a2 aa bc 0e e6 8d bd
       -0.075370856 -0.026985107 -0.020829597 -0.06928645
0000c0 98 b7 d9 bb 24 a0 c5 bc 6d 40 b2 bc f2 b9 22 ba
       -0.0066442005 -0.024124213 -0.021759236 -0.00062075176
0000d0 ed 57 20 bb 08 85 ea 3c cc 5d 3c bd c8 70 87 bc
       -0.002446647 0.028627887 -0.04598789 -0.01653327
0000e0 19 af a4 bb 34 04 70 bd 74 9d 45 bd d4 54 45 bd
       -0.005025756 -0.05859776 -0.048245862 -0.0481766
0000f0 77 36 c7 bd c6 81 06 bd 67 90 15 bd 8e 04 14 bd
       -0.09727185 -0.032838605 -0.036514666 -0.036137156

conv3.0.weight f4 [64, 64, 3, 3]
000000 6f d0 6b b6 ce dc 04 36 17 a5 d8 b6 58 3f 0b b4
       -3.5139053e-06 1.9798058e-06 -6.4565206e-06 -1.2968428e-07
000010 4a 0f c6 36 34 4e 77 36 f8 a4 ad b5 ce 20 03 b6
       5.9026397e-06 3.6851388e-06 -1.2937517e-06 -1.9539616e-06
000020 aa 0d 44 34 c7 5d ce bd 28 13 44 bd 3c e1 57 bd
       1.8258893e-07 -0.1007648 -0.04786983 -0.052705035
000030 b5 51 4f 3b ef f2 20 3d 21 13 b8 3d f8 2c 87 bd
       0.0031634395 0.03929418 0.089880235 -0.06600374
000040 f2 7c a4 bd 19 2a d0 3c ec d7 be bd e8 2c 4e 39
       -0.08031644 0.025410699 -0.093185276 0.0001966242
000050 fb d1 9f 3c e7 2e 9f 3c 9b 1d c6 3c 48 d0 f3 bc
       0.019509306 0.019431544 0.024184039 -0.029762402
000060 83 82 af bd 5b f6 a9 bd 8a 10 1d bd 1a 80 98 35
       -0.08569815 -0.08298942 -0.03834585 1.1362165e-06
000070 8d ac c1 35 bd 2b cc b5 d0 62 98 b5 2d fa 4b b6
       1.442984e-06 -1.5211914e-06 -1.1353641e-06 -3.0394979e-06
000080 20 8b 17 b3 99 e8 28 36 9c 09 ce b5 ea dd 20 36
       -3.528396e-08 2.516934e-06 -1.5350993e-06 2.397103e-06
000090 4a 2d 30 b9 69 a3 b1 b8 d0 90 02 b6 d2 e7 99 b8
       -0.0001680154 -8.470455e-05 -1.9455802e-06 -7.3387884e-05
0000a0 1c 37 14 b8 37 54 8e 37 1d a0 79 b9 d0 9f 14 b9
       -3.5337274e-05 1.6966935e-05 -0.00023806137 -0.00014173915
0000b0 68 4d af 37 1b 15 30 bd ba 32 43 bd 68 64 9a 3c
       2.089767e-05 -0.042988878 -0.0476558 0.018846706
0000c0 1e 3d 3a bd 3f 12 cd 3d 40 09 12 3a 45 8d da 3d
       -0.045468442 0.10013246 0.00055708364 0.10671476
0000d0 b2 d0 be 3c e1 16 08 be 48 1c 86 bb d2 f5 27 bb
       0.023292873 -0.13289978 -0.004092727 -0.0025628698
0000e0 42 ba a8 ba dc 0b 04 3c 8a cd 87 3a bc d4 af 39
       -0.0012872892 0.008059468 0.0010360938 0.000335371
0000f0 98 fc 17 3c a8 e4 6d 3b ed 40 37 3b 34 0d 97 35
       0.009276532 0.003629962 0.0027962283 1.1254219e-06
000100 cd ec b4 b5 98 38 bc b3 f3 78 32 b6 40 78 46 b3
       -1.3479963e-06 -8.7647265e-08 -2.6594469e-06 -4.6209834e-08
000110 d8 4e 88 b3 f2 26 7c 35 8a 79 99 b5 b7 26 7c b6
       -6.347335e-08 9.393399e-07 -1.1434761e-06 -3.7573461e-06
000120 3c e6 cd bd 62 b0 10 be 4d ff f6 bc 31 ad 6c 3d
       -0.10053679 -0.14129785 -0.030151034 0.057782356
000130 04 73 1e 3d bf b2 06 3e 58 94 fb bc b1 98 6a 3d
       0.038683906 0.13154124 -0.030710384 0.057274524
000140 63 01 3b 3c 43 b6 2a 36 62 c1 bf 35 76 cf 55 36
       0.011413905 2.5438064e-06 1.4286891e-06 3.1860232e-06
000150 b4 71 b9 b4 49 e0 89 b6 b4 35 42 b6 90 0b a9 35
       -3.4541665e-07 -4.1090284e-06 -2.8939512e-06 1.2594846e-06
000160 ac 02 80 36 5d b8 cd 35 ce a9 b9 38 1d 8e 84 3a
       3.8150083e-06 1.5327347e-06 8.853116e-05 0.0010113154
000170 c0 cc f5 bb a3 7f ba 39 d0 c5 11 b9 08 de 3a ba
       -0.0075012147 0.0003557178 -0.00013901968 -0.0007128422
000180 58 a1 eb b9 3f 92 83 ba e5 68 00 ba 68 f0 35 bc
       -0.00044942903 -0.0010038092 -0.0004898443 -0.011104681
000190 cd d7 5e bc 22 38 d7 3c f3 17 e9 bd ba 63 58 3d
       -0.013601256 0.026271883 -0.11381521 0.05282948
0001a0 67 fd 19 3d b4 68 e9 bc 3a a2 0c bd c6 4f 1a bd
       0.03759518 -0.02849231 -0.0343344 -0.037673734
0001b0 92 e9 45 bd 6b 05 a5 bd 15 d0 1e bd 30 0c 19 3d
       -0.048318453 -0.08057674 -0.03877266 0.03736514
0001c0 27 a6 89 3d 4c c1 7c 3d fd b8 99 bd c9 6f 82 3c
       0.06721144 0.06170778 -0.07505987 0.015922444
0001d0 f0 1f 85 3a c6 98 c8 bb 74 67 e3 bc f2 3d f6 bc
       0.0010156613 -0.0061217276 -0.027759291 -0.030058835
0001e0 d0 51 05 bc 04 4e c4 bc 80 20 cf bc 7f 00 4a bc
       -0.008137181 -0.023962982 -0.025284052 -0.01232922
0001f0 94 5c b0 bc 52 c7 54 bc a9 27 cb 3c 90 9f 7f 3d
       -0.02152852 -0.012986975 0.024799185 0.06240803
000200 85 1a 09 3e c9 4c b3 bc a3 10 aa 3c 23 49 18 bd
       0.13389023 -0.0218872 0.020759886 -0.037179124
000210 35 8e 46 bd c4 2d 2b bd 2a 7e b4 3d 85 d2 84 3a
       -0.048475463 -0.041791692 0.088131264 0.001013354
000220 84 d0 43 b8 b5 bf be ba 67 4e e6 3a ba 46 60 ba
       -4.668582e-05 -0.0014552983 0.0017570973 -0.0008555461
000230 90 77 3a 39 41 b2 12 b9 9e 34 e2 39 64 b4 4a 3b
       0.00017782883 -0.0001399005 0.00043145282 0.0030930275
000240 f4 c6 91 3b 75 c9 de 3c 4b 9a 06 3d 2e 02 e5 3c
       0.004448766 0.027195672 0.03286199 0.02795514
000250 a9 67 cc 3c 6f 71 96 bd bd 03 27 3c e1 b8 d9 bc
       0.024951773 -0.073458545 0.010193762 -0.026577415
000260 1c fb 85 3c 76 b9 c1 3c a4 21 12 bc bb 8a 4f 3d
       0.01635509 0.023648005 -0.008919153 0.050669413
000270 92 42 90 bd d9 cc 18 3d 52 22 10 3c 34 79 19 3d
       -0.07043947 0.037304733 0.008797245 0.037469104
000280 51 d1 c6 bc 90 bf 31 bd 96 4e 00 3e c8 b7 cd 3d
       -0.024269732 -0.04339558 0.12529978 0.10044819
000290 96 67 95 3d d7 98 e6 3d 3e b3 cd 3d 51 4d 5a 3d
       0.07295148 0.11259621 0.10043953 0.05329639
0002a0 7c 6a 44 3d d6 51 79 3d 14 75 63 3c 72 ea 2e be
       0.047953114 0.06086906 0.013882894 -0.17081621
0002b0 7b 61 6e 3c 58 21 02 3d 21 8e 6d bc 7d f3 34 3d
       0.014549608 0.03177008 -0.014499218 0.04417752
0002c0 ea 5b 94 bd 78 23 d2 3d 6c c6 01 bc 33 97 05 be
       -0.07244094 0.102606714 -0.007920843 -0.13045959
0002d0 9d 66 eb bd 17 41 a8 3d 77 13 df 3c be 51 04 3d
       -0.11494181 0.0821554 0.027230961 0.032304518
0002e0 27 03 b1 3d 49 cd 97 bb 80 1b 80 3d 2c db 60 bd
       0.086431794 -0.004632626 0.06255245 -0.05489652
0002f0 82 dd 36 bd 95 ee 0f bd a6 91 35 bd 84 70 bb bc
       -0.04464484 -0.03513964 -0.044328354 -0.0228808
000300 3b 48 86 3c 96 0e 99 3b 9b 1f 8f bd a6 09 e5 bd
       0.016391864 0.004670928 -0.0698845 -0.11183481
000310 8a 74 c6 bd 7b f2 42 bd be 7c 3f 36 7d 29 61 b5
       -0.09690197 -0.04759453 2.8533827e-06 -8.3879405e-07
000320 19 ff 04 b6 42 40 e1 b5 45 56 bc 35 8a f8 2a 35
       -1.981802e-06 -1.6782508e-06 1.4032199e-06 6.3691607e-07
000330 81 a8 41 b5 42 87 12 36 06 8f ac 35 e4 55 41 34
       -7.214331e-07 2.1834426e-06 1.2856624e-06 1.8005773e-07
000340 65 5b bc b5 f6 20 9f 35 04 e6 ff 35 14 c1 84 36
       -1.4033691e-06 1.1856016e-06 1.9065924e-06 3.956384e-06
000350 f2 c3 d8 b5 a8 70 fd 33 82 10 94 36 c4 3f 70 b5
       -1.6150282e-06 1.18017226e-07 4.4126655e-06 -8.949976e-07
000360 f2 7c ca bc df 7c 36 3d 4a 85 75 3c f6 3f 26 3d
       -0.024717782 0.04455268 0.014985392 0.04058834
000370 56 23 84 3c ad 35 7c bd 45 b4 32 3c 85 1b ce bd
       0.01613013 -0.061574627 0.010907237 -0.10063843
000380 00 0d 36 bd ab af 8c 3b 5d f2 76 3b 31 c0 88 3b
       -0.04444599 0.004293402 0.003768108 0.0041733016
000390 50 3c 2e 3b 96 ed b2 b9 a2 42 7c 3b 8e c2 62 ba
       0.0026586242 -0.0003412782 0.0038491865 -0.0008650207
0003a0 14 f6 68 ba bb b9 01 3b 4e bb 5a 38 4b 58 6b 37
       -0.0008886766 0.0019794542 5.214969e-05 1.4027649e-05
0003b0 5c 54 b2 b7 d1 55 16 b9 76 37 3c b8 06 12 87 b8
       -2.1258536e-05 -0.00014337084 -4.4874345e-05 -6.440659e-05
0003c0 f8 f9 9c 37 7f f4 a4 b7 28 fc df 36 ec 04 07 ba
       1.871305e-05 -1.9664176e-05 6.6752727e-06 -0.0005150575
0003d0 b5 50 97 ba 31 e9 6e ba bc d6 0c 3a 6a ae 7d ba
       -0.0011544438 -0.0009113728 0.0005372574 -0.0009677174
0003e0 c1 b8 09 bb d9 ff 93 3a b5 e0 21 ba eb 24 d5 b9
       -0.0021014663 0.0011291459 -0.00061751466 -0.00040654032
0003f0 da 36 c7 b4 4a 0e 29 36 6d 3a 80 b6 10 0b 26 b6
       -3.7106548e-07 2.519128e-06 -3.821499e-06 -2.4742367e-06

conv3.0.bias f4 [64]
000000 b2 63 d4 bd c6 69 98 bd 43 01 b2 bd 24 7d 51 bc
       -0.10370578 -0.0744205 -0.08691647 -0.0127861835
000010 4f 00 95 bc f7 58 1d bd 32 52 89 bb 28 65 3b bc
       -0.018188624 -0.03841492 -0.0041907066 -0.011437692
000020 c4 8b f9 b9 d1 35 4b bc b5 8b b3 ba 17 e2 85 bd
       -0.00047597114 -0.012402968 -0.0013698252 -0.06537264
000030 c4 a3 11 bd 15 fb 8d bc 51 ab 77 3d e9 b8 62 bc
       -0.03555657 -0.01733164 0.060466114 -0.013838031
000040 13 f9 b8 3b 41 c3 58 bd 7e b3 77 bd cc 97 a5 bb
       0.0056449263 -0.052920584 -0.06047391 -0.005053496
000050 6c d5 09 bc 5f 8b 0c ba 7b 90 b6 bd a0 cb 2b bc
       -0.0084127 -0.0005361344 -0.08914276 -0.01048556
000060 8e bf 7b bd d0 46 20 bd 8e df 44 bd 8e e6 e9 bc
       -0.061461978 -0.039130032 -0.04806476 -0.02855232
000070 ef cf 43 bd 83 e8 07 bc 02 96 37 bd de d0 b8 bc
       -0.047805723 -0.008295181 -0.044820793 -0.022560533
000080 42 30 e4 bc 5b 1b 6f 3c d2 f5 8b bc 25 c7 91 bc
       -0.027855042 0.014593924 -0.01708499 -0.017795155
000090 e6 a7 a4 3d 9f bf 7e bd 9b 60 7b bc 21 f0 86 bc
       0.080398366 -0.062194463 -0.015342857 -0.016471924
0000a0 10 37 47 bc 8a e4 b1 bb 50 c6 dc ba 98 18 e7 bb
       -0.012159124 -0.0054288553 -0.001684377 -0.0070524924
0000b0 3d 76 4b bd 0d 9b 29 bd 62 76 21 3d fe b0 93 bd
       -0.049673308 -0.041407634 0.03941954 -0.07211493
0000c0 93 d6 06 bd e4 b0 06 bd c7 5c 3a bc df ab b2 bb
       -0.032919478 -0.03288354 -0.011374659 -0.0054526175
0000d0 e2 d1 15 bc f0 e7 fa 3c b2 37 bc bd ce b9 a4 bc
       -0.009144278 0.030628175 -0.091903105 -0.02010813
0000e0 e7 06 8c bd c0 a6 a2 bc 09 ea 5f bd df b4 58 bc
       -0.06837254 -0.019854903 -0.054666553 -0.013226717
0000f0 04 53 42 bd 58 18 83 bc 79 53 dc bc e3 d2 1c bc
       -0.04744245 -0.016002819 -0.026895272 -0.009571764

dense.0.weight f4 [128, 576]
000000 ea 5d 65 3c 99 e3 a5 3c 7d b7 93 bc b4 17 0e 3d
       0.013999442 0.020250129 -0.01803183 0.034690574
000010 26 21 b5 bc 9b 93 7c 3c 38 a4 42 bd 6e 43 62 3c
       -0.022110533 0.015416051 -0.047519892 0.013810022
000020 54 37 f0 3b 46 f7 b5 bc 5b 86 96 bd 8b bb 05 3d
       0.0073308144 -0.022212636 -0.07349845 0.032649558
000030 1c 52 b7 3c c7 49 b0 3b 79 4f 25 bb 72 db ba bc
       0.02237802 0.0053798887 -0.0025224371 -0.022809718
000040 74 d4 ee 3c 59 df c7 bd 7b c8 89 3b 3e 75 46 bb
       0.02915404 -0.09759397 0.0042048073 -0.0030282284
000050 b9 f5 09 3d 76 a8 62 bc ae 4b a7 3c c2 91 3c 3c
       0.033681605 -0.0138341095 0.02042183 0.011509361
000060 93 c9 bd bc bf f4 34 3d 18 fd 34 bc d7 cf a6 35
       -0.023167407 0.04417872 -0.01104667 1.2428453e-06
000070 f2 15 8e b4 9e fe 85 35 a6 cc bc b7 10 3e ce 37
       -2.6465528e-07 9.983376e-07 -2.2506643e-05 2.4586014e-05
000080 ea bd 84 b6 a8 a3 5a b6 34 55 50 b7 a0 6b 45 b7
       -3.9560155e-06 -3.2579792e-06 -1.2417604e-05 -1.1767173e-05
000090 6f c6 6c 38 41 af 95 b8 fe 52 f9 b9 39 ac 76 39
       5.645159e-05 -7.137517e-05 -0.00047554815 0.00023524546
0000a0 77 3f ab 39 88 08 06 3a 01 f0 23 b7 14 7c 9f b5
       0.00032662947 0.00051129656 -9.771437e-06 -1.1882535e-06
0000b0 1d 2b cf b9 d3 bc bd bb e2 cb 20 bd de a3 50 bd
       -0.0003951424 -0.005790332 -0.039256938 -0.050937526
0000c0 94 41 27 bc 04 b6 bb 3c 0f 73 a3 3c 4a 8c 83 3b
       -0.010208506 0.02291394 0.019952325 0.0040145265
0000d0 ba 03 bc 3c 78 53 95 bc e3 be b4 3c ec 4c 11 3d
       0.022950996 -0.018228278 0.022063678 0.03547375
0000e0 b5 59 af bc 52 4b c1 3c ff fa eb bd b3 c3 8b 3c
       -0.02140508 0.023595486 -0.11522483 0.01706109
0000f0 e8 a9 2d bd a6 ff 7e 3e b1 44 4f 3c c5 4f 7f b7
       -0.042398363 0.2490221 0.012650655 -1.5217757e-05
000100 b6 e1 1e 3b 62 08 5d 3a aa 5e e7 b7 3a a4 8e 3b
       0.002424342 0.000843173 -2.7581427e-05 0.0043530734
000110 bf 0f 84 3b f3 50 6c b7 3f c7 7b 3a cd 90 62 3b
       0.0040301974 -1.4085544e-05 0.000960458 0.0034571171
000120 ca 9f 06 b8 ad ba 3a b8 7d fa 93 b7 60 31 9d 37
       -3.2096905e-05 -4.451971e-05 -1.7640408e-05 1.873885e-05
000130 84 2d 81 36 e8 03 fc b6 58 3a be b6 a0 70 0e 35
       3.8497983e-06 -7.51064e-06 -5.6692334e-06 5.3063013e-07
000140 10 2b 63 37 e0 8f 04 3d 8a 39 11 3c 29 57 e4 bc
       1.3540281e-05 0.032363772 0.008863816 -0.027873592
000150 5a 6d 56 bc d9 fe 31 3c 7e 86 f3 bc 80 fa b1 bd
       -0.013087595 0.010863983 -0.029727217 -0.08690357
000160 e4 b7 df 3c 01 20 6c bd 7c fc ce 35 c1 aa 25 36
       0.027309366 -0.05764771 1.5421679e-06 2.4686308e-06
000170 e5 e1 af 37 e0 1f 98 35 b7 72 0f 37 1d 57 9c 37
       2.0966816e-05 1.1334159e-06 8.550173e-06 1.8637214e-05
000180 44 44 0b 36 29 a9 10 37 db a4 87 36 8a d1 cb 3a
       2.075235e-06 8.6224545e-06 4.042505e-06 0.0015550118
000190 7b 3e 46 3a eb 2d 8d bb 13 20 48 bc de f1 50 bb
       0.0007562411 -0.0043084524 -0.012214678 -0.0031882445
0001a0 f7 75 e4 39 8c 8c 79 3b c9 3c 1a bc be f3 0e ba
       0.0004357544 0.0038078157 -0.009413906 -0.00054531905
0001b0 46 68 e4 b5 2c 43 ec 36 a6 df d3 b5 1b 12 1f 37
       -1.7017671e-06 7.041168e-06 -1.5785815e-06 9.481354e-06
0001c0 98 8d bb b6 11 ba 9a 36 f8 fd 67 36 f2 cf 46 b7
       -5.589518e-06 4.6112186e-06 3.4569512e-06 -1.1850136e-05
0001d0 e1 47 fe 35 4c c9 0a b7 17 37 42 36 be 44 2b 37
       1.8945394e-06 -8.272309e-06 2.894032e-06 1.02083995e-05
0001e0 00 3d b3 36 71 87 63 39 a9 3d 80 3a 06 f7 22 36
       5.341717e-06 0.00021698863 0.0009784001 2.4283668e-06
0001f0 ab 52 15 3b 9f 0e 8c b8 73 26 9a b9 72 ea b9 b9
       0.002278487 -6.6784436e-05 -0.00029401816 -0.00035460625
000200 4c 5b 36 3b 54 a0 6c 38 0f 13 f2 37 0a de 85 3d
       0.0027825413 5.6416102e-05 2.8857523e-05 0.06536491
000210 2e 0d ac ba 1f 6f a2 b8 b8 fc 04 3d fc 9a 84 b7
       -0.0013126486 -7.74546e-05 0.032467574 -1.5807796e-05
000220 09 fc 6e 37 88 eb 7f 38 a4 77 a5 35 34 c1 16 3b
       1.4244587e-05 6.1016093e-05 1.2328278e-06 0.0023003342
000230 84 05 04 39 4a 59 4b b7 5a 32 6e 38 e2 36 61 36
       0.00012590556 -1.2120532e-05 5.6790515e-05 3.3559559e-06
000240 e7 04 23 3b 42 7a 20 bc f8 8b 79 3d 69 d9 54 3d
       0.0024874748 -0.0097947735 0.0609245 0.05196515
000250 81 a7 82 3c 32 31 13 bb e5 8f ab bc 7d 5a f1 bc
       0.015949013 -0.0022459743 -0.020942638 -0.029462093
000260 ec 39 91 bc 10 1f 2b 38 f6 c7 35 38 44 0a 58 b8
       -0.017727815 4.0798506e-05 4.333999e-05 -5.1507974e-05
000270 1c 8c 1e 38 aa 9d a2 b7 2d bd 78 3a ba c2 79 38
       3.7800623e-05 -1.9385323e-05 0.00094886386 5.954758e-05
000280 5c d5 ce 36 37 36 32 39 f4 9e 8d b9 32 95 92 3b
       6.1641167e-06 0.000169956 -0.00027012045 0.004473352
000290 01 0e 3f 3b 8d e9 72 3b 0d 2d 73 bc 0a 8e d1 bb
       0.0029152634 0.0037065477 -0.014842284 -0.006395106
0002a0 7b eb 9c 3b 40 d3 87 bc 00 d8 83 b9 95 95 0d b6
       0.0047888136 -0.016580224 -0.000251472 -2.1097705e-06
0002b0 b4 bb 91 b5 52 fb 38 37 c9 3a 0b 37 20 91 a3 b6
       -1.0857971e-06 1.102577e-05 8.298733e-06 -4.8746733e-06
0002c0 1d a7 95 36 92 03 1a b6 3a c5 44 b5 34 c4 88 b8
       4.4600006e-06 -2.2949866e-06 -7.330269e-07 -6.521531e-05
0002d0 a5 48 ef 35 ba 12 fd b5 e4 c2 31 35 a0 8f 58 b6
       1.782803e-06 -1.8855419e-06 6.622124e-07 -3.227011e-06
0002e0 00 4f 17 b6 4b 51 78 b6 ad c3 61 37 e6 40 5d 36
       -2.2546737e-06 -3.7002198e-06 1.3456604e-05 3.2969342e-06
0002f0 1d 22 fe b5 2a 81 d2 36 af 3d cb 36 5e a8 20 b6
       -1.8934403e-06 6.2735244e-06 6.0570524e-06 -2.393986e-06
000300 3c 85 80 37 00 7d 5e b6 e3 e8 10 b8 a9 f6 8d 37
       1.5320831e-05 -3.3153337e-06 -3.4549168e-05 1.692337e-05
000310 f1 95 85 b7 1e 11 ee 37 c0 20 01 bd c1 23 74 bd
       -1.5924657e-05 2.8379782e-05 -0.031525373 -0.05960441
000320 83 ca f7 3c c1 af be bb 6c d6 02 bb 6e 21 e0 3a
       0.030247932 -0.0058192913 -0.0019964231 0.0017099807
000330 12 1a 9d bc dc 8c 1c 3d ae 5d 48 bd 88 53 47 ba
       -0.01917747 0.03822027 -0.048917465 -0.00076036947
000340 68 c9 b9 b6 d8 6a ea b6 c4 bb 80 37 c7 1c 05 3b
       -5.5368764e-06 -6.9861817e-06 1.5346224e-05 0.0020311342
000350 c9 54 00 b7 cc 98 66 ba c2 ac 71 b9 db 8a 15 39
       -7.649135e-06 -0.0008796572 -0.00023047908 0.00014261475
000360 06 80 63 bb 94 72 10 bc c9 60 48 bb 5d d2 0b bc
       -0.003471376 -0.00881638 -0.0030575267 -0.008534041
000370 54 11 a8 3c 35 48 20 3b 1b 06 96 bc 61 50 0e 3d
       0.020516075 0.0024457101 -0.018313458 0.034744624
000380 0a 60 9a 3b 93 fa 8d 3b 0b 59 6b 3d 91 83 78 3d
       0.004711156 0.0043328493 0.057457965 0.060672347
000390 91 09 25 3d 38 9b f5 3c d8 71 e7 3c be 19 7a bd
       0.040292326 0.02998124 0.028252527 -0.061059706
0003a0 f2 d9 cd bc 43 f9 72 3b fe 30 fa bc 7c af 34 bd
       -0.025128338 0.003707484 -0.03054094 -0.044112667
0003b0 58 0e 32 bc 10 de 75 bb 78 c4 db 3c ca 66 61 3c
       -0.010867678 -0.0037516393 0.026827082 0.013757417
0003c0 d7 e1 2d bd 22 fd 55 3c 3b dd 3e bd e1 53 67 37
       -0.042451706 0.01306084 -0.0465977 1.37882025e-05
0003d0 b7 07 77 b7 ab 23 30 b6 61 58 cf 37 f3 e6 c2 35
       -1.47241435e-05 -2.6246805e-06 2.4717478e-05 1.4521341e-06
0003e0 46 25 9f b6 49 f8 1e 37 fb 51 cb 35 8a 6a 2a b6
       -4.7429085e-06 9.475342e-06 1.5148538e-06 -2.5393988e-06
0003f0 81 c0 c3 bb ae bd 4e bc 62 98 5e bb a9 8a 44 bc
       -0.005973876 -0.012618465 -0.003396534 -0.01199595

dense.0.bias f4 [128]
000000 ff 6f b6 3c 97 91 75 3d 12 23 b0 3c 76 82 0b bc
       0.0222702 0.0599533 0.021501098 -0.008514991
000010 90 67 8d 3c d8 8d e3 38 5c cc 44 bc 87 2a a9 3c
       0.017261297 0.00010850624 -0.012011614 0.020650161
000020 ef dc 61 bc f0 30 2d 3d 9f a7 1b 3b 15 ae 1b bc
       -0.013785585 0.042283 0.0023751033 -0.009501954
000030 3d ed 33 bc 4b 4e b3 bc c0 2b c6 ba 35 88 f9 b7
       -0.010981855 -0.021887919 -0.001511924 -2.974654e-05
000040 63 47 bd 3c d1 ca 66 37 92 8a 79 bb 62 3b c1 3c
       0.023105329 1.375629e-05 -0.003807698 0.023587886
000050 72 be 19 3a fb 27 d9 3c 88 ad b1 37 09 3a 48 3d
       0.00058648654 0.026508322 2.1180851e-05 0.04888347
000060 8c c5 29 bc 7a 0f 0d 3d 6e 13 b5 bc 96 89 c7 3b
       -0.01036204 0.034438588 -0.022103991 0.0060893996
000070 f5 ec b3 bc 93 51 ac bb 64 14 83 3d f0 1b dc 3c
       -0.021963576 -0.005258748 0.064003736 0.02686879
000080 0d ef b8 ba 64 76 41 3d 8c 6c b7 bb 99 e4 5b 3d
       -0.0014109329 0.047232047 -0.0055976566 0.053684805
000090 97 35 84 3d a2 db 95 3d 8a 61 34 3d fe ce e2 b6
       0.06455534 0.07317282 0.044038333 -6.759422e-06
0000a0 57 2b f7 bc 71 7b aa bb f6 91 40 39 28 10 fb bc
       -0.030172033 -0.0052027036 0.00018364922 -0.030647352
0000b0 cf 7c 0a 3d 73 36 43 b9 46 17 46 bc 22 43 43 bc
       0.033810433 -0.00018616933 -0.01209051 -0.011917861
0000c0 7f 37 a0 3b 9b 37 89 bc 65 62 78 bb 74 2c f5 b9
       0.004889428 -0.016750148 -0.0037900445 -0.00046763162
0000d0 36 de ee 3c 50 9d aa bb ff 9a fa bb aa 3c 30 bc
       0.029158693 -0.0052067414 -0.0076478715 -0.010756651
0000e0 21 77 62 bc ad 1f df 3c e9 0b 80 3c 58 f2 76 36
       -0.013822348 0.027236784 0.01563068 3.679792e-06
0000f0 bb cf b3 ba a2 08 a0 3c 74 e2 ca 38 46 b2 1b 38
       -0.0013718525 0.019535366 9.674291e-05 3.712091e-05
000100 e2 c4 37 ba ee dc 03 bc c9 dc a6 3c 90 f0 07 3d
       -0.0007010234 -0.008048279 0.02036895 0.033188403
000110 4f 43 06 3d 83 41 20 3d 52 12 d3 3c 35 9f 11 ba
       0.032779034 0.039124977 0.025765572 -0.0005555035
000120 4b 45 04 bc 06 59 50 3b f9 58 82 b7 ad 4b 20 37
       -0.008073161 0.0031791343 -1.5538639e-05 9.554363e-06
000130 63 b8 80 3c 48 01 2b 3a c6 f0 49 bd 9c 53 37 ba
       0.015712922 0.0006523323 -0.049301885 -0.0006993355
000140 31 a7 8f 3c 2c f8 37 bc 57 8d 30 bd c7 89 e5 3a
       0.017535778 -0.011228602 -0.043103542 0.0017512374
000150 5c a1 83 ba 93 30 05 bc cb 78 43 ba e2 79 14 3a
       -0.0010042596 -0.008129257 -0.0007456659 0.0005663914
000160 18 ac a1 bc 6c e3 45 b9 31 88 27 3d d1 0b 8e 3d
       -0.019735381 -0.00018872105 0.040901367 0.069358476
000170 e2 c8 85 ba aa 29 80 38 e2 ed 50 3d 61 86 c9 3d
       -0.0010206962 6.111276e-05 0.051008113 0.09840084
000180 36 07 8f b8 e4 86 0b bc 06 9c e4 bc 66 a5 88 3d
       -6.8201145e-05 -0.008516047 -0.027906429 0.06672172
000190 ba 88 d3 3b 46 99 59 bc 89 e0 1e b8 8e 1a a3 b7
       0.006455508 -0.013281172 -3.787925e-05 -1.944348e-05
0001a0 d9 da f5 38 6b 32 3d 3d de 8d 37 bb ab f1 fe 37
       0.00011723274 0.04619066 -0.0028008143 3.0391695e-05
0001b0 0c 4d cd bb 39 3a 7c 3d f7 93 9e 39 06 d7 21 b8
       -0.006265288 0.061578963 0.0003024635 -3.8585647e-05
0001c0 c7 1b 6e 39 bb d3 87 3c 41 f5 94 3d 04 96 9f 3d
       0.00022707797 0.016580453 0.07273341 0.07792285
0001d0 a9 a2 3b 3d de c1 37 bc 43 e5 30 3d e7 19 19 3d
       0.04580942 -0.011215655 0.04318739 0.037378218
0001e0 64 98 0c bd 71 a4 dd b9 dd f1 20 3a 94 4d 24 3c
       -0.03432502 -0.00042274923 0.0006139556 0.010028262
0001f0 2f 82 f9 38 0b cf 13 bd d8 8b 31 bb a9 00 cf bb
       0.00011897494 -0.036086123 -0.002709141 -0.0063172174

dense.2.weight f4 [10, 128]
000000 18 33 b5 bd 6d 47 2a bd 10 9c f9 bc 59 7f 43 3c
       -0.08847636 -0.041572023 -0.030469924 0.0119322175
000010 9d 42 aa bd bc d4 95 3d 57 04 07 3e 96 56 c4 3d
       -0.08313487 0.073159665 0.1318525 0.095868275
000020 d0 65 ab 3d 93 a9 3e ba 91 8a 5e bb e8 4f fc 3d
       0.083690286 -0.00072731933 -0.0033957104 0.123199284
000030 e7 22 d3 3b a0 e4 94 3c 85 b3 56 ba 23 dd 93 bc
       0.0064433697 0.018175423 -0.00081902026 -0.018049782
000040 7f d1 15 3d 05 e6 c8 3b 59 0d 0a 3d f4 c2 d7 3d
       0.036576744 0.006130936 0.033704136 0.10535231
000050 30 a9 da 3c 28 9a 0d be 4f 37 c3 39 83 19 17 3d
       0.026692003 -0.13828337 0.00037234506 0.036889564
000060 c6 f4 9f bd 75 11 40 bb ad 1f c3 3c 85 7c 9c bd
       -0.07810359 -0.002930728 0.023818815 -0.07640938
000070 53 bf a4 3d 5f de bb bd 23 73 a2 bd c9 39 fd bb
       0.08044305 -0.09173273 -0.07932117 -0.007727836
000080 f9 07 24 bb 89 c4 c3 bd 8b e4 80 bd c2 ad 99 3d
       -0.0025029166 -0.095589705 -0.06293591 0.07503845
000090 24 d2 fe bc 08 38 b8 bd d4 df 35 be 34 c6 fa 3c
       -0.031106062 -0.08995062 -0.17761165 0.030612089
0000a0 ce 0e 3e 3b d8 e0 19 bd 35 98 5b 3c 50 69 56 3c
       0.0029000524 -0.037567943 0.013402988 0.013086632
0000b0 f0 f2 32 bd 01 d2 fa bc d7 4a bd bd 27 75 ea 3c
       -0.043688715 -0.030617716 -0.0924279 0.028620316
0000c0 08 f2 fb bc a5 18 c6 bc dc c2 09 3b 52 59 3f 3d
       -0.030755058 -0.024181673 0.0021020686 0.046716042
0000d0 1d 34 ab 3d 6c 87 4f b6 41 c1 f8 bc 85 56 d4 bd
       0.08359549 -3.092423e-06 -0.030365588 -0.10368065
0000e0 b2 42 06 3e 34 b7 b5 3d e3 98 ac 3d 91 d2 36 bc
       0.1311138 0.08872834 0.08427598 -0.011158601
0000f0 10 aa 31 3d 77 b5 04 be b0 e7 ce 39 d1 1b 31 bd
       0.043375075 -0.12959848 0.00039464002 -0.04323942
000100 6e 88 5d bd a4 12 fb ba 28 fd 62 3d 35 91 e8 bd
       -0.054085188 -0.0019155336 0.05541721 -0.11355821
000110 ee ef 7b bc d2 81 59 3c a3 5b 92 bd d5 91 85 39
       -0.015377028 0.0132755805 -0.071463846 0.0002547639
000120 1b 8e 89 bb f7 47 21 bc 0f 1b fd 36 b2 91 80 3b
       -0.0041978485 -0.009843818 7.5431376e-06 0.0039236182
000130 73 46 44 bd 23 4c 16 bd 55 35 cc 3c cc 8e da 3d
       -0.047918748 -0.036693703 0.024927774 0.106717676
000140 ed 18 7e bd 00 b1 16 3e dd aa 29 bd bf 38 e7 3b
       -0.06203549 0.14715958 -0.041422714 0.007056325
000150 62 1d 81 bd f7 27 ab bd 26 6c 2b 3d cf 80 33 bc
       -0.063044325 -0.08357232 0.041851185 -0.010956003
000160 8a b6 c7 bd b0 5e 6e 3b 13 12 f3 bd 5e 10 dc bd
       -0.097516134 0.0036372356 -0.11868682 -0.10745309
000170 3a 62 c5 3c 38 b6 e6 bc 94 2f f1 3d 96 1f 07 be
       0.02409469 -0.02816306 0.11776653 -0.13195643
000180 9b 05 8f 3d 1f 36 15 bc 99 35 8f 3d 75 dc 8e bd
       0.06983491 -0.009107142 0.06992645 -0.069756426
000190 d6 39 16 3d 4e 26 d9 bc 61 ce 13 3b d1 7f 8b 3a
       0.03667625 -0.026507523 0.0022553431 0.0010642951
0001a0 c8 b5 24 bb 83 c5 a1 3c f9 cc af bb db 63 cf 3c
       -0.0025132764 0.019747501 -0.005365011 0.02531617
0001b0 18 f6 d9 3c 87 95 ad 3d 2e 85 ba bc bd 5c 4f b9
       0.026606604 0.08475786 -0.022768583 -0.00019775606
0001c0 8d aa 02 3d 2c e7 11 3e ce 90 de 39 0a df ee bd
       0.03190093 0.14248341 0.00042451028 -0.11663635
0001d0 ec 47 0e be bf 5b a4 bd e0 d4 0b be 08 a5 90 bd
       -0.13894624 -0.08025312 -0.13655424 -0.07062727
0001e0 2f b7 87 3d fa c6 a2 bc 06 ce b6 3d 9b 66 af 3b
       0.066267364 -0.01987027 0.089260146 0.0053528077
0001f0 a3 64 08 ba 3c 90 23 3e 8f 6b 89 3d 6e 8b aa bd
       -0.00052029843 0.1597299 0.06709968 -0.08327375
000200 92 b4 5a 3d 1b 8b 7f bd 47 7e 26 be 5d df 01 bc
       0.05339486 -0.06238852 -0.16259108 -0.007926789
000210 86 d9 ce 3c 1b 49 71 bc 9b 50 80 bd 6d 96 26 be
       0.025250208 -0.014726902 -0.06265374 -0.1626832
000220 06 eb 10 3d 16 7e fb 3c cd ba be 3c b1 f7 6a bd
       0.035380386 0.03069977 0.023282433 -0.057365123
000230 d8 55 11 3b 79 0c 9b bd 88 a2 9f 3c 46 01 64 3a
       0.002217641 -0.07570738 0.01948668 0.00086976995
000240 ea a5 2c 3d df ef c2 bc cd 1b 89 bd 5e 56 80 bd
       0.042150415 -0.02379602 -0.06694756 -0.06266473
000250 9c 08 47 3d 04 ed af bc d4 dc 91 37 7c 2c 5c 3d
       0.048592195 -0.021475323 1.7388178e-05 0.05375336
000260 9b 70 51 bd b9 4d fb 3d f6 6c b8 3d 3d ee f6 3d
       -0.05113278 0.12270684 0.09005158 0.12057159
000270 e4 fe 73 3d 67 0e b4 bd dd 18 52 3d df 0d f5 3d
       0.059569255 -0.087918095 0.051293243 0.11965536
000280 6c 56 3c bd b3 d8 c9 bc 6c 5a 12 bd 2f 78 cd 3d
       -0.045980856 -0.024639463 -0.035730764 0.10032689
000290 7a 8c bb 3d 0e 8b 18 3e 1c b5 e1 bd 79 9e 5b 3c
       0.09157653 0.14896795 -0.11020872 0.013404482
0002a0 6b 5c 35 bd 85 13 7a bc eb 6a 24 3d 20 06 52 bd
       -0.04427759 -0.015263443 0.040141027 -0.051275373
0002b0 fc e3 c5 3b 50 6a 39 39 17 9e df 3c e1 9e 0b bd
       0.0060391407 0.0001768258 0.027297063 -0.034087066
0002c0 28 79 62 bd 70 a3 75 3d 20 54 1c 3b 20 25 60 3d
       -0.055291325 0.05997032 0.0023853853 0.054722905
0002d0 e5 1c 5a 3d 18 71 7f 36 89 2a 38 bb 0b 42 c5 bc
       0.053250212 3.806379e-06 -0.0028101525 -0.024079343
0002e0 c7 6f 6f bb e5 ad 2b 3d 60 06 9b bd e4 44 c8 bd
       -0.003653513 0.041913886 -0.07569575 -0.09778765
0002f0 a0 94 80 3d b3 f2 92 bb 13 6d ff 3b cf 37 09 bd
       0.06278348 -0.0044844984 0.007794985 -0.03350049
000300 fc 9e 04 3d 6c c6 fd 3a 0f ed 85 bd b8 f4 c0 b8
       0.03237818 0.0019361502 -0.06539356 -9.200856e-05
000310 6e 38 85 3d 04 50 33 3d 39 ac 7f bc 19 0a 7f b8
       0.06504904 0.04377748 -0.015605026 -6.0806142e-05
000320 75 25 4e 3b af c6 37 3d f0 9f 11 b7 8b 61 97 b5
       0.0031455432 0.044867214 -8.679912e-06 -1.1278765e-06
000330 b4 cc 92 bd 09 70 c8 3d 61 dd ae bd bb c2 8b 3d
       -0.0716795 0.09786994 -0.085383184 0.06824251
000340 a2 3a 80 39 11 f7 bc bd c4 98 1e bc ef 75 89 3d
       0.00024457747 -0.09226812 -0.009679977 0.06711947
000350 e9 7b 89 3d 70 4c c7 bd ee c7 ef 3c d9 ae d7 bd
       0.06713087 -0.09731376 0.029270139 -0.105313964
000360 86 cb ed 3d 15 b9 d6 bb e4 1e a7 3d 61 22 21 3d
       0.11611085 -0.006552825 0.08160189 0.039339427
000370 b9 20 48 3c 84 d9 1b 3d 85 a4 69 3b ff 99 a1 3d
       0.012214833 0.038049236 0.003565104 0.078907005
000380 82 e7 91 3c c7 a9 01 3d 00 6d 66 bd 2c a4 43 3d
       0.017810587 0.031656053 -0.056256294 0.04776399
000390 0a 94 85 bc b1 69 b0 3d f1 43 28 3b 6b d9 3d bc
       -0.016305942 0.08613909 0.0025675262 -0.011587481
0003a0 3a f3 1a 3b 52 c2 ec bd 50 8b dd b9 1f 11 89 bb
       0.002364351 -0.11560501 -0.000422562 -0.004182949
0003b0 31 09 1b bd 2b 3a ff 3d 72 05 07 bd 99 e2 b4 38
       -0.037850562 0.124622665 -0.032964177 8.625276e-05
0003c0 22 3c d5 bc 63 d0 7d bd 3a 8c 37 3c 15 65 0a 3e
       -0.02602965 -0.06196631 0.011202866 0.13515122
0003d0 24 1c 9e 3d 81 0c a0 3c dd a1 e5 3d 06 5a f7 bc
       0.07720211 0.019537212 0.112125136 -0.030194294
0003e0 12 c2 e4 bb 87 94 74 bc 5b c8 ce 3d ad 2c 99 3d
       -0.006981143 -0.01492799 0.100968085 0.07479224
0003f0 b2 bc db 3b 76 3f e4 bd 07 ad a5 bc 5a ab a7 bd
       0.006705844 -0.11144917 -0.020224107 -0.081869796

dense.2.bias f4 [10]
000000 37 da e6 3c f9 2e f6 3c f9 60 8c bd 03 ef a1 3c
       0.028180225 0.030051695 -0.068544336 0.01976729
000010 c5 be 50 bd 9a 67 42 3c 3f b6 be bd 91 cd 10 bd
       -0.050963182 0.011865521 -0.093121044 -0.035352293
000020 50 5e de 3d 57 05 14 bd
       0.108578324 -0.036137905
