classify_pytorch/output/params_yl.pth (torch, 528775 bytes, 10 tensors)

conv1.0.weight f4 [32, 3, 3, 3]
000000 f6 69 90 3e fa e1 46 3e e4 5f 1b 3e be d7 57 bc
       0.28205842 0.1942214 0.15173298 -0.013173996
000010 49 85 15 3d 4f 3b ac 3c 04 62 99 be 82 77 8f be
       0.036504064 0.021024374 -0.29957592 -0.28020865
000020 ff df 48 be a9 2e 84 3e aa 94 53 3e db c7 49 3e
       -0.19616698 0.2581685 0.2066218 0.19705145
000030 28 58 29 bc cb 18 29 3d 15 54 85 3c 58 b9 96 be
       -0.0103359595 0.04128341 0.016275445 -0.2943828
000040 8c b2 8a be a8 58 4c be 33 81 85 3e 77 93 53 3e
       -0.27089345 -0.19955695 0.26075134 0.20661722
000050 e9 7d 41 3e f2 23 4d bc d7 4a 5e 3c 3f 6f f1 3c
       0.18895687 -0.012520777 0.013567648 0.029471992
000060 26 70 9a be ab 54 7e be 25 cd 48 be 52 da 12 be
       -0.30163687 -0.24836986 -0.19609506 -0.14341095
000070 3d 5c cf be fc 02 9c be 61 13 ab 3c ec 46 ac bc
       -0.4050006 -0.30471027 0.020883264 -0.021029912
000080 89 c2 88 3d bb 57 ba 3e cf 6b 9f 3e 27 9d 84 3e
       0.0667773 0.36395058 0.3113694 0.25901148
000090 e3 f3 0c be be 88 d7 be fc 4a 8a be a5 f9 ca 3c
       -0.1376491 -0.42096514 -0.27010334 0.024777243
0000a0 f5 61 57 bd 63 e2 0a 3e 72 aa a8 3e bf 01 29 3e
       -0.052583653 0.13562922 0.3294254 0.16504572
0000b0 80 79 a4 3d 83 8b 11 be 90 2e cb be bf 30 78 be
       0.08030987 -0.14213376 -0.39683962 -0.24237345
0000c0 90 99 14 3d c9 09 b7 3c b0 d8 d2 3d 9a 54 9a 3e
       0.03627926 0.022343533 0.10295236 0.3014267
0000d0 2f d3 74 3e 3c 78 dc 3d 69 36 f0 3d d7 62 fa 3d
       0.23908685 0.107651204 0.11729128 0.122258835
0000e0 86 f8 47 be cd 05 05 3e 40 03 b6 3c 9a 40 3c be
       -0.19528398 0.12990494 0.022218347 -0.18384019
0000f0 3f 12 88 3d 84 2d 14 3e 48 ea db bd 39 11 59 3d
       0.06644105 0.14470488 -0.10738045 0.05299494
000100 9d 81 a4 3d b1 78 4e be aa c6 15 3d 4c 05 92 3d
       0.08032534 -0.20163228 0.036566414 0.071299165
000110 e4 97 42 be 76 55 b4 3d f0 2b 90 3d 21 77 81 bd
       -0.19003254 0.08805363 0.070396304 -0.0632155
000120 d8 24 fa 3d 69 39 fb 3d 7b 6d 3e be 17 c4 d7 3d
       0.12214059 0.122668095 -0.18596451 0.10535448
000130 c0 bc bd bc d6 2f 3f be 51 95 ea 3d ba 90 11 3e
       -0.023161292 -0.18670592 0.11454261 0.14215365
000140 34 06 dc bd c9 02 56 bb 7c ac 9e bb e5 c7 91 bb
       -0.10743371 -0.0032655469 -0.004842339 -0.004448878
000150 13 1a ab bb a0 b0 d4 bb d8 11 c2 bb 44 e5 9b bb
       -0.005221614 -0.006490782 -0.0059225373 -0.004757555
000160 17 cc ba bb 0c 64 93 bb 01 03 56 bb 7c ac 9e bb
       -0.005700599 -0.0044980105 -0.00326556 -0.004842339
000170 e9 c7 91 bb 21 1a ab bb 95 b0 d4 bb c5 11 c2 bb
       -0.00444888 -0.0052216207 -0.006490777 -0.0059225284
000180 20 e5 9b bb 36 cc ba bb 0c 64 93 bb 05 03 56 bb
       -0.0047575384 -0.0057006134 -0.0044980105 -0.0032655608
000190 7a ac 9e bb e1 c7 91 bb 21 1a ab bb a4 b0 d4 bb
       -0.004842338 -0.0044488763 -0.0052216207 -0.0064907838
0001a0 d8 11 c2 bb 43 e5 9b bb 2f cc ba bb 0c 64 93 bb
       -0.0059225373 -0.0047575547 -0.00570061 -0.0044980105
0001b0 be f6 57 bd 29 0b b3 bd 1a dc 61 3c cf 27 41 bd
       -0.052725546 -0.08742363 0.013785386 -0.047157105
0001c0 ca 14 89 bd a3 2b bd 3d 8b aa 23 bd 49 87 fc bd
       -0.06693418 0.09236839 -0.039957564 -0.12330491
0001d0 94 5c f9 3c bf f6 57 bd 80 bb b4 bd f2 86 c6 3d
       0.030439653 -0.05272555 -0.08824825 0.096937075
0001e0 f4 26 41 bd 18 72 9b bd 30 9c 57 3d 88 48 24 bd
       -0.04715629 -0.07590121 0.052639186 -0.040108234
0001f0 1b 24 cc bd 35 c2 0e 3e c9 f6 57 bd fd 09 a5 bd
       -0.09967824 0.13941272 -0.052725587 -0.08058546
000200 71 7f a7 3d 55 28 41 bd e4 2b 9c bd 35 39 83 3d
       0.081786044 -0.047157604 -0.07625559 0.06407396
000210 cd be 24 bd fe 50 85 bd 26 8b 90 3d b9 2c be bd
       -0.040221024 -0.06509589 0.070577905 -0.09285874
000220 cc 21 17 be bd cd 2b 3d cd 8a 0d be b7 2a 42 3d
       -0.14758986 0.041944254 -0.1382248 0.047404017
000230 02 77 7a 3d f0 6d 2d be e0 25 4a bc 3d a5 35 3e
       0.06114865 -0.16936469 -0.012338132 0.17738815
000240 c8 6d be bd 58 14 1c be a8 54 24 3e fa 5e 0c be
       -0.09298283 -0.15242136 0.16047919 -0.13708106
000250 50 58 07 bc d7 aa 32 3e a9 5a 1a be f8 63 3d 3c
       -0.008260801 0.17447983 -0.15073647 0.011559479
000260 de e1 06 3e 96 86 be bd 1f e2 d1 bd 49 2d 18 3e
       0.13172099 -0.09303014 -0.10248207 0.14861025
000270 ae 6d 0c be f4 6a c6 3c c5 12 cb 3d 5e d0 2e be
       -0.13713714 0.024220921 0.099156894 -0.17071673
000280 5a bc 14 3d 2c 8a 92 3c ee 57 21 3e ca 63 65 be
       0.03631244 0.017888151 0.15756199 -0.22401348
000290 35 8b ad be 43 43 a3 3e 8d 67 9a 3b 1b 89 a3 be
       -0.3389527 0.31887254 0.0047120512 -0.3194054
0002a0 ac 56 73 3e d7 b6 7a 3e 0e c8 75 bc 1b f0 26 3e
       0.23763531 0.2448381 -0.01500131 0.1630253
0002b0 e1 a9 2c be 32 53 b1 be 28 ec ab 3e 40 45 2f b8
       -0.16861679 -0.34633785 0.3357861 -4.1787745e-05
0002c0 71 fe a0 be 01 8f 50 3e c8 6c 71 3e ce 72 32 bc
       -0.31444123 0.20367052 0.23576653 -0.010891629
0002d0 c6 a9 f1 3d 6f 70 4d be 2f bc ac be 48 2f 84 3e
       0.1179996 -0.20062421 -0.33737323 0.25817323
0002e0 16 89 2c 3c e8 12 a5 be 6e 4a 81 3e 07 68 73 3e
       0.010530731 -0.32240987 0.25252098 0.23770152
0002f0 1a 89 81 bc 15 7c 71 3d 0b bd 83 bd bf d9 ae be
       -0.015812445 0.058956224 -0.064325415 -0.34150502
000300 63 8b 1a 3e 38 d2 85 3e aa 62 ae 3c ea 59 80 bd
       0.15092234 0.26136947 0.021287281 -0.0626715
000310 97 54 c2 3d 66 d9 f8 3d 1c 13 af 3d 59 11 e9 bd
       0.094887905 0.121508405 0.08548567 -0.11380262
000320 d5 4e 97 be a1 ea b5 3d e5 52 7e 3e dd f8 e8 3c
       -0.29552332 0.088826425 0.24836309 0.02843898
000330 24 3d db bd 79 26 05 3e c4 70 eb 3d ce d7 86 3d
       -0.10705021 0.13002957 0.11496118 0.0658413
000340 40 b3 cf bc e1 3d a6 be 14 f1 23 3e ab eb 39 3e
       -0.025354028 -0.32469085 0.16009933 0.18156306
000350 ee 10 96 bc 3e a9 67 bd 8c a5 ca 3d 34 99 a2 3d
       -0.01831862 -0.056557886 0.09894857 0.079393774
000360 b2 ad 47 3e b3 ba 9c 3d 9b a6 68 be fb 73 50 3e
       0.19499853 0.076527975 -0.22719805 0.20356743
000370 2d bb 76 bd 2d 53 77 be 5e 4d 5b bc c1 43 8d be
       -0.0602371 -0.24152823 -0.013385145 -0.27590755
000380 e6 33 18 be 5b cf 86 3e f3 66 5a 3d de 47 68 be
       -0.14863548 0.26330075 0.053320836 -0.22683665
000390 45 ec 73 3e f5 50 70 bd 88 50 77 be 51 c9 c2 bc
       0.23820598 -0.058670957 -0.24151814 -0.023777636
0003a0 f7 50 8c be 1a 33 18 be 0d 02 9d 3e 95 4e 8b 3d
       -0.2740552 -0.14863244 0.30665627 0.06802098
0003b0 a1 31 6c be 01 be 80 3e f4 f0 85 bd 24 4d 77 be
       -0.23065807 0.2514496 -0.06540099 -0.2415052
0003c0 33 c5 a5 bc 61 e8 8b be 60 33 18 be 1a 22 06 3a
       -0.020235633 -0.2732573 -0.14863348 0.0005116776
0003d0 2a 80 fb bb ef 41 d4 bc 8e 55 80 3a 64 3e 82 bc
       -0.0076751905 -0.025910346 0.0009791122 -0.01589889
0003e0 28 01 29 3b f4 a4 52 bc 41 fb 8e bc 89 e2 1d 3d
       0.0025788043 -0.012856711 -0.017453792 0.03854612
0003f0 aa 21 06 3a 26 80 fb bb 6a bf db bc 8e 55 80 3a
       0.00051167107 -0.0076751886 -0.026824672 0.0009791122

conv1.0.bias f4 [32]
000000 3d bd a0 bc 57 e3 03 3b be 6a 0a be a6 e8 9e bc
       -0.019621486 0.0020124519 -0.13517281 -0.019398045
000010 87 63 62 bd 6f 79 0c bc b9 f9 1b be 7a 99 80 be
       -0.055270698 -0.008573874 -0.1523198 -0.25117093
000020 d4 e7 11 3d ac d2 6b bc 6e e2 ec bd 1d 34 38 bb
       0.03562148 -0.01439349 -0.115666255 -0.0028107234
000030 f6 07 9c 3c ab ea 49 bc b4 fe e9 bc 50 12 43 bd
       0.019046765 -0.012324016 -0.028563835 -0.047624886
000040 f7 89 aa 3d fb 14 86 b2 3d 0b 2d be 3c 31 5c be
       0.08327096 -1.5609194e-08 -0.16898818 -0.21503156
000050 4b c2 9d bc 59 87 10 bc b0 7a c7 bd 90 a4 fe bc
       -0.019257685 -0.008821332 -0.09740198 -0.031084329
000060 28 c8 94 bc 0a db bc bd 30 a3 f0 bd ed ad d5 bd
       -0.018161848 -0.09221466 -0.117498755 -0.10433564
000070 6f 63 bb bc 8d 26 12 3d 9b f1 08 bd 91 f4 6b bb
       -0.022874562 0.035681296 -0.033433538 -0.0036003927

conv2.0.weight f4 [64, 32, 3, 3]
000000 87 2c 32 3b 95 f1 31 3b 84 12 7d 39 f7 bb 45 3b
       0.0027187185 0.002715205 0.00024134858 0.003017185
000010 15 ac e0 39 1e 05 98 ba f1 04 22 3b b7 fa e9 3a
       0.0004285282 -0.0011598205 0.0024722184 0.0017851208
000020 36 68 0f 3b 70 5b 09 3b ef 7e a9 3a 32 64 7d 3b
       0.0021882183 0.0020959042 0.0012931506 0.0038664457
000030 63 d3 b0 3a ef f8 04 3b 1e 90 03 bc ce 55 3b 3b
       0.0013490733 0.0020289978 -0.008029966 0.002858508
000040 78 d9 32 bb a8 8d 89 bb 8a 87 e4 ba c0 b6 27 3b
       -0.0027290266 -0.004197795 -0.0017435413 0.0025591105
000050 79 fc 9a ba 55 51 90 39 17 64 45 3a ef b3 1a ba
       -0.001182451 0.00027526417 0.0007529868 -0.0005901446
000060 35 27 43 3b 6a 5d c5 39 10 fe 4a 3b 4c a4 08 28
       0.0029778008 0.00037644367 0.0030974187 7.585143e-15
000070 e6 cd 44 a8 5a ba 12 a8 02 a8 7b 28 5f 6d a2 a7
       -1.0924833e-14 -8.145037e-15 1.396973e-14 -4.5082613e-15
000080 81 9a 7f 28 cb 26 08 a7 fd 7b 6a 28 56 f3 b8 a7
       1.4188846e-14 -1.8894821e-15 1.3016495e-14 -5.1334084e-15
000090 62 cf 11 3a f3 85 0a 3a e7 1a ea ba 67 4e 85 39
       0.00055622135 0.0005284242 -0.0017860801 0.0002542615
0000a0 18 23 9f 3a 6c e9 8f ba 60 0c 80 38 4a c7 a9 ba
       0.0012141196 -0.0010979599 6.105821e-05 -0.001295307
0000b0 38 97 dc ba ce d1 5f 3a db d0 45 3a 48 52 6a 3b
       -0.0016829735 0.0008538038 0.00075460755 0.003575461
0000c0 cd ef a3 39 b7 38 7e ba b4 d0 30 bb a0 89 b0 39
       0.00031268448 -0.0009697782 -0.0026979866 0.00033671875
0000d0 25 3b 27 3b 34 d8 f1 b9 ef 53 96 bc d0 3c 93 3a
       0.002551743 -0.00046128186 -0.01835057 0.0011233333
0000e0 ed df 3c 3b f7 c9 57 bc 0a b8 3c 3b 72 02 47 3b
       0.0028819994 -0.013170711 0.002879622 0.0030366448
0000f0 0a a9 1e bc 97 b0 1c 3b 88 1f 9b ba 97 91 5a 3b
       -0.009683857 0.0023908967 -0.0011834959 0.0033350938
000100 11 8d a4 ba 60 19 1f bb 57 31 50 3b 54 4f ec ba
       -0.0012554248 -0.00242766 0.003176769 -0.0018029013
000110 02 eb a8 39 45 e7 c9 3a 3e 71 fc 39 10 c1 44 3a
       0.00032218551 0.0015404007 0.00048149558 0.0007505575
000120 e6 90 f1 ba 1f 49 70 3b 3c e3 46 ba bf 31 11 39
       -0.0018430024 0.0036664677 -0.0007586961 0.0001384681
000130 04 a2 7b 3a 3b 33 85 ba 28 15 45 3b d2 c4 e9 39
       0.00095990323 -0.0010162363 0.0030072425 0.00044587866
000140 96 0d 0c ba 0d a5 9c 38 c0 b4 38 39 79 f2 30 b9
       -0.00053426006 7.469403e-05 0.00017614942 -0.00016874996
000150 c6 d1 25 b7 30 b6 47 3a da 66 72 ba df 4f 53 b8
       -9.883608e-06 0.00076183956 -0.00092468935 -5.0380706e-05
000160 3e 08 8a ba 09 96 02 3a 31 b3 e7 bc bb 33 28 bb
       -0.0010531021 0.00049814634 -0.028283687 -0.00256656
000170 43 8f aa ba 7b fe bf bc 94 a5 7a ba 9e 3a c1 bc
       -0.0013012666 -0.023436775 -0.0009561416 -0.023587521
000180 b7 9e 3a bc fc f9 83 bb a3 22 40 bd bc cb b6 b7
       -0.01139038 -0.004027603 -0.046908032 -2.1790962e-05
000190 56 a9 bd b9 92 d6 15 3a 20 5c cc b7 f6 8c 2b 39
       -0.00036175054 0.00057158724 -2.4361594e-05 0.00016360343
0001a0 5e 50 47 b9 76 6a 8a b9 4c d8 34 b8 40 7d 0d ba
       -0.00019008058 -0.0002640073 -4.3116786e-05 -0.0005397387
0001b0 f6 72 f1 b9 28 8a 56 ba 90 15 19 b7 c1 bc aa ba
       -0.00046052755 -0.0008184039 -9.124531e-06 -0.0013026224
0001c0 12 d6 19 ba f4 8c ab b9 58 6d 41 ba 76 e7 18 ba
       -0.0005868386 -0.0003272068 -0.0007378659 -0.000583283
0001d0 f7 25 9a 39 4d 94 70 27 e9 9c 63 27 f0 2f 1e a7
       0.00029401455 3.3387085e-15 3.158764e-15 -2.1952892e-15
0001e0 88 8c 5f 26 21 9f 86 27 57 ae 83 a7 64 e7 47 27
       7.755912e-16 3.7365e-15 -3.6548824e-15 2.7742235e-15
0001f0 77 2a 88 27 1e fe 4d 27 0d d4 06 3b df a0 aa ba
       3.7793623e-15 2.8587222e-15 0.002057317 -0.0013017914
000200 bc 50 57 ba 26 2c 27 3b 6a 6f 81 ba f3 4e c8 b8
       -0.00082136295 0.0025508492 -0.0009875123 -9.5514486e-05
000210 91 61 37 ba 6b 99 ce ba a0 ce f4 ba 00 84 89 b6
       -0.00069954345 -0.0015762275 -0.0018677302 -4.098285e-06
000220 42 1f 82 39 80 e1 32 b9 a2 34 a8 39 b6 62 de b8
       0.0002481882 -0.00017059408 0.00032082672 -0.00010604171
000230 23 52 74 38 2e 5c ee b9 dd 87 04 39 8b f4 15 39
       5.825063e-05 -0.00045463577 0.00012639114 0.00014300847
000240 de f5 da b9 62 eb 01 bb 30 30 83 ba 05 b6 de 39
       -0.00041763386 -0.0019824137 -0.0010008868 0.00042478755
000250 80 cc dc b8 f4 fb 29 3a 2c 55 9f 3a 0c 72 f8 ba
       -0.000105285086 0.00064843823 0.001215612 -0.0018954887
000260 8d 16 e9 ba 20 f0 26 a4 00 60 22 22 8c 19 fb a5
       -0.001778321 -3.6198906e-17 2.2005916e-18 -4.355887e-16
000270 24 87 0c 26 69 b4 4e 26 00 37 54 a4 64 ac 37 a6
       4.8755407e-16 7.171511e-16 -4.601676e-17 -6.372451e-16
000280 11 c0 ad a6 60 37 1e 24 0b 85 9a 3a 3c 91 f0 38
       -1.2056346e-15 3.4307693e-17 0.0011788917 0.00011471144
000290 08 98 d4 37 f8 b3 1f 39 9a 39 b1 38 04 a7 a0 ba
       2.5343164e-05 0.00015230465 8.450747e-05 -0.0012256806
0002a0 e0 d6 aa b9 dc 65 f9 39 53 dc 16 3b 82 1e 0d bb
       -0.0003258502 0.00047568872 0.0023019507 -0.0021533077
0002b0 cf e7 84 39 ae cf 4b 39 01 47 ea 39 4d 38 06 3a
       0.00025349713 0.00019436955 0.0004468486 0.0005120084
0002c0 a4 a5 80 b9 4a 16 e5 39 74 76 7f 3a 06 00 a2 39
       -0.00024537474 0.0004369489 0.0009745129 0.00030899065
0002d0 ed 56 5a a7 80 56 a9 26 06 8b d1 a6 a9 7a 4c a7
       -3.03007e-15 1.1750177e-15 -1.4539971e-15 -2.8377181e-15
0002e0 ba 35 67 a7 a9 18 cf 26 c0 a3 40 25 4c 18 b7 a6
       -3.2086815e-15 1.4370195e-15 1.6708826e-16 -1.2704762e-15
0002f0 72 97 ef a6 d8 3f bb a5 7b 91 0f 27 6e 08 de a6
       -1.6625006e-15 -3.248259e-16 1.9924102e-15 -1.5406629e-15
000300 80 fd 8f a7 4d 02 3a 27 b0 53 8e a7 50 19 25 27
       -3.996532e-15 2.5813933e-15 -3.950365e-15 2.2912072e-15
000310 bc d5 8c 27 d9 9c 83 27 7a d1 55 3a 49 f5 b4 39
       3.9089537e-15 3.652986e-15 0.00081565196 0.00034515027
000320 00 ba 3d b7 eb e8 8e ba b0 61 28 ba 6c 01 70 ba
       -1.1308584e-05 -0.0010903155 -0.0006423248 -0.00091554853
000330 3a 22 28 ba ae c3 19 ba 28 54 c3 b9 07 7e b7 39
       -0.00064137916 -0.00058656454 -0.00037256 0.00034998378
000340 a6 af 85 ba e7 a0 82 ba 34 f3 cd 37 c8 67 a8 b9
       -0.0010199442 -0.0009966166 2.4551155e-05 -0.0003212078
000350 03 d6 b2 ba 33 fe 02 ba f6 60 c3 ba 78 9d 6c 3a
       -0.0013644103 -0.0004996985 -0.0014906216 0.000902615
000360 60 62 0e bb 35 e5 d0 ba 82 bd 5c 39 82 55 8f ba
       -0.0021726117 -0.001593745 0.00021051432 -0.0010935517
000370 dd 3d 3b ba 24 c2 cc b9 91 ba 98 ba 04 07 6e ba
       -0.0007142702 -0.00039054558 -0.0011652281 -0.0009080025
000380 23 fc 70 ba 2c c7 4a b8 f6 3e 2b b7 d8 80 8a 39
       -0.0009192845 -4.8346046e-05 -1.02070535e-05 0.00026417407
000390 25 28 44 38 51 42 2e 39 e4 51 33 3a 9e 7b 44 38
       4.676743e-05 0.00016618638 0.0006840511 4.684517e-05
0003a0 46 7d ee 38 a4 01 91 39 45 d4 ce b9 02 51 82 ba
       0.00011372058 0.00027657778 -0.00039449535 -0.0009942355
0003b0 fb c5 59 3b fb a3 49 ba 5d 43 8f ba e1 e2 10 bc
       0.0033229578 -0.00076919765 -0.001093011 -0.008843155
0003c0 83 5c 56 ba 82 1c 82 3a eb ad 2d bc 84 31 54 3b
       -0.00081772375 0.0009926709 -0.010600547 0.0032378146
0003d0 af 05 98 ba cf cd c7 ba ef 09 f1 3a c1 f4 40 ba
       -0.0011598374 -0.0015243831 0.0018389801 -0.000736069
0003e0 17 af 84 3b af e4 28 3a 26 35 4e b9 35 ed c7 ba
       0.0040491926 0.0006442768 -0.0001966549 -0.0015253188
0003f0 e9 d5 27 ba b0 a7 07 bb 09 24 87 ba 2b e4 ee b9
       -0.00064024195 -0.0020699315 -0.0010310422 -0.00045564896

conv2.0.bias f4 [64]
000000 91 e2 a3 bd 53 92 63 bc a1 1c 67 be de bd c3 b7
       -0.080021985 -0.013889867 -0.22569515 -2.3334225e-05
000010 c3 79 60 bc 07 91 03 b5 58 5d 24 bd ea 97 67 bc
       -0.013700905 -4.9012345e-07 -0.040128082 -0.01413534
000020 2d 6f ae bd 01 34 f8 b8 90 50 25 3d 79 8e 6e ba
       -0.08517299 -0.00011835248 0.040360034 -0.00091002096
000030 f6 bf 20 bd cc 12 ac b9 9a b2 47 b7 c6 08 77 bc
       -0.03924557 -0.000328204 -1.1902908e-05 -0.015077775
000040 82 5e 37 bd 49 4b e6 b5 7c 9d 12 be 70 81 46 bc
       -0.044767864 -1.7158246e-06 -0.14317888 -0.012115821
000050 eb 2b 24 bc c3 a9 43 bc 33 c9 4b bc a7 d1 c7 bd
       -0.0100202365 -0.01194233 -0.012438106 -0.09756785
000060 dc 7c 30 b9 db 5d 94 bb 4a e9 a1 bd 29 8c 63 b8
       -0.00016831182 -0.00452779 -0.079058245 -5.425155e-05
000070 88 ef 85 bb 35 a3 b5 3c 2c 2a 91 b9 15 ef 36 bc
       -0.0040873922 0.02217255 -0.00027687976 -0.0111654
000080 55 38 87 ba eb 85 39 bc 3e b2 81 bc 96 78 d3 bc
       -0.0010316471 -0.011323432 -0.015832063 -0.025814336
000090 c5 a7 4b bd 37 4d 34 bb 2d f2 fb bd ba c6 40 bc
       -0.049720544 -0.0027511844 -0.12302051 -0.01176613
0000a0 c9 62 54 bc 53 e2 6f bc 5f 67 4d b8 b8 a3 15 bc
       -0.012963005 -0.014641362 -4.897208e-05 -0.009133272
0000b0 04 79 0f bc da e3 44 bc 38 bc 71 b3 67 d6 89 bc
       -0.00875688 -0.012017215 -5.628337e-08 -0.016825868
0000c0 f6 b6 4f bc 9a 92 66 3d d8 0b 61 bc f3 20 7e 3d
       -0.012677899 0.056292154 -0.013735734 0.06204314
0000d0 1e f7 33 3b ea fa 0e b8 6f b2 27 bb f6 ee 83 bd
       0.0027460526 -3.408912e-05 -0.0025588532 -0.064420626
0000e0 33 2a 6a bc f3 61 cd bc 79 3b 3d bc d9 04 f6 bb
       -0.014292288 -0.02507112 -0.011549824 -0.007507902
0000f0 55 a1 2d bb 17 62 84 bb 64 e9 26 be 4f f6 1c bc
       -0.0026493866 -0.0040400135 -0.16299969 -0.009580209

conv3.0.weight f4 [64, 64, 3, 3]
000000 e2 1c ea 34 76 aa d1 35 1f e1 7b b7 fa ce 00 b4
       4.3606912e-07 1.5621324e-06 -1.5013181e-05 -1.1996227e-07
000010 20 3a 15 b5 19 4a 90 35 50 84 34 b3 ce 75 06 35
       -5.559141e-07 1.0750401e-06 -4.2029853e-08 5.009032e-07
000020 20 f7 89 34 b4 31 75 33 ba f4 90 34 25 b2 91 b4
       2.5698046e-07 5.7088712e-08 2.7000152e-07 -2.7137972e-07
000030 12 77 c3 b2 8e d3 c8 33 5c c6 70 34 9c 4f 80 b2
       -2.2755135e-08 9.351707e-08 2.2423905e-07 -1.4937363e-08
000040 1c 7f 48 b4 30 00 4d 34 5d 47 d8 b8 7c b7 4e b7
       -1.8672694e-07 1.9092181e-07 -0.00010312975 -1.2321278e-05
000050 1c 9a 20 b8 62 ab 8a b8 69 b9 63 b9 44 c7 ac b8
       -3.82905e-05 -6.612275e-05 -0.00021717478 -8.238715e-05
000060 25 4e 49 b9 74 67 57 b9 60 1f 9d b8 e3 89 95 a6
       -0.00019197965 -0.00020542537 -7.4921874e-05 -1.0376326e-15
000070 c0 bc 80 25 80 7d e1 23 8c a0 19 a7 8e af 1c a7
       2.2332362e-16 2.44477e-17 -2.1320048e-15 -2.1744517e-15
000080 76 20 1d a7 a6 1d 19 a7 d6 d9 1c a7 fd 25 1d a7
       -2.1805724e-15 -2.1249088e-15 -2.1767438e-15 -2.180872e-15
000090 40 19 6e 25 f0 be 5d 27 fd fd 9d a7 a2 56 d3 26
       2.0651764e-16 3.0773418e-15 -4.385163e-15 1.4664548e-15
0000a0 20 ef 55 a6 f4 48 94 27 3e 08 62 27 6a ff a8 a7
       -7.4223295e-16 4.1157348e-15 3.1368269e-15 -4.6906288e-15
0000b0 96 bf 8b a7 13 d1 0e a7 20 fa 2d a7 38 f6 43 27
       -3.878797e-15 -1.9819798e-15 -2.4144166e-15 2.7195162e-15
0000c0 0d 10 fe a6 74 d5 3e a7 c4 88 26 a6 80 0e cc 25
       -1.7629141e-15 -2.648351e-15 -5.777817e-16 3.5398184e-16
0000d0 8e 85 40 a7 98 6c fa a5 2e 39 de 35 a8 d7 05 b8
       -2.6717753e-15 -4.3441673e-16 1.655693e-06 -3.1910517e-05
0000e0 da 06 1b 37 ce 8d 08 37 79 72 36 b7 33 92 34 37
       9.240315e-06 8.139248e-06 -1.0874698e-05 1.0762876e-05
0000f0 c2 ca 45 b6 a8 d2 9f b6 77 0a 69 37 36 4c 43 27
       -2.9473308e-06 -4.763093e-06 1.3890319e-05 2.7103e-15
000100 2e 37 b1 a7 63 c9 b2 27 46 e3 b5 a7 ec c3 93 27
       -4.9187195e-15 4.962327e-15 -5.0484002e-15 4.1013115e-15
000110 e6 c8 3e 28 39 46 da 27 48 9d 54 a6 b6 21 68 a8
       1.0590682e-14 6.058329e-15 -7.376543e-16 -1.2885897e-14
000120 2a 6d cc 38 41 c2 22 b9 6f 9d ad b9 52 c6 14 37
       9.7478114e-05 -0.00015521889 -0.00033114429 8.8676625e-06
000130 20 a6 eb b3 19 ec d9 b7 8b d5 b8 37 e2 b0 cc 36
       -1.0973258e-07 -2.5978357e-05 2.2033948e-05 6.1002656e-06
000140 c2 fd 98 b7 42 bb 1b 26 cc 4f 61 a7 bb 4a b5 a7
       -1.8237977e-05 5.403021e-16 -3.126828e-15 -5.0318615e-15
000150 e4 bf 47 a7 8a 0f 85 a7 ad e8 d5 a7 ab ce 93 a7
       -2.7720822e-15 -3.6931763e-15 -5.9371644e-15 -4.1024766e-15
000160 a8 90 a8 27 0f 7e dc a7 b6 39 e9 b9 ef 9b 3c b9
       4.6786204e-15 -6.119894e-15 -0.0004448422 -0.00017987167
000170 53 8e cb 36 5c a1 c3 b9 00 fc a6 b9 5a 75 17 b8
       6.06644e-06 -0.0003731352 -0.00031849742 -3.6110498e-05
000180 ad 9e db b9 f2 c5 9b b9 82 64 12 b8 f0 e4 c5 25
       -0.00041889158 -0.00029711385 -3.4902718e-05 3.4329187e-16
000190 11 20 0d 29 80 45 15 a6 c4 cb d0 28 8c 55 2e 27
       3.1336102e-14 -5.178895e-16 2.3181008e-14 2.4193726e-15
0001a0 88 79 3d a5 fe d0 af a6 84 d3 be 25 88 15 cd a6
       -1.6434313e-16 -1.2199712e-15 3.3103075e-16 -1.4230569e-15
0001b0 7a 2e 10 ba d9 98 1d b9 60 a3 45 b8 18 84 e7 ba
       -0.00055000896 -0.00015029627 -4.7120615e-05 -0.0017663268
0001c0 9e 70 7a b8 c0 77 a0 b9 4a 0b a0 ba 49 ee 6e b9
       -5.9709528e-05 -0.000306068 -0.0012210396 -0.00022786217
0001d0 96 8a cf b9 c3 c3 9f 26 ae 77 2c a7 4c 8e 4d a7
       -0.0003958537 1.1085903e-15 -2.3934674e-15 -2.8526604e-15
0001e0 d3 ab e0 a6 d6 24 ef a6 ba 77 5c 27 6a e1 24 27
       -1.5589695e-15 -1.6593941e-15 3.0596037e-15 2.288177e-15
0001f0 18 c2 54 27 08 7b 68 27 bb 97 24 a7 60 cd 56 a7
       2.9526129e-15 3.2263163e-15 -2.2841825e-15 -2.98098e-15
000200 21 24 c5 27 a7 45 94 a7 43 2e 6b 27 ea c9 cd 27
       5.4717655e-15 -4.115377e-15 3.263788e-15 5.7117846e-15
000210 be ed 73 a7 0a c7 03 a7 92 af 64 a7 22 f9 f5 26
       -3.3851905e-15 -1.8287801e-15 -3.1736533e-15 1.7067818e-15
000220 a8 f9 fc 25 42 62 c8 26 ed f2 80 27 a8 83 29 a7
       4.3884205e-16 1.3904421e-15 3.5790517e-15 -2.3524832e-15
000230 cf e4 d8 a7 e7 83 3e a7 41 73 85 27 e0 77 fe 24
       -6.020012e-15 -2.6439301e-15 3.7039874e-15 1.1035802e-16
000240 28 01 95 36 00 42 01 37 4c 9c 31 b7 a2 99 c3 36
       4.4406806e-06 7.704366e-06 -1.0586413e-05 5.829338e-06
000250 20 ac c5 b5 0e 2e b2 b6 ea d2 3f b6 9a bc 3f 36
       -1.4727739e-06 -5.310175e-06 -2.8583986e-06 2.8570998e-06
000260 58 11 13 b6 34 00 d6 26 49 74 3e 26 ab 42 d2 a6
       -2.1914802e-06 1.4849288e-15 6.607709e-16 -1.4589748e-15
000270 dc 5f f2 25 d0 b7 d3 a6 ca 80 d1 a6 68 b8 b8 a6
       4.2045265e-16 -1.4690889e-15 -1.4537197e-15 -1.2817548e-15
000280 07 64 c7 a6 c4 e5 cf a6 43 bf 3c b9 fa 59 94 b9
       -1.3835511e-15 -1.4425788e-15 -0.00018000328 -0.00028295798
000290 8b e2 07 37 87 20 50 b9 02 a2 35 b9 d6 e1 76 38
       8.099373e-06 -0.00019848543 -0.00017321858 5.8861297e-05
0002a0 d4 de b5 b9 3f e3 f1 b8 33 bb 6d 38 df aa 0a 27
       -0.0003468903 -0.000115341034 5.6679546e-05 1.9243977e-15
0002b0 d7 66 08 27 19 61 30 a7 6a eb 4c a6 b2 51 1d 27
       1.892954e-15 -2.4477543e-15 -7.1095763e-16 2.1832414e-15
0002c0 d6 bd 3e 27 70 9b 97 26 3e 81 62 27 25 51 3a 27
       2.6470707e-15 1.0519861e-15 3.1433863e-15 2.5856674e-15
0002d0 a4 fa f1 26 21 56 dc a6 38 72 1b 27 01 99 00 27
       1.6790671e-15 -1.5288912e-15 2.157249e-15 1.7846512e-15
0002e0 66 34 da 26 07 49 43 27 78 09 bc a6 e0 df 9a a6
       1.5140991e-15 2.7101274e-15 -1.3047687e-15 -1.0746578e-15
0002f0 0c 59 51 27 ad 5f 99 2e 40 5d af ac 66 87 56 af
       2.9052849e-15 6.97463e-11 -4.984152e-12 -1.951129e-10
000300 0a 91 0e af c3 d6 51 b0 8b 9f cd af 33 2f 88 af
       -1.2966353e-10 -7.633895e-10 -3.7402645e-10 -2.4771793e-10
000310 f6 b4 50 2f 43 0f 02 30 e8 7b e9 26 16 0e 85 26
       1.898178e-10 4.731541e-10 1.6201208e-15 9.232547e-16
000320 ec 6c 0a 27 9c 69 04 27 f6 36 bf 26 7e 69 d1 a6
       1.9210394e-15 1.837593e-15 1.3268185e-15 -1.4530882e-15
000330 68 67 43 26 70 e8 9d a5 00 71 1b a7 df ec ff b8
       6.7794357e-16 -2.7392664e-16 -2.1571829e-15 -0.00012203468
000340 b6 1f 9e b8 be 35 bf b7 5e aa 67 b9 e0 0b 88 b9
       -7.539934e-05 -2.2794e-05 -0.00022093343 -0.0002594879
000350 5b a3 b4 b8 fe 52 c2 b9 1f 59 dd b8 e3 92 46 b8
       -8.613496e-05 -0.00037064397 -0.00010554701 -4.7343678e-05
000360 72 69 fd a6 40 97 b3 25 00 d1 de 25 ec 97 1f 27
       -1.7583983e-15 3.115404e-16 3.8652485e-16 2.214804e-15
000370 58 15 c2 26 d8 12 c2 26 6c 53 35 27 fc 77 07 26
       1.3467239e-15 1.3466562e-15 2.516402e-15 4.7000143e-16
000380 e0 16 8a a5 f8 45 d6 25 58 c2 d0 a5 fc 7a 33 a7
       -2.3954685e-16 3.7170495e-16 -3.621394e-16 -2.490791e-15
000390 a8 1e ca 26 ae d7 42 27 98 e8 cc 26 ac 1e 2a a6
       1.4024875e-15 2.7039829e-15 1.4218388e-15 -5.9022166e-16
0003a0 50 8b ed 26 c4 dd df a6 81 05 09 27 20 4a db 32
       1.6482939e-15 -1.5533843e-15 1.9015553e-15 2.5528664e-08
0003b0 25 64 7a b5 d2 67 5e a6 df c5 28 b3 32 36 68 b3
       -9.3277987e-07 -7.7162425e-16 -3.929551e-08 -5.4066e-08
0003c0 df 35 2d 27 a7 c4 87 33 04 21 11 b3 2c 44 ab 26
       2.4037776e-15 6.322198e-08 -3.379047e-08 1.1883987e-15
0003d0 ef 32 0b a7 b9 89 7e a7 c5 ab f2 a6 96 25 86 27
       -1.9317736e-15 -3.532424e-15 -1.6838681e-15 3.723322e-15
0003e0 60 8e ee a5 19 ab 85 a7 00 93 f4 26 50 81 93 27
       -4.1382896e-16 -3.710042e-15 1.6970746e-15 4.0940897e-15
0003f0 14 ac bb 26 74 45 c4 26 d8 47 37 26 15 c2 0c 27
       1.3022373e-15 1.3619057e-15 6.3588246e-16 1.9534115e-15

conv3.0.bias f4 [64]
000000 1f b1 7c b9 69 bf 1e bd af 58 75 ae 5b 07 17 bd
       -0.00024098576 -0.03875676 -5.5785317e-11 -0.03687225
000010 cc 0c ac bb c3 04 4f bd 90 b3 8c bb e3 79 be bb
       -0.005250549 -0.05054165 -0.0042938665 -0.00581287
000020 41 b1 48 ad 75 04 3e b8 a5 93 c8 bb 9f d9 db b5
       -1.1408042e-11 -4.530368e-05 -0.006121116 -1.6380108e-06
000030 7b 8a 1d bd 6d e9 8b bb f6 40 94 bb f0 e0 ed b7
       -0.038462143 -0.00426977 -0.0045243455 -2.8357346e-05
000040 21 f5 93 ba 8c fb c2 bb bb 07 2a b8 45 c1 c1 bb
       -0.0011288264 -0.005950397 -4.0538358e-05 -0.005912932
000050 46 99 92 bb 62 63 29 bd 72 ff a3 bb 0a ad b2 bb
       -0.004473838 -0.041354544 -0.0050048167 -0.005452757
000060 f8 d3 93 bb f3 91 c2 bd 7e e6 09 bd 3c ec 9a bb
       -0.0045113526 -0.09500494 -0.03366708 -0.0047278684
000070 32 d6 e3 bc fe 03 66 bb 81 5a f3 bd f0 26 c9 bb
       -0.027812097 -0.0035097594 -0.118824966 -0.006138675
000080 62 15 b9 bd 4d ce 8e bb 19 35 86 bb 7a e4 a6 bd
       -0.090372816 -0.004358089 -0.004095685 -0.08149047
000090 9d cc 08 b7 f2 25 e1 bd 10 13 c8 bb f2 f4 11 bc
       -8.153872e-06 -0.109935656 -0.006105788 -0.008908497
0000a0 ce 35 da bb e2 29 51 bd 7a 56 41 2b 09 51 a4 b8
       -0.006659246 -0.051065333 6.8687384e-13 -7.8352234e-05
0000b0 75 a0 7d bd 8b 31 b4 bb 58 d9 a7 bb 70 e0 98 bb
       -0.061920602 -0.00549907 -0.005122345 -0.004665427
0000c0 2e 80 2d b3 a5 da 12 b6 7a a6 06 b9 7a 11 7b bb
       -4.039628e-08 -2.1882963e-06 -0.00012841253 -0.0038309977
0000d0 6a 12 fd b6 da 3b 3d b9 a5 c5 dd bb 69 6c a6 b3
       -7.5421312e-06 -0.00018046741 -0.006767946 -7.749697e-08
0000e0 80 b2 d5 b7 46 c9 19 bb 43 4b 5f b6 27 be d3 bb
       -2.54747e-05 -0.0023465916 -3.3273398e-06 -0.006461877
0000f0 00 ac 7d b2 c0 75 c2 bb 79 b1 d6 bb 31 bd 33 b9
       -1.47656465e-08 -0.005934447 -0.006551918 -0.0001714125

dense.0.weight f4 [128, 576]
000000 44 ff f6 26 c9 90 e3 27 3f d5 13 a8 32 f4 03 28
       1.7138869e-15 6.3162133e-15 -8.20638e-15 7.324912e-15
000010 18 16 20 a8 66 4c d0 27 e0 78 85 a7 5c 58 68 28
       -8.886575e-15 5.781443e-15 -3.704597e-15 1.2897747e-14
000020 17 b7 4e 28 01 94 0c b4 c2 1a a5 ad 92 ac c8 b8
       1.14749984e-14 -1.309236e-07 -1.8770211e-11 -9.568887e-05
000030 27 47 e0 aa 6e 10 3e b8 8e ae 90 bb 08 80 54 a9
       -3.9839765e-13 -4.531483e-05 -0.00441534 -4.7184506e-14
000040 e8 39 1c b3 46 1a 97 bb a4 e8 43 28 18 01 75 a8
       -3.6374246e-08 -0.0046112863 1.087512e-14 -1.3600469e-14
000050 ed cc 11 a8 3e 48 7a 28 a2 19 bb a8 0b 92 88 28
       -8.093553e-15 1.3893453e-14 -2.0772287e-14 1.516237e-14
000060 68 64 17 28 68 ad 88 a8 c5 3e c3 a7 4d 92 71 b4
       8.403956e-15 -1.5174236e-14 -5.4191427e-15 -2.2498098e-07
000070 c1 8d 72 30 40 6a d3 2f d6 46 fd 2f d6 45 5e b4
       8.824053e-10 3.8456172e-10 4.6070764e-10 -2.0700767e-07
000080 d7 a9 61 ba f8 23 49 28 d5 f5 2a 29 05 8a 62 bb
       -0.0008608377 1.1165541e-14 3.7960808e-14 -0.003456713
000090 ac e5 ca aa 73 24 5f 30 96 6f 13 ae 78 83 2a 2d
       -3.6041775e-13 8.1178725e-10 -3.352304e-11 9.692573e-12
0000a0 a5 97 48 b7 9d de d2 b6 e4 4e a7 2a 3e 70 29 b6
       -1.1956236e-05 -6.2844033e-06 2.97199e-13 -2.5248296e-06
0000b0 d0 40 af b6 8c e9 ab b8 82 e2 86 bb 30 3b 5f ba
       -5.2229516e-06 -8.197417e-05 -0.0041163573 -0.00085155945
0000c0 59 56 50 bb 2a 7f 0e bc b9 b7 a1 ba 22 8b 2f ba
       -0.0031789748 -0.00869731 -0.0012338079 -0.00066964526
0000d0 02 96 f9 39 76 13 b5 b8 ba bf 73 29 a3 fb 51 29
       0.00047604745 -8.6343774e-05 5.4123135e-14 4.6625582e-14
0000e0 28 9e 85 25 eb ce c2 28 e4 e5 05 29 54 7e 2e a8
       2.3178993e-16 2.1628063e-14 2.973133e-14 -9.686333e-15
0000f0 22 9e 8a 28 13 4e 1b 29 68 42 a6 26 f0 04 b0 28
       1.5389657e-14 3.4484632e-14 1.1536563e-15 1.9542067e-14
000100 b3 09 22 ac d1 7d ee a9 3e 53 3a aa e9 8c 8c 30
       -2.3026969e-12 -1.0591149e-13 -1.6548999e-13 1.022639e-09
000110 24 db 46 ae 68 48 02 aa 2f 9d 82 ae fd 0b ac ad
       -4.5214624e-11 -1.157144e-13 -5.939637e-11 -1.955946e-11
000120 f8 db 49 a7 04 f9 20 26 33 db 30 a8 04 15 9b 26
       -2.8013599e-15 5.584863e-16 -9.817494e-15 1.0760982e-15
000130 d6 b3 4f a8 47 d8 7b 28 00 c6 94 a6 f1 8e 51 28
       -1.1529804e-14 1.3980197e-14 -1.0323231e-15 1.1632826e-14
000140 f2 95 6c 27 81 97 83 a6 94 c5 05 a7 78 bb 67 26
       3.2832865e-15 -9.131016e-16 -1.8564565e-15 8.039829e-16
000150 f7 2a e3 a7 44 49 e1 26 b0 fa aa a4 c2 02 28 a6
       -6.305174e-15 1.563237e-15 -7.415043e-17 -5.8290446e-16
000160 e9 d5 59 28 e2 01 a7 26 f2 8c d3 2f 4f bf c9 b5
       1.2092304e-14 1.1588463e-15 3.8480824e-10 -1.5031345e-06
000170 22 97 3e ae f7 67 41 b3 98 c4 b2 b8 13 8d 86 b6
       -4.333523e-11 -4.503087e-08 -8.52432e-05 -4.0099344e-06
000180 51 3d a6 2e da 9d df b7 5b 06 89 b6 62 fb 07 a8
       7.559698e-11 -2.6657177e-05 -4.083658e-06 -7.548515e-15
000190 2e 80 40 a8 d7 4d e8 27 be f1 a5 27 34 3e bd 26
       -1.06859356e-14 6.447733e-15 4.6058797e-15 1.313137e-15
0001a0 5e 04 4d a8 e4 7c ad a7 2a 81 06 a8 4e f2 9e 27
       -1.1380733e-14 -4.8152553e-15 -7.466502e-15 4.4116517e-15
0001b0 7a 73 66 b8 b6 52 22 b5 36 2f 9c a8 48 c4 04 bc
       -5.494382e-05 -6.0470063e-07 -1.7339954e-14 -0.008103438
0001c0 e4 43 1b bb 65 6f 9f b3 5a 73 00 3a 41 f5 a1 b8
       -0.002369159 -7.424277e-08 0.0004900001 -7.72276e-05
0001d0 2c ed 8e aa 14 02 ee 2b 08 ef 02 30 0d 2c 22 2d
       -2.5388838e-13 1.6911494e-12 4.763341e-10 9.218415e-12
0001e0 17 c2 1f ae 43 7c ac b6 08 46 6a b5 dd c5 91 ab
       -3.63248e-11 -5.1404654e-06 -8.72737e-07 -1.0357788e-12
0001f0 ea 89 13 b5 1e 7e 19 b5 71 ce 27 2d 49 54 bf b2
       -5.496246e-07 -5.7180466e-07 9.53869e-12 -2.2273655e-08
000200 6a 6b 66 ac 52 e0 82 ae 59 39 41 b7 88 90 17 b6
       -3.2744593e-12 -5.951563e-11 -1.1517049e-05 -2.2584882e-06
000210 82 35 a0 ab e3 19 ef b5 7b b8 bf b5 24 00 6e 26
       -1.1383535e-12 -1.7814422e-06 -1.42843e-06 8.257303e-16
000220 ca 3e 48 a8 29 63 32 28 fe d4 42 a7 fc 44 94 28
       -1.11158455e-14 9.902487e-15 -2.7038372e-15 1.6461218e-14
000230 b7 04 93 28 66 ed 64 28 8a c6 9b a8 d8 20 80 a8
       1.6322323e-14 1.270802e-14 -1.729456e-14 -1.4225098e-14
000240 52 4b bc 26 96 f2 c8 a6 b1 cd 95 a7 70 f7 ec 27
       1.3065536e-15 -1.3943541e-15 -4.157882e-15 6.577143e-15
000250 44 82 10 28 96 87 df 27 88 a6 9e a5 d0 a8 32 a8
       8.021853e-15 6.2041936e-15 -2.7521477e-16 -9.91759e-15
000260 1e bb d0 a6 e6 65 ca a8 ca 23 2d a9 40 64 c2 28
       -1.4483618e-15 -2.2470697e-14 -3.844476e-14 2.1581803e-14
000270 48 72 5b a7 89 11 ff a9 86 0b 54 29 c9 72 e3 28
       -3.0454307e-15 -1.1327317e-13 4.708345e-14 2.5251843e-14
000280 12 d9 b0 a8 59 96 26 29 fb 20 38 a7 4c 2b 26 a8
       -1.9634064e-14 3.698981e-14 -2.5553008e-15 -9.22424e-15
000290 12 f6 d4 a7 51 05 50 27 f2 d5 a3 a7 22 7f 79 28
       -5.910861e-15 2.886868e-15 -4.547355e-15 1.3849844e-14
0002a0 f4 8a 2e a8 4c f2 b0 26 0e 89 b5 a7 d8 a5 04 27
       -9.689071e-15 1.2278128e-15 -5.0386187e-15 1.8408584e-15
0002b0 fb af 91 a7 55 1e 33 a7 bf 4c 59 a7 53 b2 86 27
       -4.0436383e-15 -2.4857683e-15 -3.0156404e-15 3.738581e-15
0002c0 c0 0d 70 a6 0c 3c 33 27 9e 7f 74 27 71 05 27 27
       -8.328536e-16 2.4873792e-15 3.3930984e-15 2.3178855e-15
0002d0 5e fb 0b 2d c2 ad 07 b2 8d 51 27 2d 1e 78 8a ae
       7.95705e-12 -7.897542e-09 9.510959e-12 -6.2968505e-11
0002e0 b6 5d 07 b7 30 2c a9 b5 4f ce 0c ac 6b c2 8e b5
       -8.068446e-06 -1.2604341e-06 -2.000972e-12 -1.0636408e-06
0002f0 a3 03 57 b5 16 d6 0a a6 dc 27 9d a5 cd 9e 96 27
       -8.0099034e-07 -4.816851e-16 -2.7262168e-16 4.1805536e-15
000300 d0 a2 8c 26 d4 fc 8b 27 1e bb 87 a7 dc af 57 a6
       9.758582e-16 3.8854367e-15 -3.76729e-15 -7.4831443e-16
000310 26 d8 47 27 d1 02 7f 27 8d 5a 05 27 72 d8 02 26
       2.7733972e-15 3.5389886e-15 1.8506545e-15 4.539615e-16
000320 c3 93 9d 26 f3 93 a3 a7 d6 f3 c8 a6 74 78 5c a7
       1.0934114e-15 -4.5401995e-15 -1.394388e-15 -3.059643e-15
000330 28 16 0f 28 b2 fd 41 a8 34 61 b0 26 3a c3 b8 2e
       7.942899e-15 -1.0768664e-14 1.22388e-15 8.4020305e-11
000340 aa 44 4f b4 7e 4c 14 2d ba 0b f5 b2 be bc e3 b7
       -1.9303357e-07 8.429811e-12 -2.8527086e-08 -2.7148399e-05
000350 9c 28 18 b6 2d d3 db ad ce fc c1 b6 fe fb 09 b6
       -2.2673403e-06 -2.4991198e-11 -5.7812786e-06 -2.056127e-06
000360 ce a0 f8 ad 69 c9 ac b4 9b af e8 ad b1 05 1f 2f
       -2.8265747e-11 -3.2184042e-07 -2.645333e-11 1.4462988e-10
000370 26 b6 cb b7 fa 3f 78 b6 70 52 d6 2c 2d c4 3a b6
       -2.4284305e-05 -3.699212e-06 6.0913982e-12 -2.783035e-06
000380 18 f3 e7 b5 54 a2 83 b9 7f fe cc ac b1 ae 20 ab
       -1.7281591e-06 -0.0002510721 -5.8262835e-12 -5.708585e-13
000390 5d e1 6a b9 5f a0 c1 bb f2 0e e0 ba 5e 5d af ba
       -0.00022399933 -0.0059090103 -0.0017094298 -0.0013379266
0003a0 13 a5 f0 bb ed a4 15 bb 84 db 04 28 1b 42 d2 aa
       -0.007343897 -0.00228339 7.375072e-15 -3.7349364e-13
0003b0 a3 9e 8d 2f ae 8a 89 2c 3d f7 2f b5 58 8b b2 38
       2.576047e-10 3.9091707e-12 -6.555236e-07 8.513656e-05
0003c0 58 66 35 b0 66 31 b0 38 79 0a 31 bb 69 54 eb 2c
       -6.5992856e-10 8.401535e-05 -0.0027014299 6.688473e-12
0003d0 0a e2 bc b1 0b 83 28 2d 14 55 87 ae 82 11 f6 b6
       -5.497218e-09 9.578792e-12 -6.154202e-11 -7.3334095e-06
0003e0 44 c1 99 b5 6c ca 1c ac a4 dc 77 b5 42 ac 3f b5
       -1.1455636e-06 -2.22813e-12 -9.2335745e-07 -7.140371e-07
0003f0 49 c4 20 a8 ff 88 75 b3 cd 08 10 a9 67 7d b8 b4
       -8.924347e-15 -5.7168105e-08 -3.1982057e-14 -3.4363913e-07

dense.0.bias f4 [128]
000000 01 72 d3 b7 76 81 00 a9 16 bc df b6 19 d0 13 b6
       -2.5206247e-05 -2.8534e-14 -6.667814e-06 -2.2025836e-06
000010 1f a4 0e bc 69 de 0d 3d e2 5d f8 3a a5 13 a0 b8
       -0.008706122 0.034635935 0.0018948878 -7.6330536e-05
000020 32 5b de b3 e2 67 1c a9 d7 48 70 b1 db 0d 5f bc
       -1.0354269e-07 -3.4729062e-14 -3.4966001e-09 -0.013614143
000030 af d3 fd 28 78 4e 8b 3c a6 4c cc b1 4d 10 01 aa
       2.8180446e-14 0.01700519 -5.9458953e-09 -1.1463157e-13
000040 a8 63 1b ab 0a 4f 37 39 1b 34 6a 3c 04 f9 84 3d
       -5.5205363e-13 0.00017481684 0.0142946495 0.064928085
000050 99 7c bb 38 59 2c 1a 3b c3 70 13 a9 5d 7d 92 3d
       8.940063e-05 0.0023524968 -3.2738362e-14 0.071528174
000060 b9 18 5b 34 4c 7e fb 27 07 03 e7 a9 d8 c8 ed 3c
       2.0404958e-07 6.9803426e-15 -1.0258986e-13 0.029026434
000070 cb 56 c3 3c ca db 9e ba 6f ed 66 ba d2 6a b2 bc
       0.023845097 -0.0012119946 -0.0008809184 -0.021779452
000080 7a 92 07 bc 88 d7 52 bc 20 4b de 2a ab c9 4f 34
       -0.008274669 -0.0128687695 3.948725e-13 1.9351744e-07
000090 2b 28 7c 2c 41 78 ca 29 b7 36 31 3d 07 d0 7b 39
       3.5833652e-12 8.991463e-14 0.04326507 0.00024014722
0000a0 4d 06 1e a9 57 48 07 ab 6c 2d 00 35 f2 f7 29 2b
       -3.5088513e-14 -4.8062026e-13 4.7749813e-07 6.0384954e-13
0000b0 63 93 75 3d 4a d5 4e bd b2 0f 27 bb 95 47 91 3b
       0.059955012 -0.050496377 -0.0025491533 0.004433582
0000c0 7a db 1d 3d fe 29 21 ac 9a 5c 39 b9 30 f3 07 3d
       0.038539387 -2.2902786e-12 -0.00017677472 0.033190906
0000d0 e0 40 24 3d cc 7c 24 a9 27 f2 6e 29 19 eb 28 ba
       0.040100932 -3.652356e-14 5.305665e-14 -0.00064437237
0000e0 43 4d 62 2c 24 1c e4 bc 6a 06 ee bc 7a ff 6b 3a
       3.215942e-12 -0.02784545 -0.029055793 0.00090026075
0000f0 c5 b5 41 bb f6 3e cf ac e6 80 2e a9 07 f8 92 ac
       -0.0029557806 -5.890284e-12 -3.8747563e-14 -4.177106e-12
000100 5c 31 83 b9 05 87 02 3d 96 64 bb a9 40 db 3e ba
       -0.00025023043 0.031867046 -8.321917e-14 -0.00072805956
000110 82 9f cf b9 cf dd 82 bd 2e c9 b7 ac d3 b9 4e bd
       -0.0003960096 -0.06389963 -5.2235083e-12 -0.050470185
000120 5a e0 23 b5 6a 52 0c bd aa 78 0e aa 76 68 fa 3a
       -6.1048706e-07 -0.034258284 -1.2653997e-13 0.0019104618
000130 ff 36 7b 29 c5 21 b9 bc a9 49 56 bc f6 b2 39 bd
       5.5780897e-14 -0.02259911 -0.013079085 -0.045336686
000140 8e 69 82 a9 e0 cf ab b1 d6 fb 9e 3c a9 d4 7e 3b
       -5.7914705e-14 -5.0003877e-09 0.019407194 0.003888408
000150 35 a9 b6 3d 4a 87 e1 3b 0b 5c 25 a9 13 fa 17 bd
       0.089189924 0.006882583 -3.6717194e-14 -0.037103724
000160 12 50 0d aa 47 8e e8 a7 46 d4 1c 2a dd cc 79 3d
       -1.2551096e-13 -6.4547193e-15 1.392923e-13 0.06098639
000170 56 d4 92 32 f1 62 52 39 6b df ad a9 3d 87 2f 2b
       1.7093196e-08 0.00020064019 -7.7215e-14 6.236017e-13
000180 cc 35 2b bc ce 4c 02 3d c7 fa 47 3d 08 71 61 29
       -0.010449838 0.031811528 0.048823144 5.0058075e-14
000190 2a 70 9a ba 80 d5 6e 2e 3d 1a e3 bc 7a 79 d6 b5
       -0.0011782695 5.430456e-11 -0.027722472 -1.5979597e-06
0001a0 c5 33 57 28 dc c0 a7 b6 30 c9 55 bc a8 4f 2c ba
       1.1946123e-14 -4.9994396e-06 -0.013048455 -0.0006573149
0001b0 66 6d 9c aa 79 0d 92 b0 27 b9 95 2b 44 5c a4 ae
       -2.7787077e-13 -1.0626727e-09 1.0638477e-12 -7.474246e-11
0001c0 d0 1c 46 3a 75 c7 ae 3c 09 ea 13 2a dc ed 1b a9
       0.0007557394 0.021335343 1.313742e-13 -3.4623224e-14
0001d0 6b 48 23 39 4d 89 b4 34 b0 60 52 af 94 23 2b bc
       0.00015571869 3.3627512e-07 -1.9133739e-10 -0.010445494
0001e0 a1 2b 8c 2f f0 eb 73 b9 9d ec 89 bb 91 6f 01 bb
       2.5496852e-10 -0.0002326218 -0.0042091147 -0.0019750337
0001f0 37 76 a0 29 e6 a7 83 3d 14 3e ba bb b4 93 a6 b3
       7.1259344e-14 0.064285085 -0.00568367 -7.7568444e-08

dense.2.weight f4 [10, 128]
000000 6a b7 57 ba ac 09 0b 29 78 cb a5 39 df 31 69 3c
       -0.000822893 3.087259e-14 0.00031622848 0.014233082
000010 f3 e1 85 3c f1 76 06 be 4f e3 8a 3e 03 44 c4 3c
       0.016343093 -0.1313131 0.27126548 0.023958212
000020 14 13 36 a8 fe f7 e8 bb 2c 0b 6b ba ad 71 ff bd
       -1.01071664e-14 -0.007109641 -0.00089662033 -0.12472854
000030 7a 18 94 aa e4 ec 13 be c0 f7 23 bc fd f5 30 bb
       -2.6307065e-13 -0.14445835 -0.010007799 -0.002700209
000040 ef 15 ab bb 1a 22 2b 37 57 c2 d6 bd 37 20 97 be
       -0.0052211205 1.0200334e-05 -0.10486286 -0.29516765
000050 4c 1c 15 39 f3 74 94 bd 62 0f a8 a9 16 5c 95 be
       0.00014220289 -0.07248869 -7.463367e-14 -0.29171818
000060 7d 32 49 bb 1e a5 97 b9 0b 66 97 bc 92 b1 3e bc
       -0.003070026 -0.00028923986 -0.018481275 -0.011639016
000070 cf 33 b1 be b6 c1 83 3b 80 a9 8a 2c 44 9a 90 3d
       -0.3460984 0.004020895 3.941014e-12 0.07060674
000080 9e 71 f0 3d a5 12 fb bd 20 c6 10 bc 10 00 c7 bb
       0.11740421 -0.122594155 -0.008836299 -0.0060730055
000090 51 63 87 b1 4c d8 cc bb af 23 70 be a0 dd c7 b9
       -3.940308e-09 -0.0062513705 -0.23451112 -0.0003812136
0000a0 7e 59 2f b8 09 b7 19 bc 17 bf 47 39 c4 cd be bb
       -4.1806597e-05 -0.009382018 0.00019049305 -0.005822869
0000b0 8e 39 3d 3e 4f 31 3c 3e b0 b4 7d 3c 6b 3b 14 3e
       0.18478987 0.18378185 0.015484974 0.14475791
0000c0 e4 1c 92 be f5 50 17 37 2e 85 68 ba 09 5d ab 3d
       -0.28537667 9.019151e-06 -0.0008869943 0.083673544
0000d0 96 98 24 3e 49 71 9d a8 58 4c 2b b8 99 8f 68 bc
       0.16073832 -1.7479631e-14 -4.0840678e-05 -0.014194393
0000e0 56 d9 5a 2c d7 b1 ca bd 29 11 68 bd 88 7c 21 bc
       3.110031e-12 -0.098972015 -0.05665699 -0.009856351
0000f0 27 55 15 3c 4a d1 28 bc ba 15 92 29 9d bd df ba
       0.00911454 -0.010303805 6.4874714e-14 -0.0017070059
000100 fb 0d 0b bc b4 cd 74 3d a2 50 91 ba 8d 20 7a 3d
       -0.00848722 0.059766486 -0.0011086653 0.0610662
000110 3f c7 08 3d e7 b2 6d 3e cf bc a5 b7 f7 17 8a 3e
       0.03339314 0.23212777 -1.9757454e-05 0.2697141
000120 62 24 61 3b 5d ac 3b be 59 b7 14 aa 7d 69 fb bb
       0.0034353961 -0.1832747 -1.3208652e-13 -0.0076724873
000130 23 bf 5e 2d f1 26 88 bd 72 56 78 3e 92 fe 3b bc
       1.266168e-11 -0.066480525 0.24251726 -0.0114742685
000140 56 54 be a7 6c 40 8a ab 8d dc c9 bd 2c 43 c7 3d
       -5.282703e-15 -9.82337e-13 -0.0985652 0.09729609
000150 52 55 4f be a2 25 37 be 6a 01 30 29 61 5b 12 3e
       -0.20247391 -0.1788545 3.9081077e-14 0.14292671
000160 d6 bd 76 b9 c3 34 31 2a 79 d1 9e bb eb 1b ed bc
       -0.00023531108 1.5739063e-13 -0.0048467484 -0.028943976
000170 1c 9d 78 3c c0 8e 57 3c 57 7a 99 27 62 03 cf bb
       0.015174177 0.013156593 4.259867e-15 -0.006317542
000180 27 ab c8 bc dc a9 ff 3c 46 c3 90 be 21 7d de a7
       -0.024495674 0.031208925 -0.28273982 -6.1753043e-15
000190 c8 df 9b bc b3 4f 74 3a 62 f2 23 3e 21 93 f6 bb
       -0.019027606 0.00093197374 0.1601043 -0.0075248634
0001a0 e9 52 44 2b 2c 0c 6d b6 6c 5a 0c 3e 26 d9 ec b7
       6.974825e-13 -3.5322837e-06 0.13706368 -2.823451e-05
0001b0 74 0a 5a bc aa 4f e2 ba 86 19 06 bc b3 60 12 bc
       -0.013308156 -0.0017266173 -0.008184796 -0.008934188
0001c0 71 81 7d 3b e0 f0 54 be 12 0c e3 bb 53 af c1 2a
       0.003868189 -0.20795012 -0.006928929 3.4405343e-13
0001d0 03 8c 23 3e 8f 30 87 ba 30 c3 f7 39 44 48 20 bd
       0.15971379 -0.0010314154 0.00047256937 -0.039131418
0001e0 23 d4 31 ba 83 c4 55 bc 3d 2f e3 bc e9 c5 7c 3d
       -0.0006783625 -0.01304734 -0.027732486 0.06171218
0001f0 ad aa 69 2a 23 67 37 bd 02 f4 df 3c 1a b0 94 3b
       2.0753772e-13 -0.044776093 0.027338032 0.0045375945
000200 07 73 b3 bb 96 d6 09 36 cb 8a 21 3b b1 e8 f1 bb
       -0.005476359 2.0539496e-06 0.0024649377 -0.0073824753
000210 b1 e3 a5 bd 3f cf a9 bc c2 4c db 3d fb 6c ab bd
       -0.08100069 -0.020728705 0.10708 -0.08370396
000220 52 1b aa 2a e7 30 6a bb 6a d5 f1 bc 9d 79 de bd
       3.0217024e-13 -0.0035734714 -0.029520709 -0.1086304
000230 68 a3 b2 39 05 52 59 be 55 e3 bb bb 63 61 c0 bb
       0.00034072553 -0.21222694 -0.005733887 -0.0058709844
000240 f2 b8 ad bb 2e 8d c8 35 e1 9f 09 3e 29 e3 40 3e
       -0.005301588 1.494225e-06 0.13439895 0.18836655
000250 4a 6c 65 38 ec 1a f4 bd 28 df 0f 38 3a 6e 9b 3e
       5.4698707e-05 -0.119191974 3.4301687e-05 0.30357534
000260 d4 f7 1f bb 32 07 84 bb ce 65 2f 3b 49 6c f3 bd
       -0.0024409192 -0.004029178 0.0026763561 -0.11885888
000270 e8 82 06 be 0a 67 94 3d db 7a 1e 3a 6f b7 38 be
       -0.13135874 0.07246216 0.00060455286 -0.18038724
000280 63 c3 09 3d 9f 04 5f 3d 35 a4 69 3b 0b 8c 7b 3d
       0.0336336 0.054447766 0.0035650854 0.061412852
000290 a0 f9 80 bb 4e 09 94 bb d9 04 88 3d 5d 70 02 39
       -0.0039360076 -0.004517711 0.066415496 0.00012439625
0002a0 13 90 7f bb 5a 33 05 bb b4 09 b7 3b 4c 21 80 bb
       -0.0038995787 -0.0020324797 0.0055858735 -0.0039102193
0002b0 d7 ef 9c 3e ed 48 bf bd 8c d2 07 ba 7e 43 21 3e
       0.30651733 -0.09340081 -0.0005181215 0.15748402
0002c0 ce 86 91 bd 26 85 f2 3b 7e 7d 9f bb ad b0 aa be
       -0.0710579 0.0074011264 -0.0048672548 -0.33337918
0002d0 44 ab 22 3e 64 9f c9 a8 0b ef ab bb 85 e8 5d 3a
       0.15885645 -2.2384607e-14 -0.005247002 0.0008465129
0002e0 3f 8b 0a b9 44 a7 c2 bd da 83 8d 3d 6d 75 9f 3b
       -0.00013212579 -0.0950456 0.06909914 0.004866293
0002f0 e2 4d 97 bc f4 78 35 bb 39 b0 29 37 0e 07 17 b9
       -0.018469755 -0.0027690502 1.0114215e-05 -0.0001440311
000300 fe 87 a6 bb 14 a5 a0 3e 60 65 c6 bb 83 36 94 bd
       -0.0050821295 0.31375945 -0.0060545653 -0.0723696
000310 86 34 bb 3a 35 4a 43 be 6d 82 f4 3b e0 a5 d6 bd
       0.0014282621 -0.19071276 0.007461837 -0.10480857
000320 0a 2f 9b bb ac e1 08 be 82 a8 88 37 12 76 6e 3b
       -0.004735832 -0.13367337 1.6290931e-05 0.0036386293
000330 45 82 62 ba 66 5e 66 bd 97 f2 e6 bd 86 80 ad be
       -0.00086406275 -0.05624237 -0.11276739 -0.33887118
000340 4b 0a 97 28 6b 96 a9 a8 9d fe 08 3e 5b 73 92 bb
       1.6768832e-14 -1.8828003e-14 0.13378377 -0.004469318
000350 38 d9 4e 3e b4 a6 e2 bd 6b e7 f0 ba e4 00 b8 bd
       0.2020005 -0.11066952 -0.0018379515 -0.08984545
000360 cb 67 9b bb d0 34 8e 37 8c 3e c3 bb f7 e6 13 bd
       -0.0047425977 1.6952312e-05 -0.005958384 -0.036108937
000370 25 01 65 3b fa e0 ac bc 2f f4 1d 35 74 33 b7 bb
       0.003494331 -0.021103371 5.884239e-07 -0.0055908505
000380 32 94 97 3d 48 c9 b0 3e 46 94 59 bd d4 6b 36 a8
       0.07401313 0.34528565 -0.05311992 -1.0126411e-14
000390 6b 79 71 3c c3 ae 3b bc 6e 06 94 be f7 fd a2 ba
       0.014738421 -0.011455241 -0.28911155 -0.0012435307
0003a0 27 f5 65 ba cf d4 2b 37 b6 91 04 3d 74 24 8d ba
       -0.0008772187 1.0241943e-05 0.032365523 -0.001076831
0003b0 55 c1 bb bb fa 7e 4c 3c 2a 41 95 bb 18 02 9b bb
       -0.005729834 0.012481445 -0.0045548873 -0.004730474
0003c0 86 6a 69 3a fd 79 a6 bd b3 77 be ba 3d 67 2e bb
       0.0008904118 -0.08128736 -0.0014531523 -0.0026611828
0003d0 97 86 dd bd b4 53 ac 3b 15 aa 02 36 64 92 52 be
       -0.108166866 0.0052590016 1.947051e-06 -0.20563656
0003e0 51 37 8d ba 48 be d2 3b 7c 41 c3 3c 2a 13 5c bb
       -0.0010773932 0.0064313747 0.023834936 -0.0033580759
0003f0 49 32 5f ba c6 00 4f 3e c3 65 88 bd d4 ae 11 3d
       -0.0008514268 0.20215139 -0.066600345 0.03556712

dense.2.bias f4 [10]
000000 05 fc 6e bd 21 db e7 3d 02 37 62 3b 01 f5 2e 3d
       -0.058345813 0.113210924 0.003451765 0.042714123
000010 f4 21 88 bc 14 76 98 3c 16 97 b6 bd 60 3a 2c 3d
       -0.016617753 0.018610992 -0.08915536 0.04204786
000020 a8 2a a9 ba e8 85 4c bd
       -0.0012906389 -0.04993239
